cornerModels/model.pt (torch, 841268 bytes, 18 tensors)

weight f4 [32, 1, 3, 3]
000000 be bb f1 3c 20 d1 20 bc 52 19 a5 be 03 d8 e2 3d
       0.029508468 -0.009815484 -0.3224588 0.11076357
000010 e3 8c 37 3e 12 6b ee bc 76 9e 88 bd 9e b5 9d be
       0.17924838 -0.02910379 -0.06670849 -0.30802625
000020 a3 22 7f bc e3 8e 9c bd 7e ec 2d 3e 02 a8 40 be
       -0.015572223 -0.07644441 0.16984746 -0.1881409
000030 e6 15 02 3e 71 89 ea bd 21 31 d3 3b 6e cd 61 bd
       0.12703666 -0.11451996 0.0064450656 -0.055127554
000040 91 a3 97 be 28 20 6e be 38 cb 06 bd b9 36 79 3e
       -0.2961698 -0.23254454 -0.03290865 0.24337281
000050 60 76 ab 3e aa 0e a3 3e 0c cc 05 3e af b0 6b be
       0.3348875 0.31847125 0.13066119 -0.23016618
000060 ed 99 78 bd 1c 47 4b bd f2 b6 fb bd 8a c9 2e 3e
       -0.06069367 -0.049628362 -0.122907534 0.17069069
000070 ee f6 01 3e b9 1e 1e be c7 48 e4 bd c3 c2 10 3d
       0.12691852 -0.15441407 -0.11146694 0.03534199
000080 90 4f 9a bb ac 51 1a be 14 ad 5e 3c cf a5 95 3d
       -0.0047091916 -0.15070218 0.01359107 0.07307016
000090 14 6a a8 bd 72 28 b6 be e4 b4 62 be d8 2a a2 be
       -0.08223358 -0.35577732 -0.22139317 -0.31673312
0000a0 95 bf b2 be b6 cd 11 be d8 31 20 bd 9e 44 35 bd
       -0.3491179 -0.14238629 -0.039110035 -0.04425489
0000b0 96 41 8b 3e a6 6c 3f 3e f6 af f9 bd d0 69 96 bd
       0.27198476 0.1869379 -0.12191765 -0.07344401
0000c0 db f0 95 be 8c cc 4f 3e 05 cb 8f be 25 64 6d bd
       -0.2928532 0.20292872 -0.2808458 -0.057956833
0000d0 12 8a 94 bd 4f ed 1e be c1 90 12 3e d9 f5 39 be
       -0.07252897 -0.15520214 0.14313032 -0.1816019
0000e0 7b 09 0f be f5 fc 57 3e 6b 18 72 3e fa 64 40 be
       -0.1396846 0.21092589 0.23642127 -0.1878852
0000f0 66 c3 1f be a9 e0 4a be 43 d2 b3 3d bd 06 42 be
       -0.15601882 -0.19812264 0.087803386 -0.18947883
000100 b0 a7 ba 3e 60 6f 17 3e db 62 0d bf fd 8e 1c bf
       0.3645606 0.1478858 -0.55228966 -0.6115568
000110 58 92 81 bd 6e 13 15 bf 14 05 0e bf 33 8d f8 bd
       -0.06326741 -0.5823277 -0.554765 -0.121363066
000120 6b 52 53 be b1 cf b6 3d 8c 96 91 3e 07 86 38 be
       -0.20636909 0.08926333 0.2843517 -0.18019877
000130 8c 9f 12 3d 74 4a 99 be a9 b7 f6 3d f1 9e 11 be
       0.035796687 -0.29939616 0.12046749 -0.14220788
000140 ad fa 6a be e5 14 39 bd df 6f 48 bd ae 0b c1 be
       -0.22947188 -0.045185942 -0.048934814 -0.37704223
000150 1e f6 e7 3d 2a ee 43 3e b6 05 31 be 99 05 99 be
       0.1132624 0.19133821 -0.17287335 -0.29887083
000160 66 4a 40 be 49 ab 86 3e 9e db 3b 3e b5 e1 91 be
       -0.18778381 0.26302555 0.18345496 -0.28492513
000170 e7 4e c2 bd 60 1e fc bd 56 7d d9 bd 6d 98 fa bd
       -0.09487706 -0.12310481 -0.10619609 -0.12236104
000180 3f 00 1e 3e ea 5e 69 3e af d6 cb be f0 c3 38 be
       0.15429781 0.22790113 -0.39812228 -0.18043494
000190 60 0e 53 3e 8d d6 47 be 70 7a 10 be 0f bf a6 bd
       0.20610952 -0.19515438 -0.14109206 -0.0814191
0001a0 3c 72 4d bd f3 37 6b 3b 4f ba 55 3d e5 2c 95 be
       -0.05015777 0.0035891503 0.05217963 -0.29135814
0001b0 9e fb 6b 3e ca 91 b5 3d 38 59 1d 3e 82 eb 43 3e
       0.23045203 0.08865698 0.15366066 0.19132808
0001c0 76 12 8c be 66 e4 8f bd 18 bb 59 3d 38 8b 47 be
       -0.27357835 -0.070259854 0.053156942 -0.19486701
0001d0 bf 94 d1 be af d3 a6 be 2b 31 08 be a9 31 f0 bd
       -0.40933797 -0.32583377 -0.13300006 -0.11728222
0001e0 24 17 80 3e ed 6a 90 be e1 5f 37 bd 05 45 90 bc
       0.25017655 -0.28206578 -0.04476917 -0.017611036
0001f0 88 08 2e 3e 0a d4 a2 be 41 7a 9e 3e e9 97 97 be
       0.16995442 -0.31802398 0.30952647 -0.29608086
000200 8a 74 0e 3e 3f 3c 12 3d ce d0 40 be 1d cf d9 be
       0.13911644 0.035701986 -0.18829653 -0.42540827
000210 32 67 9f 3e 4d 78 62 3d 20 69 5d 3e 8d 20 87 b9
       0.3113342 0.05529051 0.21622133 -0.0002577346
000220 5b 1b ba bc 63 49 af bd 82 a0 de bb 1c c7 81 3b
       -0.022718122 -0.08558919 -0.0067940364 0.0039605033
000230 b9 25 6b 3e 10 25 7e be 02 21 fa bd 6e 0b a7 3e
       0.22963609 -0.24818826 -0.12213327 0.32625908
000240 bb dc dc 3d 7d 49 fb 3d 1a f4 1c be e7 32 3d 3e
       0.107842885 0.12269876 -0.15327492 0.18476449
000250 21 7e cf bd 8c f4 b6 be 31 7e 3b bc 7f cf a4 bd
       -0.10131479 -0.3573345 -0.011443661 -0.08047389
000260 0b a5 e5 bd 5b 60 8f bd ac 1b 29 be 41 f6 84 be
       -0.1121312 -0.070008 -0.16514462 -0.25969127
000270 b8 07 2d bc fd ff 26 bd f5 1f bd 3d fd 47 82 be
       -0.010560922 -0.040771473 0.09234611 -0.25445548
000280 46 7c eb bd 1c 10 18 be 91 e7 44 bd ef 63 23 be
       -0.11498313 -0.14849895 -0.0480724 -0.1595609
000290 db c2 81 bd 29 bb d2 bd 92 ee 31 bd 96 b5 93 3d
       -0.06335994 -0.10289604 -0.04344041 0.07212369
0002a0 40 32 b7 bd 57 df 84 bc fa 75 52 be d8 c1 60 be
       -0.08945131 -0.016219778 -0.20552817 -0.21948946
0002b0 23 31 96 3c 13 b2 3b 3e 0d 42 23 be 8e 47 b3 3e
       0.018333977 0.18329649 -0.15943165 0.3501553
0002c0 af 42 98 3e 6c 99 a6 be 5b 36 d3 3d 6f a2 8d be
       0.29738376 -0.32538927 0.10313102 -0.2766299
0002d0 4e 5b 97 be 4b c9 7c 3e 58 fc 49 3c 8d df ec bd
       -0.29561847 0.24686162 0.01232823 -0.115660764
0002e0 ab d4 85 3d 73 5e 7b 3d 8e 97 85 3c d8 8c bc ba
       0.06534704 0.06136937 0.016307618 -0.0014385236
0002f0 3c 06 45 be 77 ab f8 3d 93 24 30 be e3 19 47 bd
       -0.1924066 0.12142079 -0.17201452 -0.048608672
000300 87 32 aa bd ff c6 89 be e8 23 fd bd 34 e9 1a 3d
       -0.083104186 -0.26909634 -0.12360364 0.037820056
000310 08 b5 cd 3d 59 cd 1f be 24 b3 44 3e 44 18 56 bd
       0.100442946 -0.15605678 0.19208962 -0.052269235
000320 4b 78 24 be 11 6d 63 be 67 29 f2 be e6 04 83 bc
       -0.16061513 -0.22209574 -0.47297212 -0.015993547
000330 aa 84 c7 be 17 b5 ed be 70 8d 04 bf e8 34 fc bd
       -0.38968402 -0.46427223 -0.51778316 -0.123147786
000340 8c be e1 bd f7 d0 db be 60 30 04 3e f9 f8 a7 bd
       -0.11022672 -0.42932865 0.12909079 -0.08201785
000350 24 41 1f 3e 74 a7 27 3e 56 9b 9e be 6c 26 18 3e
       0.15552193 0.16372472 -0.30977887 0.14858407
000360 90 9a ca bd 38 48 b2 be 4e 06 da 3d d7 a3 f1 bc
       -0.09892762 -0.34820724 0.10645734 -0.02949707
000370 ce ce 62 be 8a 15 c4 3d a7 c1 46 3e ad 4d 09 3e
       -0.22149202 0.09574421 0.1940981 0.13408537
000380 30 8a b9 3d 23 39 1a be 4a f1 84 be bc a9 b5 bc
       0.0905956 -0.15060858 -0.2596534 -0.022175662
000390 5a f8 08 3e 60 57 40 be d9 e5 8d 3d 86 07 2c 3d
       0.13375989 -0.18783331 0.069286056 0.041999362
0003a0 a9 59 1a be 7c 7a 93 be 24 7e 8f be e7 b0 3e 3e
       -0.15073265 -0.28804386 -0.28025925 0.1862217
0003b0 41 41 fb bd 32 a0 91 bd e7 76 f0 bc a1 00 c4 bd
       -0.122683056 -0.07110633 -0.029353572 -0.095704325
0003c0 73 d4 17 3d c3 9e 6b be 31 a4 3b be 70 e2 d4 3d
       0.03706784 -0.23009782 -0.18324353 0.10394752
0003d0 a9 cf 0e 3e 5b 72 09 3e 12 40 1d 3e ab a8 23 be
       0.13946404 0.1342253 0.15356472 -0.1598231
0003e0 13 bf 67 3e a3 40 00 be 04 63 6a bd a1 11 c6 be
       0.22631483 -0.12524657 -0.057223335 -0.38685325
0003f0 b6 b0 3f 3e da 7d 70 3d 24 cb 0b be 57 7e 24 3e
       0.18719754 0.05871377 -0.13651711 0.1606382

bias f4 [32]
000000 fe d0 88 bd 22 5e f8 bd 19 59 92 be 43 63 36 be
       -0.06680487 -0.121273294 -0.285836 -0.17811303
000010 09 16 cf 3b 1a 3b a2 3e 02 d1 58 be fd 14 4b bd
       0.0063197655 0.31685716 -0.2117348 -0.049580563
000020 e1 7d 9f 3c 52 44 85 3c 7d 95 76 be 78 b3 c7 3d
       0.019469203 0.01626793 -0.24080463 0.09751028
000030 56 13 7f bc 54 41 07 bd 2e 11 d2 bd b3 9f 8f be
       -0.015568575 -0.033021286 -0.10257183 -0.28051528
000040 37 33 85 bc c1 43 ac bb 3b d5 e3 bc 33 90 69 bc
       -0.016259773 -0.0052571003 -0.027811637 -0.014255571
000050 1a 27 98 be f9 ae f5 bd ce 0e 17 3e 30 e9 02 3c
       -0.29717332 -0.11996264 0.14751741 0.007990167
000060 fa 20 5b bd 79 b2 a5 bd 45 cf 30 3e cc 7b 75 be
       -0.053498246 -0.080906816 0.17266567 -0.23973006
000070 9b 8b 83 be e3 4e a8 bd a2 bc eb bd a0 ac 21 bd
       -0.25692448 -0.082181714 -0.11510588 -0.03947127

weight f4 [64, 32, 3, 3]
000000 fa 90 eb bc a5 a6 11 bd f1 e6 63 3b 1c 23 26 bd
       -0.028755654 -0.035559315 0.0034775103 -0.040560827
000010 c4 e9 8b bb 1d 93 2e 3d 66 8e e2 3c 2a 79 8a bd
       -0.0042698104 0.042620767 0.027655791 -0.067613915
000020 e1 1e 03 3d cf b9 e3 3c 9d d7 b2 bc af 06 38 bc
       0.03201187 0.027798561 -0.021831328 -0.011232062
000030 b8 6b f5 bc aa 23 16 bd fb 9e fd 3c 0f 45 b7 3c
       -0.02995859 -0.036655106 0.030959597 0.022371797
000040 de cc 5a 3d 22 26 86 3b c5 3c 1e bd 21 e3 f6 bc
       0.053418033 0.0040939013 -0.038632173 -0.0301376
000050 98 c5 84 bd 7b 7c 94 bd 41 9d d7 bd e6 9a 22 bd
       -0.064830005 -0.07250305 -0.10528041 -0.039698504
000060 5d ed 38 bd 34 ae 7e bd 62 6f 41 bd f6 1c a6 3b
       -0.045148242 -0.06217785 -0.047225364 0.0050693704
000070 83 16 64 bc c4 81 b6 bd 7d 83 79 bd 65 9d d5 bc
       -0.013921383 -0.089114696 -0.060916413 -0.026076028
000080 09 e3 b0 bd f9 22 a3 bd 5b 9b ac bb 8f 6e 6e 3c
       -0.086370535 -0.07965655 -0.0052675433 0.014552726
000090 26 51 9e bd 2b 09 d0 bd d5 0e 53 bd 31 83 e4 bc
       -0.077303216 -0.10157999 -0.051527817 -0.027894588
0000a0 c9 16 0e bd 28 e6 3d bd 54 a8 93 bd f6 55 3e bd
       -0.0346897 -0.046362072 -0.072098404 -0.046468697
0000b0 cf f8 a3 bd 78 72 19 bd 84 e5 70 bd 0a e5 27 bd
       -0.08006441 -0.03746268 -0.058812633 -0.040989913
0000c0 34 28 1f be 50 99 12 be 38 e3 81 bc 90 23 6c bd
       -0.1554268 -0.14316297 -0.015855417 -0.057651103
0000d0 e1 d9 89 bd bf e6 c7 3b 6a 84 4e bd 62 d0 23 3d
       -0.0673101 0.006100505 -0.05041925 0.03999365
0000e0 57 29 0b bd 4f 34 20 bd f4 58 4f 3c 55 89 04 bd
       -0.03397497 -0.039112385 0.012655485 -0.032357533
0000f0 56 97 59 3c fc d3 6b 3c 77 96 82 bd ca 10 fa bc
       0.01328071 0.014393803 -0.06376355 -0.030525584
000100 ff 22 ed 3b 38 a3 88 bd cb 83 be 3b 66 a2 d3 bc
       0.007236838 -0.066717565 0.005814051 -0.025834274
000110 7e d1 1a 3d b7 04 6a bd 6b 93 6d bc 92 59 f2 3c
       0.037797444 -0.057133403 -0.014500479 0.029583726
000120 48 39 0e bd 47 97 e2 bb af ea 22 bd f1 43 5f bd
       -0.034722596 -0.0069150063 -0.039774593 -0.054508153
000130 5b 54 d4 bd 09 09 3e bd 3d 20 a5 bd e9 f4 a7 bd
       -0.10367652 -0.046395335 -0.080627896 -0.0820101
000140 f8 db ea bc 8a 18 98 bd 7e a4 4a bc bf 45 d7 bc
       -0.028669342 -0.074265555 -0.01236832 -0.026278375
000150 12 97 9a bb aa cf 8f bd 47 4e 82 bd af 36 bd bd
       -0.004717716 -0.07022031 -0.063625865 -0.09238946
000160 1f 26 95 bd 9f f4 e2 3c 4d e4 40 bc 7a d2 f1 bb
       -0.07282662 0.027704535 -0.011773181 -0.007379827
000170 d9 1d 8c 3c 9e c2 17 3d aa 51 a5 3c 85 8d 4f bc
       0.017104076 0.037050836 0.020180542 -0.012668018
000180 03 2a 0b 3c a4 f1 4a bd 6c f4 1f bd c5 d3 60 bc
       0.008493903 -0.049546853 -0.03905146 -0.013722365
000190 1c cf fe bc cd 88 0b 3d d6 74 91 bc 3f 6d 04 bd
       -0.031104617 0.03406601 -0.017755907 -0.032330748
0001a0 5e e3 2f 3d e1 34 20 bd 6c e7 70 3c 84 48 2e bd
       0.042941444 -0.03911293 0.014703613 -0.042549625
0001b0 6f 0c ae 3c a3 26 39 3d f8 54 46 3d dd 18 f6 bb
       0.021246163 0.045202862 0.048420876 -0.007510288
0001c0 45 81 cc 3c f4 13 81 bb 01 17 95 3c 78 95 db 3b
       0.024963984 -0.003939146 0.018199446 0.0067011677
0001d0 5e 24 27 3c aa 70 8a bd 56 e4 a1 3c fd db 3e bc
       0.010201542 -0.0675977 0.0197622 -0.011649129
0001e0 af ca 7c bd 3c aa 82 bd 99 d7 8e bc e6 cb 1a 3d
       -0.06171673 -0.06380126 -0.01743679 0.03779211
0001f0 87 ce 7a bc 07 9f f8 39 64 17 84 bd d3 1e d8 bc
       -0.015308029 0.0004742073 -0.06449774 -0.026381886
000200 f4 e9 d1 bd e7 1c 1c bd 69 a9 2e 3c 1a 65 67 bd
       -0.10249701 -0.0381135 0.010660508 -0.056492902
000210 53 4f 6c bd 2f 21 61 bd 17 d8 4d 3d 2c 1b 2e 3a
       -0.057692837 -0.054963287 0.050254907 0.0006641622
000220 53 f7 2e bc 13 43 d0 bd 0b 61 f7 bc da 59 d8 bc
       -0.010679084 -0.101690434 -0.03019764 -0.026410032
000230 cd 2b 0a bd 81 28 1f bd 7e e2 9c bc 97 9f aa bc
       -0.033733178 -0.038856987 -0.019150969 -0.020828051
000240 32 cd 63 3d 98 f8 83 bc 96 54 af 3d 2b 91 57 bc
       0.05561561 -0.01610975 0.08561055 -0.013157169
000250 72 13 e3 3b 0b 9a cf 3d ca 00 1d bc 8f 34 e9 bb
       0.0069298083 0.10136803 -0.009582708 -0.007116861
000260 0b ce e4 3c 47 51 06 bd ba e7 39 bd 96 e6 99 bd
       0.02793028 -0.032792356 -0.045387007 -0.07514684
000270 57 0e 04 bc 36 f2 21 bd c8 62 fd bc 39 7d 82 bb
       -0.0080600595 -0.03953763 -0.030930892 -0.003982213
000280 2a 19 ae bd c5 54 60 bd e3 c8 e9 bc d4 28 fc 3c
       -0.085008934 -0.054768343 -0.028538173 0.030781187
000290 ad e6 36 3a a4 5a 28 3b 57 9f 38 3d 8d b3 9a bc
       0.00069771224 0.0025688792 0.045073833 -0.018884445
0002a0 eb 1f 38 bd e4 e9 41 3d d0 10 65 bd c3 29 8e bd
       -0.044952314 0.047342196 -0.055924237 -0.06941559
0002b0 45 79 85 3b 13 90 9b bd 87 45 05 3c 76 b1 e3 bc
       0.0040732943 -0.07595839 0.008134252 -0.02779458
0002c0 d3 d7 36 bd ec 6d 8c bc 49 e8 76 bc ac fd 8b bd
       -0.04463942 -0.017142259 -0.01507003 -0.068354934
0002d0 83 0e db 3c e6 f5 4e bd 48 c5 07 bd 4b 8c 0a 3d
       0.026740318 -0.050527476 -0.033147126 0.0338252
0002e0 f2 50 cf bc ca 3f 94 bd 31 05 12 bb b4 b9 99 bc
       -0.025307152 -0.07238729 -0.0022280926 -0.018765308
0002f0 5b 18 0e bd 03 4f 08 bd e9 2b 8f bd 3a 61 aa 3c
       -0.034691196 -0.033278476 -0.06990797 0.020798314
000300 1c be 8c bd ad 61 0f bd 30 cd f5 3c cd 25 20 bd
       -0.06872198 -0.03500526 0.030005068 -0.03909855
000310 47 ff 75 bd bb 0e 16 bd a7 1f 3f bd de f1 69 bd
       -0.060057905 -0.03663514 -0.046661045 -0.05711543
000320 f1 05 15 be 91 c4 6a bd 00 9d b0 bd 81 71 be bd
       -0.14553048 -0.057316367 -0.086236954 -0.09298993
000330 40 70 aa bd 6f a5 73 bd 91 36 5c bd a3 c8 4f 3d
       -0.08322191 -0.05948394 -0.053762976 0.05072845
000340 7b ae 06 3d 55 23 82 bd 69 43 00 bd 08 c6 5b bd
       0.03288124 -0.06354395 -0.031314287 -0.053655654
000350 bd ef b5 bd 26 e3 84 bd c7 bf 27 bd 93 ff 10 bd
       -0.08883617 -0.064886376 -0.040954378 -0.035399985
000360 6f 73 89 3b 82 07 81 bd 1f 0c b8 bd cd 91 03 bc
       0.004194669 -0.0630026 -0.08986687 -0.008030367
000370 9f 65 8c bd 14 00 ed bc 6b 8d 91 bb 77 83 43 3c
       -0.0685532 -0.028930701 -0.004441907 0.011933199
000380 20 e3 4c bd 92 8b 4d bd cb aa b7 bd c1 17 37 bd
       -0.05002129 -0.050181933 -0.08968123 -0.044700388
000390 59 ec d3 3b 31 92 96 39 7d cf b2 bd 78 56 27 bd
       0.006467384 0.0002871915 -0.087309815 -0.040853947
0003a0 de c9 43 bd 4e 46 8d bd 89 a6 7a bd 5a f2 07 bd
       -0.047799937 -0.06898175 -0.061193977 -0.03319011
0003b0 a9 e3 d6 bc 7e 60 cd bd a3 76 d8 bc 40 71 8f bb
       -0.026231604 -0.1002817 -0.026423758 -0.004377514
0003c0 6f b3 6a bd bc 5b f5 bb e6 64 b5 bd 42 56 4a 3c
       -0.057300027 -0.007487742 -0.088571355 0.012349667
0003d0 5d 85 ab 3c c2 c4 55 3d be 54 4a 3a 82 74 3c bd
       0.020937616 0.052189596 0.0007718316 -0.046009548
0003e0 83 7c de bd 1f 13 41 bd 59 c0 3c bd 1d ba ab bd
       -0.108635925 -0.047137376 -0.046081875 -0.08385108
0003f0 71 54 2d bd 84 48 97 bd ee fe 48 bd d3 46 91 bd
       -0.042316858 -0.07386878 -0.049071245 -0.07093587

bias f4 [64]
000000 61 94 d2 bc fe 2a 8e bd 40 a7 ff bc 2d f9 6e bd
       -0.025705518 -0.06941794 -0.03120768 -0.0583431
000010 01 ed a1 bc 3a 65 5a 3d 9e 01 8a bd 15 d2 65 bd
       -0.019766333 0.053319193 -0.0673859 -0.056108553
000020 e6 98 12 bd af 58 3c bd b7 c3 32 bd 9b 67 bf bc
       -0.035790347 -0.045983013 -0.04364368 -0.023364833
000030 15 02 11 bd da 6a 4c bd 5a c1 28 bd 85 19 3b bd
       -0.035402376 -0.04990659 -0.04120002 -0.045678634
000040 bf f9 35 bc d9 43 a4 bc ab 73 0a bd 29 eb d2 bd
       -0.011106907 -0.020051884 -0.033801716 -0.102987595
000050 23 e7 9d bd 23 2c 16 be 6e 60 5c bd e7 43 47 bd
       -0.077101015 -0.14665274 -0.0538029 -0.04864874
000060 e8 3e a7 bd b5 e2 7b bc a2 03 a1 bd 69 6a 55 bd
       -0.08166295 -0.015373875 -0.07862021 -0.052103434
000070 c5 30 f7 bd 27 75 4a bd 4a 75 d3 bd 69 6a 96 bc
       -0.12069849 -0.04942813 -0.103251055 -0.018361287
000080 c0 a9 8a bd 3c e5 92 bc 0c 42 a6 39 26 12 c4 bd
       -0.067706585 -0.017931573 0.00031711196 -0.09573774
000090 5b 96 b6 3c 1a 82 6f bd ff 7d e8 3c 00 f7 81 bd
       0.022288492 -0.058473684 0.028380392 -0.0634594
0000a0 b4 87 84 be 72 40 24 bb 91 6a 52 bc 23 8e 8e bd
       -0.25884783 -0.0025062826 -0.01284279 -0.06960704
0000b0 a5 ef a7 bd 3e f7 8b bd f4 72 00 bd a3 7f b2 bd
       -0.082000054 -0.06834267 -0.031359628 -0.08715751
0000c0 62 bc 7d bd f4 c6 4c bd 55 89 3f bc 25 61 06 be
       -0.061947234 -0.049994424 -0.011690457 -0.13122995
0000d0 95 f4 ac bd 8c 71 83 bd dc e0 25 bd 7e aa ce bc
       -0.08445088 -0.06418142 -0.040497646 -0.025227781
0000e0 32 63 41 bd d6 61 e0 bd bf 02 df bc 24 cf 57 bd
       -0.04721374 -0.10956161 -0.02722299 -0.05268778
0000f0 6c 8d a2 bc cb a2 3a 3d 92 89 c8 bd 8d 7a 51 bd
       -0.019842826 0.045565408 -0.097918645 -0.051142264

weight f4 [64, 64, 3, 3]
000000 72 a3 02 bd 3b 3c 59 3b 4b 94 e5 3b b0 1d 38 bb
       -0.031894155 0.0033147472 0.0070062033 -0.0028093867
000010 08 92 72 bc 01 64 d1 bb 4d 0f 11 bd ab 6e d8 bb
       -0.014805324 -0.006390095 -0.035414983 -0.0066049895
000020 ce 24 9b bb d3 4b f3 ba a4 0f 53 bc 6b 79 bf ba
       -0.004734612 -0.0018562026 -0.012882147 -0.0014608329
000030 be 90 30 bc 52 9d 05 3d 2f 97 e8 3b df b0 5e 3c
       -0.010776697 0.032620735 0.0070981006 0.013591974
000040 d5 74 18 3c f3 6f e3 3c 5a 81 ab 3c b0 a1 88 bc
       0.009305199 0.027763342 0.020935703 -0.016678661
000050 28 c7 e5 bc 40 bd d0 ba 87 6a 3a 3c 39 9c 38 bd
       -0.028049067 -0.0015925542 0.011377937 -0.04507086
000060 6e 1b 2e bd 40 f4 82 3c 1c 3e 94 3c eb e5 88 3a
       -0.042506628 0.015985608 0.018096022 0.0010444497
000070 56 1b b9 bc 20 26 df 3a 50 07 13 3d a2 2a e5 3a
       -0.022596043 0.0017024912 0.035895646 0.0017484019
000080 43 37 17 3d fb f7 18 bd ec 2d 59 bd c6 9f 83 bc
       0.036917936 -0.037345868 -0.05302231 -0.016067397
000090 b9 b5 7d bc 9a 3b 2e bc 75 d1 bc bc 18 d8 70 ba
       -0.015485221 -0.010634327 -0.023049096 -0.0009187474
0000a0 0d 53 93 bc a4 67 92 bc e4 d6 95 bc 4c 08 8e bb
       -0.017983938 -0.017871685 -0.018290944 -0.004334485
0000b0 20 6f 6f ba 39 c0 b2 ba d1 d1 81 bc dc ad 2f bd
       -0.00091336854 -0.0013637609 -0.015847119 -0.042890415
0000c0 f6 01 18 bc 1c 7d 54 bd 77 3c 38 bd 87 06 33 3c
       -0.009277811 -0.051877126 -0.04497954 0.010926849
0000d0 65 86 11 bc 0e cd 18 3c 5e cc cd 3c e7 41 2d bb
       -0.00888214 0.009326233 0.025121864 -0.0026436986
0000e0 78 f4 6a bc 7b a3 00 bb 27 b9 e6 3c e4 12 94 bc
       -0.014340512 -0.0019628692 0.02816446 -0.018075414
0000f0 d9 70 4a 3c c1 18 c3 bc f9 6e 03 bd 83 3b 3e bc
       0.012356007 -0.023815515 -0.032088254 -0.011610868
000100 40 21 1e bd fb ce af 3c fe 73 72 3b e2 e8 38 bc
       -0.03860593 0.021461 0.0036995406 -0.011285992
000110 63 7d 0d 3d e1 ae 9a 3c c8 81 db 3a c0 9c 1f bc
       0.034543406 0.018882217 0.0016747052 -0.009741962
000120 34 f9 af bc 1e 7e d7 3b 1a 67 1e bc d5 8b 25 bc
       -0.021481134 0.0065763136 -0.009668136 -0.010104139
000130 a0 f7 30 bd be 52 22 bd e6 1f a9 3c 38 99 86 bc
       -0.043204904 -0.03962969 0.020645093 -0.016430482
000140 ac 45 bf 3b c3 6d 07 bb 50 91 92 bc 9a 68 61 3c
       0.005837163 -0.0020664788 -0.017891556 0.013757849
000150 19 e8 0e bc c3 76 37 bb d5 cf 3e 3c e7 7a ab 3c
       -0.008722329 -0.0027994371 0.011646231 0.020932628
000160 97 61 22 bc 85 1f c3 bc 50 85 40 3c 0c 11 3d bd
       -0.009910963 -0.02381874 0.011750534 -0.046158835
000170 15 fe 6e bc 13 c3 54 bc ed f4 27 bd 3e c2 af bc
       -0.014586945 -0.012985962 -0.041005064 -0.021454927
000180 d9 75 14 bd 26 32 c9 bb de e4 a1 3c d4 86 66 3c
       -0.0362452 -0.0061400114 0.019762453 0.0140702315
000190 b1 f0 c2 3c fa 22 a5 3c 10 65 87 3c b2 b5 d1 3c
       0.023796411 0.02015828 0.016527683 0.025599334
0001a0 86 83 be 3c 01 ae eb 3c 8b bb 72 3c 24 af 09 bd
       0.023256075 0.028769495 0.014815222 -0.033614293
0001b0 08 9c 12 bc d1 f6 ac 3c b6 fe 26 bd 83 4b 12 bc
       -0.008948334 0.021113785 -0.040770255 -0.008929136
0001c0 82 99 bc 3c d4 60 77 bc 08 e6 0d 3c 41 bd 2d bd
       0.023022417 -0.015098769 0.008660801 -0.042416815
0001d0 95 e6 2c bd 20 36 45 bc 13 0b ff bc 88 42 86 3c
       -0.042212088 -0.01203683 -0.03113321 0.016389146
0001e0 a8 3a c8 3b 54 1d 02 3c a4 28 7f 3c 6f 11 07 bd
       0.006110508 0.007941563 0.015573654 -0.03297561
0001f0 f6 a1 9f 3c fc 44 03 3c 1b 64 1c bd cd 2c 85 3a
       0.019486409 0.008012053 -0.038181406 0.0010160446
000200 e0 1e 8e 3c 85 d3 f0 bc b1 62 7e 3c e0 d0 c9 3b
       0.017348707 -0.029397735 0.01552646 0.006158933
000210 40 05 08 bd c0 f4 d9 bc e6 d4 d0 bc e3 26 e0 3c
       -0.03320813 -0.026605964 -0.025492143 0.027362293
000220 83 1b cd 3c d0 9b 85 bc 95 06 c0 bc 8d 60 90 3b
       0.025037533 -0.016309649 -0.023440639 0.004406041
000230 4f 76 a0 bc e3 5b a3 bb 53 b1 97 3b 05 6e d3 3c
       -0.019587664 -0.004985319 0.004629293 0.025809297
000240 93 13 98 3c af ae 71 3a b7 09 84 3b d0 5f 10 bd
       0.018564021 0.00092194503 0.0040294784 -0.035247624
000250 5c f7 a0 bc 0e 53 09 3d b8 f5 46 bd e5 22 04 3d
       -0.0196492 0.033526473 -0.04857418 0.03225984
000260 fb af e0 bc f6 ad 07 3d 65 d4 15 bd bf 14 2f bd
       -0.027427664 0.033124886 -0.03657951 -0.042744394
000270 2a 93 fc 3c a0 40 f9 3c 37 e6 af 3b e9 a8 06 bd
       0.030831892 0.030426323 0.00536802 -0.03287593
000280 93 5d 5e bc 36 b2 cf bc 40 56 94 3c c9 4e 5e 3c
       -0.0135721145 -0.025353532 0.018107533 0.0135685885
000290 b2 73 1e 3c 3a fd db ba cf 6b 1a bd 57 81 83 bc
       0.009671139 -0.0016783841 -0.03770047 -0.016052885
0002a0 73 ca ef bc a9 31 6f 3c d0 c4 09 bc a0 a6 10 bc
       -0.02927134 0.014599242 -0.00840874 -0.008828789
0002b0 be d4 db 3b 6d be 4a bc 56 fc 9d bc e4 8e 1d bd
       0.0067087105 -0.012374503 -0.019285362 -0.03846635
0002c0 db 8c 19 bd f8 dc 77 3c b6 e4 99 ba dd 70 f9 bc
       -0.037487846 0.015128367 -0.0011741135 -0.030449325
0002d0 e7 de 03 bb 67 d8 dc bc 37 6e ca 3c 4d 3c 6b 3c
       -0.0020121874 -0.026958657 0.024710758 0.014357639
0002e0 4b 09 04 bd f7 3e eb bc 5d 56 0c bc 0e 2a e7 bb
       -0.032235425 -0.028716547 -0.0085655125 -0.007054574
0002f0 d3 39 ff bb 65 1b ab bc 55 05 49 bc 12 ca c2 3c
       -0.0077888756 -0.020887086 -0.012269338 0.023777995
000300 68 44 9b bb 48 23 d9 3c 71 24 0c bc 55 07 93 3c
       -0.0047383793 0.026506081 -0.00855361 0.017947832
000310 fe 3e 76 bb 11 93 9e 3c 8e fc 80 3c 25 27 cf bc
       -0.0037574167 0.019357236 0.015745427 -0.02528722
000320 ee 06 c1 3c b6 d2 1d bc d2 b8 e8 bc 22 32 97 3c
       0.023562875 -0.009632757 -0.028408442 0.018456522
000330 17 e5 0e bd d7 71 a4 3c a0 92 ba ba e3 f9 80 3c
       -0.034886446 0.020073814 -0.0014234371 0.015744155
000340 d8 d0 7a 39 64 b6 ca bc a3 4a 58 bd 77 62 57 bd
       0.00023919658 -0.024745174 -0.052805554 -0.052584138
000350 05 84 e1 3c 24 cc 09 bc b9 79 7c bc 1f 48 d2 ba
       0.027528772 -0.008410487 -0.01540988 -0.0016043222
000360 a7 f0 62 bc ea 33 b2 bc 37 bb d8 3c f2 f6 e0 3c
       -0.013851321 -0.02175327 0.026456458 0.027461503
000370 3b 69 20 3c 92 1b d9 bb b2 dc 82 bc fe 4b e0 3b
       0.009790714 -0.006625601 -0.015974376 0.0068449965
000380 3a 12 d5 bc 60 a0 90 3b 8a 7f d5 bc e4 71 b0 bc
       -0.026009668 0.0044136494 -0.026061792 -0.021538682
000390 19 db 6c 3c ad cb ef 3b 38 93 0d bd 08 e1 98 3c
       0.014456534 0.007317981 -0.034564227 0.01866199
0003a0 ee f9 b8 bc a1 63 19 3b 34 6f 53 3c 30 3e 92 3c
       -0.022580113 0.002340533 0.012904931 0.017851919
0003b0 d8 ba b3 3b 2b 8c 10 bd e0 06 81 3c 46 43 cf 3c
       0.00548492 -0.035289925 0.015750349 0.025300633
0003c0 08 e3 81 bb b9 95 21 3d 28 b8 ed bc 78 2c 14 bd
       -0.003963832 0.039449427 -0.029018477 -0.03617522
0003d0 ae 96 15 bd 41 79 09 3d c2 07 3a bc 83 06 10 3d
       -0.036520652 0.033562902 -0.011354389 0.03516246
0003e0 4e ca 24 bd 27 94 c2 bc fb ff 0c bc b8 18 1d bd
       -0.040231995 -0.023752285 -0.008605952 -0.03835365
0003f0 06 7a c3 bc 02 39 b4 bc 92 7f 51 bc 11 ad 89 bc
       -0.023861896 -0.02199984 -0.012786763 -0.016806157

bias f4 [64]
000000 38 ea 45 bc 7a 3f 3f 3b 67 21 51 bd eb 1b 0b 3d
       -0.012079768 0.0029182122 -0.051057246 0.03396217
000010 22 75 0b bd f6 4b be 3d 58 43 6a bd 35 0d 81 3c
       -0.034047253 0.09291832 -0.05719313 0.015753368
000020 ae 72 9e 3c bf 5a e9 bc d9 a1 e0 bc 44 30 13 bd
       0.019341793 -0.028485654 -0.027420925 -0.0359347
000030 d4 34 21 bd 88 3d 96 bd cd f8 8a 3c 3c c3 19 3d
       -0.03935702 -0.07335955 0.01696434 0.037539706
000040 1d 03 e6 bc 03 5f 49 3c 79 c6 5a bc 15 5c fa 3c
       -0.028077656 0.012290719 -0.013352984 0.030561486
000050 5d 42 81 3c 4d 05 80 bd e4 c3 b3 bd 16 d5 ea 3b
       0.015778715 -0.06251011 -0.087775975 0.007166515
000060 c5 43 8f bc ba c6 a0 bc 59 4d 88 bd e2 b3 93 bc
       -0.01748837 -0.01962601 -0.06655378 -0.01803011
000070 37 c1 d7 3c 9e d6 86 bd 40 51 1a bc 41 b5 3d 3d
       0.02633725 -0.06583904 -0.009418786 0.046315435
000080 b9 09 a8 bb fc 1b 8e bc 10 ba 09 bd 6b ab 36 bd
       -0.005128112 -0.017347328 -0.03362471 -0.04459707
000090 3d 13 da ba 94 c4 26 bd 9e b1 38 bd 25 09 fa bc
       -0.0016637814 -0.040714815 -0.045091264 -0.030521939
0000a0 ea 51 8f bd 46 4a 22 bd c7 3c b8 bc 2a 1a ba bd
       -0.06998046 -0.039621614 -0.022489918 -0.09087022
0000b0 e4 57 c4 bd 1c 43 05 bd a8 a1 41 bd 07 23 2e bd
       -0.09587076 -0.032534704 -0.047273308 -0.042513873
0000c0 e4 8d 52 bd e9 56 86 bd 76 3c 2c bd ce d8 50 bd
       -0.05140485 -0.065595455 -0.042049848 -0.05098801
0000d0 d8 67 05 bd f6 df 84 bb 2c d0 6b bd 03 eb 46 3b
       -0.032569736 -0.0040550185 -0.057571575 0.003035248
0000e0 e7 72 27 bd 3f 6e 10 bd ed d3 a2 bb 6e 78 76 bd
       -0.040881064 -0.03526139 -0.004969111 -0.060173444
0000f0 ef 4b 97 bd 82 47 2c bd 1b 90 8d bd 53 05 c7 bd
       -0.0738753 -0.042060383 -0.069122516 -0.097178124

weight f4 [64, 64, 3, 3]
000000 40 fb e5 ba 4e 70 b7 3c fc e2 9d 3c b6 26 bd 3c
       -0.0017546192 0.022392418 0.019273274 0.023089748
000010 54 43 d7 3c 2b c3 e7 3c d4 cd 1f bd ab c2 a4 bb
       0.026277222 0.028291306 -0.039014652 -0.005028089
000020 2f bb 93 bc 36 6a 63 3d 4f 8b 50 3d 85 c0 ef ba
       -0.018033592 0.055521213 0.050914105 -0.0018291628
000030 91 50 85 3d d3 d7 97 bc aa c4 a5 3b f5 91 8a 3c
       0.065095074 -0.01853553 0.0050588446 0.0169153
000040 d7 bb 5d bd c2 41 43 bd 7b 6e 25 bd 36 fc 8e bc
       -0.054134216 -0.047670133 -0.040388566 -0.017454248
000050 fd d8 6b 3a f0 93 6b bc d3 07 0a 3d da a2 7f 3d
       0.00089968723 -0.014378533 0.033698868 0.062411167
000060 dd 33 9e 3c b4 d2 8a bd c2 f9 49 bd 49 c9 d2 3d
       0.01931184 -0.0677847 -0.049310453 0.10292298
000070 a8 6e 28 3d 5d d6 b3 3c 5c dc 25 3d cb 68 e2 bc
       0.041121155 0.021952802 0.040493354 -0.02763786
000080 c2 9d f8 bc 57 2e eb 3c 80 c6 2a be e4 ea f7 bd
       -0.030348662 0.02870862 -0.16677284 -0.12105349
000090 e3 94 20 3d 3f 15 23 bc ef 8a c2 bc ec f1 b4 3c
       0.03920449 -0.009953796 -0.02374789 0.022088014
0000a0 b4 1d 8d bd 37 19 49 bd e6 30 3d bc d4 41 c8 3a
       -0.06890431 -0.049096312 -0.011547303 0.0015278407
0000b0 b9 5a 03 bd d5 b9 5c be 8b 89 ef bd a4 71 bf 3c
       -0.03206894 -0.21555264 -0.11696156 0.023369618
0000c0 72 5c cd bd df 07 7c bd 9a 33 85 3d f1 91 c9 ba
       -0.10027398 -0.061530944 0.06503983 -0.0015378577
0000d0 f5 49 37 bd 2d 96 e9 3a 10 85 04 bd e3 f7 9e bc
       -0.044748265 0.0017821245 -0.03235346 -0.019405311
0000e0 c4 19 74 bd 97 69 d3 bb 2f 64 5e 3c d4 a7 d3 bc
       -0.059594885 -0.0064517963 0.01357369 -0.025836863
0000f0 d6 0c 09 bd 21 92 5f bb 98 32 2c 3d a5 6c db 3c
       -0.033459507 -0.00341142 0.042040437 0.026785204
000100 93 ec 2e 3c 33 c3 21 bd 85 ee 69 3d a6 77 ff bc
       0.010676521 -0.039492797 0.057112236 -0.031184983
000110 a0 a9 37 bd 30 ca c5 3d 5a 9a 96 bc 13 2d a9 bd
       -0.0448395 0.09657705 -0.018384147 -0.0826055
000120 7d 3e ae 3b 19 93 10 3d 03 be 7a bd ba 36 9d 3d
       0.005317508 0.035296533 -0.061216366 0.07676454
000130 60 a7 37 bd f8 61 51 3d ea 6e 92 3c 45 4f 70 bc
       -0.044837356 0.05111882 0.017875154 -0.014667337
000140 0f c1 25 be 77 f0 2b 3b 6a 94 ba bc 2c b6 7a bc
       -0.16186927 0.0026235858 -0.022775847 -0.015302222
000150 43 2b e5 bc 23 93 ab 3c 83 4b 69 3c 09 1d 68 3c
       -0.02797473 0.020944184 0.014239195 0.014167079
000160 6a 0c 9f 3c e4 ab 68 bc 1c d9 c6 3a 26 c5 03 3d
       0.0194151 -0.014201138 0.0015170905 0.032170437
000170 04 dd a0 3c 2c 96 fe 3c 65 be ad 3c fd 49 8f 3a
       0.019636638 0.031077467 0.021208951 0.0010932084
000180 dc 73 1a bd b7 7d 01 bd 5f b6 85 3c 42 7e 0b 3d
       -0.03770815 -0.03161403 0.016322313 0.034055956
000190 12 03 e4 3c 0e 00 b6 bc a9 d7 04 3b b3 f7 c1 3c
       0.027833495 -0.022216823 0.0020270145 0.023677683
0001a0 bc 78 2a 3c 16 10 9d 3c 3a 52 23 bc a6 1b 20 bc
       0.010404762 0.01917271 -0.009968335 -0.009772217
0001b0 86 61 36 bd fb 43 20 3c c9 f1 91 3c 77 e6 1b bb
       -0.0445266 0.009781833 0.017815487 -0.002378849
0001c0 46 1b 2d 3c 0e 00 b0 3c a8 fe 4d bd c7 40 2a 3d
       0.0105655845 0.021484401 -0.050291687 0.041565683
0001d0 2f 96 cd bc 86 59 54 bd 40 d2 4d bc 53 ad 90 ba
       -0.025096027 -0.05184319 -0.012562335 -0.0011037983
0001e0 a0 6e 47 3c 73 78 9e bc f8 f5 ec 3b 6a ec 79 3c
       0.012172371 -0.019344544 0.00723147 0.015254119
0001f0 e7 c0 f5 3b 66 a3 fa bb 40 0e 00 bb aa e3 f4 3b
       0.0074998024 -0.007648873 -0.0019539744 0.0074734287
000200 e9 1f ea bd 22 81 2c 3d d9 7b b4 3a 42 17 d2 bc
       -0.11431868 0.04211534 0.001376982 -0.025645856
000210 c4 7c d5 3d 22 f1 1f 3d 4a bd 85 bc 66 e0 7f 3d
       0.10424188 0.03904832 -0.016325612 0.062469862
000220 04 52 00 bd 64 01 27 3c 0a 3a 0f be 4d 87 10 be
       -0.031328216 0.010193203 -0.13986984 -0.14114113
000230 37 30 b8 bd cb 9a a0 bd a6 ac 4a bd c3 34 03 bd
       -0.08993571 -0.078420244 -0.049481057 -0.03203274
000240 0a 6c b0 3c 0c 46 f8 3c 5a 68 c0 3a 31 1d 30 3d
       0.021535892 0.030306838 0.0014679537 0.04299659
000250 28 90 26 3c 51 27 ce ba 45 4d 9a bc 64 7f 5c bd
       0.0101662055 -0.001572827 -0.018835673 -0.053832427
000260 97 fa 5c bd a6 40 5e 3e bc d7 25 3e 33 92 92 3b
       -0.05394992 0.21704349 0.16195577 0.0044729947
000270 e6 48 40 3d e9 ad e2 3d d7 2f be 3d 73 4c 55 3d
       0.04694452 0.11068327 0.092864685 0.05207486
000280 1b 7f 3e bd ad 98 58 be 52 e7 05 bd 7b bd 80 bd
       -0.046507936 -0.21151991 -0.032691307 -0.062861405
000290 64 de 28 3d 46 9f bc bb 6d 58 4c bd f9 1e c8 bc
       0.041227713 -0.0057562916 -0.049889017 -0.024428831
0002a0 62 46 ef bb 28 1b 0c 3b de 4b d6 bb 8a 3f a6 3d
       -0.0073020915 0.002137849 -0.006539806 0.08117588
0002b0 e0 b5 88 3d d6 e8 d8 3c bc 6b 64 3c 7b 46 51 bd
       0.06675315 0.026478212 0.0139417015 -0.051092606
0002c0 7b e0 e1 bc 92 d0 35 ba c9 30 d7 bd bf 94 cf bd
       -0.027572861 -0.00069356814 -0.10507352 -0.10135793
0002d0 b0 c8 d4 3d c9 fd 06 bc 6c 56 0b bd a8 5f 0f 3e
       0.103898406 -0.008239218 -0.034017965 0.14001334
0002e0 82 b8 03 bc 05 5b 3d bd 1b 7c 6b 3d 59 4d b1 bd
       -0.008039596 -0.04622938 0.057491403 -0.08657331
0002f0 c1 7d b3 bc cb c3 90 bc e6 02 9f 3c 80 05 5d bc
       -0.02191055 -0.017671486 0.019410562 -0.013490081
000300 79 c2 3b bc 50 57 49 3d 1a 71 11 3d d8 95 73 3b
       -0.01145994 0.049155533 0.035508253 0.0037168171
000310 55 fd 59 3c db 1d d5 bc 36 a7 85 3d 40 86 26 bb
       0.013305028 -0.026015213 0.065260336 -0.002540961
000320 d1 16 49 bd c4 e6 50 bd 6c 55 3c 3a 41 23 7e 3d
       -0.049094025 -0.051001325 0.000718436 0.06204534
000330 b9 46 ba 3c 35 cd 84 37 32 9f 65 3d 11 f4 20 bd
       0.022738801 1.5831183e-05 0.056060024 -0.03929526
000340 84 82 ec bc 44 83 54 3d 16 a7 81 3d 03 f0 99 3d
       -0.028870828 0.051882997 0.06330697 0.07516482
000350 32 c1 37 3d d0 71 ce 3d 11 18 36 3e 43 45 f4 3d
       0.04486198 0.10080302 0.17782618 0.11927273
000360 bc da 69 bc 1e f3 15 bd 14 ae 8c bd c3 77 8c bd
       -0.014273342 -0.036608808 -0.0686914 -0.0685878
000370 51 bf 2e bd 2f 53 02 bd bd b8 b3 bd 6e fb da bc
       -0.042662922 -0.03181761 -0.087754704 -0.02673122
000380 4c 76 2d bd 78 07 a6 3b 24 75 7a 3c 28 50 12 bd
       -0.042349145 0.0050668083 0.015286718 -0.035720974
000390 f0 16 13 3d 63 f8 a1 3c e7 a7 cb bc b0 7e 44 bc
       0.035910547 0.01977176 -0.024860336 -0.011993095
0003a0 15 0b 28 3c 77 17 11 3d d2 2e 7e 3c 22 79 ca 3c
       0.010256548 0.03542277 0.0155140925 0.024715964
0003b0 bb ce dc bc 80 81 83 bc 2c 6f 95 bc 77 af c4 bb
       -0.026954046 -0.016052961 -0.018241487 -0.0060023624
0003c0 31 a3 96 bd 93 46 4d bc f4 cb 60 bc c9 d9 8d bc
       -0.07355345 -0.012529033 -0.013720501 -0.017315762
0003d0 dc 77 0d 3d e1 17 df 3c 7a 99 11 bb 06 d6 ec bc
       0.034538135 0.027233066 -0.0022216723 -0.028910648
0003e0 12 c7 c2 bc 9c 74 f0 3c 26 ee 29 3d 01 19 86 bb
       -0.023776565 0.029352479 0.04148688 -0.004092336
0003f0 1d c8 a3 3c 2d e5 c4 3d 71 85 df 3c 35 e5 0b 3c
       0.019992882 0.09614024 0.02728531 0.008538534

bias f4 [64]
000000 29 14 0e 3c a4 4b b4 bd 43 fb 17 3d 48 8e d6 bc
       0.008671799 -0.0880349 0.037104856 -0.026190892
000010 ef bb 57 bd 04 80 b6 ba 2f d1 43 bd 14 44 43 3c
       -0.05266946 -0.001392365 -0.047806915 0.011918087
000020 83 9d bb 3b 82 55 42 3d b6 69 49 bd 1d 40 4d bd
       0.005725564 0.047444828 -0.04917308 -0.05010997
000030 77 95 32 3c e3 98 c1 3c ce 5e 5b 3d 12 c7 b7 bc
       0.010899893 0.023632472 0.05355721 -0.022433791
000040 f6 4d dd bc c2 3c 80 bc da 45 03 bd ae 9f e3 bb
       -0.027014714 -0.015653972 -0.032049038 -0.0069465255
000050 a2 78 ac 3c 6d 6b 3c 3d bb d0 d6 bb 7c dd e1 3c
       0.021053616 0.046000887 -0.0065556443 0.027571432
000060 5a 7b 88 3d 91 95 1e bc d2 f2 fb 3a fc bb 79 bd
       0.066641524 -0.009679214 0.0019222146 -0.06097029
000070 8f d0 13 bd 11 2d 37 bd 60 f1 10 3b 1c 3e 85 3d
       -0.03608757 -0.044720713 0.0022116527 0.06505987
000080 9e 86 63 bd f7 05 87 3b fd 90 c2 3b 02 0d 74 3d
       -0.055548303 0.004120584 0.005937694 0.059582718
000090 7c 3a 69 bd e1 63 e6 ba 36 f7 ee 3c 2a 11 80 3d
       -0.05694054 -0.0017577374 0.029170614 0.06253274
0000a0 b6 12 09 3d a1 ce 24 bd b2 df bc ba bb 4c 23 bd
       0.03346511 -0.04023612 -0.0014409928 -0.039868098
0000b0 7f 98 f9 bc fe a5 e2 bc df e5 9d 3c d8 8b 58 bd
       -0.030468224 -0.027667042 0.01927465 -0.05286774
0000c0 cb b8 41 bd 9c 29 8f bc 19 28 c6 bc ed 70 3a bc
       -0.047295373 -0.017475896 -0.024189042 -0.011379463
0000d0 50 ed e5 bc 5e 4c 81 bd 0a e7 13 bd 29 a3 ff bc
       -0.028067261 -0.06313394 -0.036109008 -0.03120573
0000e0 fa 3e e8 bc 4a 3e a5 3d 4e 6c 9d bc fe 74 27 3d
       -0.028350342 0.08068521 -0.019216683 0.040883057
0000f0 42 ea 1b 3d 0b cd 56 3d 86 f6 e1 bd d8 1a 2c bc
       0.038065203 0.052441638 -0.11033349 -0.010504447

weight f4 [64, 64, 3, 3]
000000 5a dc e1 bc 49 52 31 bd b8 20 15 bd 8b 7b 11 3c
       -0.027570892 -0.043291364 -0.036408156 0.008879553
000010 b5 9e 4f bb 67 73 1a bd 3a 30 f7 bc f5 f0 95 3c
       -0.003168029 -0.037707713 -0.030174363 0.018303374
000020 8f 41 6c bd b2 2d 75 3c 50 2e e6 3c 8c 9b 1e 3c
       -0.05767971 0.014964508 0.028098255 0.00968064
000030 77 ca 13 bc 09 5f 22 bc a0 7c d3 3c 48 c0 51 bd
       -0.009020439 -0.009910353 0.025816262 -0.051208764
000040 2e fa 80 3c 23 dd 90 bc 8e b1 55 3a 6f 61 17 bd
       0.015744295 -0.017683571 0.0008151763 -0.036958154
000050 83 1c be bc 0c d5 8e bc f4 3d a7 b9 88 63 8c 3c
       -0.023206955 -0.017435573 -0.0003189888 0.017137304
000060 18 5b 11 3c 5e e2 61 bb bb 56 db bc fd c2 e9 bc
       0.008871816 -0.00344672 -0.026774755 -0.02853536
000070 4a b4 4b bc e5 53 f8 bc 89 9b d1 bb 48 dd e3 3b
       -0.012433121 -0.030313442 -0.006396715 0.006953869
000080 3d f0 3c 3c e4 82 8f bc f0 45 c8 3c 05 30 49 bc
       0.011531887 -0.017518468 0.024447411 -0.012279515
000090 70 ae 05 bc 8f 36 8a 3c 44 ca eb 3c b4 f0 03 3c
       -0.008159265 0.016871719 0.028782971 0.008052994
0000a0 dc 19 d6 bc 54 3d 99 bb 67 02 3d 3b ad 56 37 3d
       -0.026135378 -0.0046765003 0.0028840543 0.044760395
0000b0 53 4f cd b9 d5 f1 6e 3c 0f f4 ad bb 17 54 98 3c
       -0.00039159748 0.014584024 -0.005308635 0.018594785
0000c0 82 d3 cd 3c f8 a6 dc bc 51 92 f2 3c 47 e0 92 3b
       0.025125269 -0.026935086 0.029610785 0.0044823023
0000d0 56 46 0c 3d 5b 8c 07 bd 68 2e de bc 2f 0e e2 3c
       0.034246765 -0.033092838 -0.027121738 0.027594654
0000e0 80 d1 e6 3b 6e b0 8e bc 53 46 33 3d 54 0e 8c bb
       0.0070440173 -0.017418113 0.04376824 -0.004274169
0000f0 31 3c 24 3d e3 d3 f3 ba e4 91 14 3c d6 76 64 3b
       0.040096465 -0.0018602576 0.009067986 0.003486087
000100 b0 e0 fc bc e6 88 51 ba 28 9b 98 bb cb 3a ae bc
       -0.030868858 -0.0007993117 -0.004657168 -0.021268269
000110 07 83 cd 3b 17 47 81 bc 45 3b 8f 3c 86 6d 57 bc
       0.006271723 -0.015780969 0.017484317 -0.013148671
000120 72 30 82 3c 39 11 0b bc ca 51 51 bd c3 87 ed 3a
       0.015892241 -0.008487993 -0.05110339 0.0018122125
000130 31 55 c9 bc 78 03 5e 3c c3 46 7a 3c 8d a0 a8 bc
       -0.024576755 0.013550632 0.01527566 -0.02058437
000140 30 23 2d bb 5a 8c aa 3b 02 ca f2 bc de cd 46 bd
       -0.0026418678 0.0052047195 -0.02963734 -0.048536174
000150 56 a0 6d bd 6b 64 12 bd 78 9a 5e 3c d3 27 ae 3c
       -0.058014236 -0.035740297 0.013586633 0.021259224
000160 9a d0 5f bb 9b 65 71 bc dc ee 33 3c c8 a1 dc bb
       -0.0034151436 -0.014733697 0.0109822415 -0.006733153
000170 38 5e ae bb 20 07 b1 3a 9e df a9 bc ee c6 ca 3c
       -0.0053212903 0.0013506152 -0.020736512 0.02475306
000180 e0 67 b2 bc cf e1 03 bd aa 4f c9 3c 20 bf fd bc
       -0.021778047 -0.03219777 0.02457412 -0.030974925
000190 93 6b 14 bc 6d 5c 24 3d b4 80 56 3c f8 25 86 bb
       -0.009058851 0.040127207 0.013092209 -0.0040938817
0001a0 2a 75 ec 3c 70 99 1f bc 22 71 02 bd 13 18 da bc
       0.028864462 -0.009741172 -0.031846173 -0.026622808
0001b0 05 84 4b bd b1 45 66 3c f8 1a 5f 3c 52 7c 17 bc
       -0.04968645 0.014054702 0.01361727 -0.009245949
0001c0 cf f7 82 3a 3f 31 d6 3a d6 ec 59 bd 86 b1 e2 bb
       0.0009992066 0.0016341581 -0.05320438 -0.006918135
0001d0 1f d2 41 bd 4c 08 2e bd 34 e8 b9 bc 25 a5 cf 3b
       -0.047319528 -0.04248838 -0.02269373 0.0063368254
0001e0 ae 2b ae bc eb 34 70 ba 53 8a b8 3c b2 da dc 3c
       -0.021261062 -0.0009163159 0.022526896 0.02695975
0001f0 10 8c d7 3b d8 0b 11 bc 43 bb 2b bd 93 ff 4b ba
       0.006577976 -0.008852921 -0.041926634 -0.0007781919
000200 08 67 ff bc 6c a5 87 3b 70 20 e1 bb 34 36 fb bc
       -0.031177059 0.004139593 -0.006870322 -0.030665495
000210 18 1c 32 bd a6 a3 72 bc 41 cb 5d bd 68 aa d7 bc
       -0.043483824 -0.014809525 -0.054148916 -0.026326373
000220 66 6e 9f bb 28 8d f9 bb 6f 2b cb bb 5a d5 f3 3c
       -0.0048654554 -0.007615704 -0.006200246 0.02976482
000230 7f 2f 98 bc d8 15 29 bc 90 b5 64 3c f7 83 e2 3a
       -0.018577335 -0.010320149 0.0139593035 0.001728176
000240 22 67 5e 3b 24 ab 5d 3c 3b 88 a3 3a cf a3 1b bd
       0.0033935984 0.013529573 0.0012476513 -0.037998017
000250 ea 30 1d bb e9 bc 2c bc f3 aa d1 3c 0f 63 2c bd
       -0.0023985454 -0.010543087 0.02559421 -0.042086657
000260 69 2d b3 3c 1d 35 d1 bc df 43 08 3c a8 c3 10 bb
       0.02187224 -0.025538022 0.008316963 -0.0022089276
000270 86 8f 6f 3c ec b0 47 3c bc a3 81 3c df 77 5b bb
       0.014621621 0.012188178 0.015825145 -0.0033488197
000280 24 d5 60 bc 83 89 dc 3b 97 6a e0 bc e3 7d 6d 3c
       -0.013722692 0.00673026 -0.027394576 0.014495346
000290 1a 51 a1 bc 56 f1 1b bd f6 57 8f bc 91 0d 1f bc
       -0.019691993 -0.038071953 -0.017497998 -0.009707824
0002a0 b0 4e c5 bc 16 e5 7a bc 69 8d 66 bc 6f ef 5b 3c
       -0.024085373 -0.015313407 -0.014071801 0.013423785
0002b0 24 ba 6e bc dc fc 4e 3c 28 1a d2 bc 79 0b d1 3c
       -0.014570747 0.012633529 -0.025647238 0.025518166
0002c0 94 72 2b 3c f8 be c1 ba 40 4b 40 bd b1 31 21 bd
       0.010464329 -0.0014781645 -0.046946764 -0.03935403
0002d0 d0 96 8d 3a 13 3a 17 3c 91 e1 7f 3c 87 6d b4 3c
       0.0010802392 0.009230155 0.015617744 0.022024883
0002e0 26 01 e0 bc b9 69 fa bc d6 fd 2f 3c 80 01 44 bc
       -0.027344298 -0.03056799 0.010741672 -0.011963248
0002f0 09 85 aa bb c4 6f 58 3c a3 a6 ad 3c 0b 8d b2 bc
       -0.0052038473 0.013210241 0.021197623 -0.02179577
000300 3c 61 09 bd 41 9e d7 3c b7 69 d2 bc da a6 66 bd
       -0.033539996 0.026320579 -0.025685174 -0.056311466
000310 f8 07 01 ba 0a 66 69 bd fd 11 25 bd 5a c2 46 3c
       -0.0004922147 -0.056982078 -0.040300358 0.012131298
000320 fa 3e 38 bd b2 91 37 bb 2c 7b fd bc 37 1a af bc
       -0.044981934 -0.0028010425 -0.030942522 -0.021374805
000330 b2 f9 5b 3b bb 89 06 bc 19 59 db bc 21 b3 08 bc
       0.0033565578 -0.008211548 -0.026775884 -0.008343489
000340 b9 d1 3b bc 5f d3 45 bd de 6d ea 3c 8a df ef 3a
       -0.011463576 -0.048297282 0.028616842 0.0018300873
000350 1e ef 21 bd 36 b2 40 bd f6 c2 aa bc 8b 92 3c bd
       -0.03953468 -0.047044955 -0.020844918 -0.04603819
000360 e2 7a c1 3c 1a 29 86 3c 1c ff 12 bd 73 84 ef 3c
       0.023618165 0.01637702 -0.035887823 0.029237961
000370 58 3b f8 bc 09 77 01 bc a8 d5 5e bd 0d 25 14 bd
       -0.030301735 -0.007901915 -0.054402977 -0.036168147
000380 bf 81 a2 3c 30 5d 2c bd a4 5a 69 bc bf 7e 1d bd
       0.019837258 -0.042081058 -0.014242802 -0.038450953
000390 cf 18 a4 3c 25 85 0c bd 34 05 3b bd cc 0e 26 3b
       0.02003136 -0.034306664 -0.04565926 0.002533841
0003a0 b6 93 8b 3c 8e 35 ae bc 3e 45 86 3b 78 ac af 3d
       0.017038208 -0.021265771 0.00409761 0.08577818
0003b0 dc f9 ee 3c b5 4e 01 bd 53 30 11 3d 3f db fb 3b
       0.029171877 -0.0315692 0.035446476 0.0076860483
0003c0 f5 29 ce 3c c9 dd df 3c a9 db a2 bc 0e e8 a3 3c
       0.025166491 0.027327435 -0.019880133 0.020008113
0003d0 0c b8 50 3d a4 46 56 bc 1f 19 6e 3c dd 4a 50 3b
       0.05095677 -0.0130783655 0.0145323565 0.0031782903
0003e0 a2 4a 11 bd 28 3e 0d 3d 2c cd 3b bd 07 2b 79 bc
       -0.035471566 0.034483105 -0.045849964 -0.015208012
0003f0 25 52 22 3d 40 f4 73 ba 72 eb 96 3c 80 98 b8 bb
       0.03962912 -0.00093061104 0.018422816 -0.005633414

bias f4 [64]
000000 6f c0 fe bc cc 3a 7e bc af 8f 4e 3d 7b dc 19 3d
       -0.031097619 -0.015516948 0.050429996 0.037563782
000010 f2 e0 63 3d b2 a7 f7 bc fd 75 20 bd 21 e1 05 3d
       0.055634446 -0.03023133 -0.039175022 0.032685403
000020 44 30 75 bc a6 f1 78 bc 69 ed 6f bd 2b 60 39 bd
       -0.014965121 -0.015194332 -0.05857602 -0.04525773
000030 85 49 eb 3b 90 da 06 bd e2 91 cc bc 88 18 18 3d
       0.007180395 -0.03292328 -0.024971906 0.03713277
000040 81 22 29 bd 31 05 fe bc 52 b1 05 3d dc 67 8b 3d
       -0.04129267 -0.031008335 0.03263981 0.06806919
000050 45 9d 31 bc 33 63 a5 bc 2d 6f e6 bc 10 be b9 3d
       -0.010840719 -0.020188903 -0.028129185 0.09069455
000060 c5 37 14 bc d6 2a a0 bb 08 c7 09 bd 92 2a 27 3d
       -0.0090465 -0.004887919 -0.033637077 0.040812083
000070 50 23 e3 3c 06 a1 10 3d 6d 90 10 bd 3c 5b 0c bd
       0.0277268 0.035309814 -0.035293985 -0.034266695
000080 60 e2 90 3d cf b3 92 3c c9 d7 96 bc d3 b9 44 3d
       0.070744276 0.017908005 -0.018413441 0.04802878
000090 54 af 0e 3c 32 8e d5 bc 5f b7 2e bd f5 8a da ba
       0.008708794 -0.02606878 -0.042655345 -0.0016673493
0000a0 5b e1 20 bc ef dc fc bc 03 c7 2e bd dc 1d 83 3c
       -0.009819354 -0.030867068 -0.04267026 0.016005449
0000b0 a5 a7 66 bd e3 ac 40 bc e6 0b 2c bc 72 e7 50 3d
       -0.056312222 -0.011759969 -0.010500884 0.051001973
0000c0 d8 d3 86 3d 49 28 05 b9 99 8b 43 3d a1 40 f1 bc
       0.06583375 -0.00012698876 0.047740553 -0.029449763
0000d0 4f e5 45 bc 98 da e0 bc c1 ef 0c 3c 32 19 57 bd
       -0.012078597 -0.027447984 0.008602084 -0.052514262
0000e0 9a 1b 8a 3c e6 b9 62 bc 7a 91 f9 bb fa 4d 5b bc
       0.016858865 -0.013838267 -0.007616219 -0.01338529
0000f0 37 2d fb bc a4 5f f2 bc 70 35 20 3d 21 09 e6 3b
       -0.030661209 -0.02958662 0.039113462 0.007020131
