cornerModels/model.pt (torch, 841268 bytes, 18 tensors)

weight f4 [32, 1, 3, 3]
000000 d8 45 8d 3e 4a 61 a0 3e 1d 3d 5c be 75 42 9a 3d
       0.2759235 0.31324226 -0.21507688 0.07532207
000010 55 6d 53 3d a6 a2 a7 3d 43 bd 7a 3e 04 7a 86 be
       0.05161794 0.081853196 0.2448626 -0.26264966
000020 10 d1 8e be 68 33 b4 3d ab b7 31 be ca af 88 bd
       -0.27893877 0.087988675 -0.1735522 -0.06674154
000030 87 39 80 3e 5f f8 bb 3c af 70 9d 3e 5e 0d db 3d
       0.2504389 0.022945581 0.30750033 0.10695909
000040 45 dc d8 3b 2c 3b f5 3d 01 30 97 bd ad ae 40 be
       0.006618055 0.11974177 -0.07382203 -0.18816634
000050 2b 57 b8 3b 7d 37 a6 bd 93 1c af bd eb bc 0f bd
       0.0056256256 -0.08116052 -0.08550372 -0.035092276
000060 a9 fd 74 3c c4 78 9a be 3a 93 fe bd d0 3f a7 be
       0.014953055 -0.30170262 -0.12430425 -0.32665873
000070 78 05 a8 bd a3 6b 29 be 86 c2 89 3e 9b a3 8f 3e
       -0.08204168 -0.16544966 0.26906222 0.2805451
000080 48 64 fe bd 1b 37 00 be 5c 9a c9 3d 26 d7 1b bd
       -0.12421471 -0.12521021 0.09843895 -0.03804698
000090 0d 3a 8c 3e 70 14 e0 3d de 5f a7 3e 1f 03 6b be
       0.2738804 0.10941398 0.32690328 -0.2295041
0000a0 f2 a3 dd bd b3 26 95 3d bb 9c c6 bd 4d 7a 2a 3e
       -0.10822286 0.07282772 -0.09697863 0.16648217
0000b0 cf 0e 1a 3e 3b 88 8a be 28 a4 58 be 50 00 a4 bd
       0.15044712 -0.2705706 -0.2115637 -0.08007872
0000c0 a3 05 9e 3e 92 70 c5 bd 11 cb 4e be 4c 72 8f bb
       0.30863675 -0.09640612 -0.20194651 -0.004377639
0000d0 dc 1d a0 3c 8e 6b 6c 3e 6a a1 b3 bd b3 6b fb 3d
       0.019545488 0.23087904 -0.08771022 0.12276401
0000e0 00 db cd 3d 4d f4 9d be 25 93 3a be db 08 92 3e
       0.100515366 -0.3085045 -0.18220194 0.2852238
0000f0 ba 25 9a be 20 2d 89 3e e5 2c 62 bd 08 be 30 3d
       -0.30106908 0.2679224 -0.055218596 0.043149978
000100 8a 54 22 3e b3 3b 46 be 1c 92 80 be 2e cc 2d be
       0.15852562 -0.19358711 -0.25111473 -0.1697242
000110 60 66 22 bc c6 f1 c2 bd 8e 33 3f 3e 3b 04 4c be
       -0.009912103 -0.09518771 0.1867201 -0.19923489
000120 bf c8 20 bd 35 e2 95 be 4e 77 b6 3e e5 15 bd bd
       -0.039253946 -0.29274145 0.35637897 -0.09232692
000130 fb e0 af 3e c6 bd 9d 3c 6d b5 50 be 84 bc 6d be
       0.34351334 0.01925553 -0.20381708 -0.23216444
000140 a3 0b 9f bd e9 0b 26 3d 86 0a 39 bd 61 85 9f 3e
       -0.077658914 0.040538702 -0.04517605 0.31156448
000150 21 ec e1 bd e8 5a 50 3e 19 fb 9d be c4 7a 92 be
       -0.11031366 0.20347178 -0.30855635 -0.28609288
000160 3f c1 2c be df 6e 74 bd 8b b2 a4 be e1 95 83 3e
       -0.16870593 -0.059676047 -0.32167467 0.25700286
000170 d8 c1 62 be 9d 81 2e 3e 78 d4 3f be ac 85 be bd
       -0.22144258 0.17041631 -0.18733394 -0.0930284
000180 ae 21 9f 3c 50 8c ab 3e 08 f7 5a 3e 44 4f d4 3d
       0.01942524 0.33505487 0.21383297 0.10366681
000190 ca ac 8c 3e af 8a 57 be 10 af 1c 3e 89 94 23 be
       0.27475578 -0.21048997 0.15301156 -0.1597463
0001a0 b0 8a 7c 3d 45 d5 b7 3d ad ae 05 3e e8 cd 96 3d
       0.0616557 0.08976225 0.13054915 0.07363492
0001b0 01 b9 16 be 35 3e fd bd 10 c8 c2 bc 2b bc 5a bd
       -0.14719011 -0.12365381 -0.023777038 -0.053402107
0001c0 ae 70 80 be 32 e6 8a 3d 98 68 1a bb 01 b6 78 be
       -0.25085968 0.067821875 -0.0023560878 -0.24288179
0001d0 2f 10 39 be 06 cf 4c be ec 34 70 3e 79 cc f9 bd
       -0.1807258 -0.20000848 0.23457688 -0.12197203
0001e0 02 da 75 be 58 49 d1 bb 75 d6 96 3e af 2f bf bd
       -0.24008945 -0.006386917 0.29460493 -0.09335267
0001f0 a7 2d a4 bd 26 0e 30 3e 03 c2 96 bd 83 72 c4 bb
       -0.0801652 0.17192897 -0.073612235 -0.005995096
000200 5f 32 4e 3d 6e 2e 38 3e b3 e0 04 bd 12 b1 94 3e
       0.050341006 0.17986462 -0.032440852 0.29041344
000210 d3 2d 72 be a7 02 ab 3e 45 c6 8c 3d 78 d6 82 3e
       -0.23650293 0.3340046 0.068737544 0.25554252
000220 c6 55 9a 3e c7 93 2f bb 85 90 b4 3a 61 fe 3f 3d
       0.30143565 -0.0026790963 0.001377598 0.046873454
000230 e4 92 b2 bd ec 31 1b 3d b6 a1 0e 3d a7 9b b9 bd
       -0.087194234 0.037889406 0.03482219 -0.090628915
000240 3a 18 1d 3e 50 4f 08 3d 24 1b 83 bc 73 cd 74 3d
       0.15341273 0.033278763 -0.016004153 0.059766244
000250 7b 32 84 3e 91 45 73 3e 57 5d 66 3e d0 43 63 be
       0.25819764 0.23757006 0.22496544 -0.22193837
000260 4b aa bc 3c 8c c5 9f be 20 5e a6 be a7 5d 43 3e
       0.02303042 -0.31205404 -0.32493687 0.19078694
000270 d1 52 ab 3d 31 c6 14 bd d1 a1 c0 3d a0 2e 14 be
       0.08365405 -0.036321823 0.09405864 -0.14470911
000280 96 9c 5b be bc ff 9a be 8d e1 8e 3e a6 60 7d be
       -0.21446452 -0.30273235 0.27906457 -0.247439
000290 5f e2 0f 3d 96 a0 69 3e f5 d7 f1 3a 26 70 a3 be
       0.035127994 0.22815165 0.0018451201 -0.319215
0002a0 fe 49 67 be b9 53 47 3e 22 98 75 be f2 0a a2 3e
       -0.2258682 0.19465531 -0.23983815 0.31648976
0002b0 3d 26 da bd 6b 37 5f be 53 55 7f 3d 57 92 64 3e
       -0.106518246 -0.21798484 0.06233723 0.22321449
0002c0 f7 2a aa 3c ef cf 9f bd ef a1 50 bd 3e 61 89 be
       0.02077244 -0.07803332 -0.050935682 -0.26832002
0002d0 d5 ba c8 bd 9c 09 97 bd a4 c0 0d be f7 4a 8d be
       -0.098012604 -0.0737488 -0.13843018 -0.27596256
0002e0 44 74 44 be 3e 98 9f 3e 74 ea 87 3e f3 0e 2d 3e
       -0.19184977 0.3117084 0.2654606 0.16900234
0002f0 05 9f 6d 3e ac 94 b3 bd 8b 3e 08 be d3 ca 94 bc
       0.23205192 -0.08768591 -0.13305108 -0.01816312
000300 b8 6c c1 3d e7 4f 49 bc 4c aa db 3d 8a bd aa 3e
       0.094445646 -0.012287117 0.10725841 0.33347732
000310 05 a9 94 3e 11 d1 a5 be a4 07 9e be 97 19 b0 3e
       0.29035202 -0.32386068 -0.30865204 0.34394524
000320 a3 25 23 3e bf ca f1 bd ee 90 bb bd 97 d8 f2 3b
       0.15932326 -0.11806249 -0.091585025 0.0074110734
000330 a6 83 87 3e 0d ac 00 be 7f cd 94 be a5 2e 0c 3d
       0.26467627 -0.12565632 -0.2906303 0.03422417
000340 19 c5 52 be 3d c6 25 be d1 79 ac 3e 7d 66 3f be
       -0.20583 -0.16188903 0.3368669 -0.1869144
000350 9d 88 84 be 59 ec b0 3e 4b b8 32 3e 04 0e 24 be
       -0.25885478 0.3455532 0.17453115 -0.16020972
000360 e5 42 aa 3e 91 32 95 be 3c 2f 6d 3e 2b af db bd
       0.3325416 -0.29140142 0.2316255 -0.1072677
000370 3e d6 dc 3c 9f fe a7 3e d0 9c 23 3e bf 6c 1b 3d
       0.026957627 0.32811448 0.15977788 0.037945505
000380 e3 43 1b be d0 7f 94 bd 70 7f ad bd 04 f5 a9 be
       -0.15162615 -0.07250941 -0.084715724 -0.33194745
000390 33 8e a1 be e6 25 10 be 96 ee 32 be 28 d4 46 3d
       -0.31553802 -0.14076957 -0.17473826 0.04854217
0003a0 b8 2e 41 3d b8 d0 13 3e 8f 8e 5f 3d 86 ec 47 bb
       0.047163695 0.14435089 0.054579314 -0.003050597
0003b0 0c 27 58 be ed a9 89 bd 68 5d 90 be 0e 46 9c 3d
       -0.21108645 -0.06721864 -0.28196263 0.07630549
0003c0 a0 c5 38 3b 95 5e ad 3e b3 51 7f bd 97 9a fd bc
       0.0028193966 0.33861223 -0.062333774 -0.030957503
0003d0 c6 2b 82 bd 9a 97 36 3e 08 ac fe bd 98 e0 de 3d
       -0.06356005 0.17831269 -0.12435156 0.108826816
0003e0 88 a1 a7 3c bf 46 23 3e 97 a3 83 be 78 97 63 3e
       0.020462766 0.15944956 -0.25710747 0.2222575
0003f0 f4 aa 32 bd a0 b5 82 3e cb 45 05 bd dd dd 54 be
       -0.043620065 0.25529194 -0.032537263 -0.20787759

bias f4 [32]
000000 76 0f c7 3d d0 3f 81 3e a0 e1 59 3e 4b 55 7f 3e
       0.09719746 0.25243998 0.21277475 0.2493488
000010 e9 3d f2 3d 09 57 9d be 49 c2 ad 3d 2b 46 23 be
       0.11828215 -0.30730465 0.084843226 -0.15944736
000020 ca 61 dd 3d ed eb 5b 3e b3 54 50 be 97 45 10 3e
       0.108096674 0.21476717 -0.2034481 0.14089046
000030 76 1e 82 3e 0e 32 75 3e 46 71 db 3c ca 8f 71 3e
       0.25413865 0.23944876 0.026787411 0.23590007
000040 b3 e4 86 be ff 00 f9 bd a7 b4 30 3e d1 7e 63 3d
       -0.2634636 -0.12158393 0.17256413 0.055540863
000050 8a 58 5f be e5 c1 85 3d f4 4d 85 3c 50 b3 fe bc
       -0.21811119 0.06531123 0.016272523 -0.031091362
000060 19 1d a3 be d6 a7 8d be f5 12 c3 3d c2 ee ef 3c
       -0.31858137 -0.2766711 0.095251 0.029288653
000070 71 48 9a be 02 64 a3 3e 20 f4 ae 3e 7e 5d d7 3d
       -0.30133393 0.31912237 0.34170628 0.10515879

weight f4 [64, 32, 3, 3]
000000 39 de 31 3d 82 a5 49 bd 35 27 6a bc 36 fc 07 3d
       0.04342482 -0.049230106 -0.014291574 0.03319951
000010 72 ff dd 3c 25 de 93 3c 60 36 21 3d 35 c7 44 bd
       0.027099345 0.018050263 0.039358497 -0.04804154
000020 f8 f8 f4 bc 56 7b 7e 3c 17 ec c8 3b e5 40 ed 3b
       -0.029903874 0.015532335 0.0061316597 0.007240402
000030 58 9a 1a 3d fa 8c fb 3c d0 7b 77 bd c9 c5 5f bd
       0.03774485 0.030706871 -0.06042081 -0.054631982
000040 d2 67 c9 bc 52 40 27 bd cb 79 29 bc 50 65 2e 3d
       -0.024585638 -0.040832825 -0.010343979 0.042577088
000050 36 5f 0a 3d f6 4a 56 bd cd 49 a6 bc 4d c6 8c bb
       0.033782206 -0.052317582 -0.020298863 -0.0042961
000060 a0 24 82 3b 0e d0 41 3d fb 42 1f bd 1e ee 80 bd
       0.003971651 0.047317557 -0.038882237 -0.06295417
000070 e2 7f 77 bd 28 f9 60 bd 2e 8e a3 bc ca 33 d4 bc
       -0.060424693 -0.054925114 -0.019965257 -0.025903601
000080 b7 ad 5c bd ff c2 92 bc c3 9d 2e bd 3a d6 83 bd
       -0.053876605 -0.017915247 -0.042630922 -0.06437345
000090 41 b3 46 3d 74 ab 2c bd 1e 28 3d bc c1 c3 bf bc
       0.048510794 -0.042155698 -0.011545209 -0.023408772
0000a0 09 c1 59 bb 34 bb ca bb c1 82 28 bd 87 7c f0 bc
       -0.003322663 -0.006186867 -0.04114032 -0.029356254
0000b0 84 20 76 ba c1 85 4d 3d fe 96 da 3c 4f 62 16 3c
       -0.00093890005 0.050176386 0.026683327 0.009178712
0000c0 98 18 9f 3b 2c 12 97 bc 60 cf 13 bc d4 96 b2 bc
       0.0048552267 -0.018441282 -0.00902161 -0.021800436
0000d0 c2 ae cc 3c 76 d2 ae 3c 17 ec 19 bd 3a 5e 28 3d
       0.024985675 0.02134059 -0.03757867 0.041105486
0000e0 62 cd 24 bd d7 62 f2 bc cb c7 29 3d 16 96 2a 3d
       -0.04023493 -0.029588146 0.041450303 0.04164704
0000f0 19 e2 0a bd 8a b7 65 3c 05 3d 38 3d 84 09 3b bd
       -0.03390703 0.01402081 0.044980068 -0.04566337
000100 2b e4 0f 3d 3e 0a d1 bc 23 72 2d bd e8 f3 98 3b
       0.035129707 -0.02551758 -0.042345177 0.0046677478
000110 76 4b e0 bc ba 4d 84 3c 6a 87 f1 3c 31 d2 62 3d
       -0.027379733 0.016150344 0.029483516 0.055376235
000120 96 03 d1 bc 66 a5 b1 3b 37 ce 13 3d 72 68 28 bd
       -0.025514405 0.0054213284 0.036085334 -0.04111523
000130 fd 38 51 bd 99 65 d1 bc 2e 5f 3e 3d c9 d0 1e 3d
       -0.05107974 -0.02556114 0.04647749 0.03877333
000140 d9 a2 cd 3c 90 f6 55 bc 00 c6 85 bd 53 9c 66 bc
       0.025102066 -0.013059273 -0.06531906 -0.014075357
000150 28 cc e5 3b ac f5 84 bd 84 3e 6f bd 10 23 48 bd
       0.0070128627 -0.06492171 -0.05840923 -0.048861563
000160 fe 43 f7 bc 5f bc 43 3d 98 9c e0 3c 36 7c c5 3c
       -0.030183788 0.047787067 0.02741842 0.02410708
000170 2e 42 88 3c ff d4 81 bc 59 4b d0 bc d1 a3 22 bd
       0.01663312 -0.015848635 -0.025426554 -0.03970701
000180 49 57 d5 3c ec 7a 46 bd 96 3b d1 3c bf db 8e 3c
       0.026042597 -0.04845707 0.025541108 0.017438767
000190 0d 35 4b 3d a2 d8 7d bd e8 7a d5 39 0a 00 82 bd
       0.04961114 -0.061974175 0.00040718098 -0.06347664
0001a0 49 00 1d bc 01 b5 77 bc 61 34 25 3d 58 30 de bc
       -0.0095825875 -0.015118838 0.040333156 -0.027122661
0001b0 93 71 fb 3c 93 2d 21 bd 8f 11 c3 bc ff ac 16 3d
       0.030693805 -0.039350104 -0.023812084 0.036786076
0001c0 5d dc 7c bd 07 60 98 3c fa d2 04 bd 48 78 a9 3b
       -0.061733592 0.018600477 -0.032427765 0.0051718093
0001d0 8b 64 4f bd 02 60 97 3c 31 90 de bb 73 27 e4 3b
       -0.050632995 0.018478397 -0.0067920913 0.0069627105
0001e0 9b 10 35 3d 43 28 49 3c f2 35 3f 3d 6d 58 00 bd
       0.04420529 0.012277666 0.046682306 -0.03133433
0001f0 1a 30 df bc 96 98 36 bd 90 8e 1c bc 98 38 77 bd
       -0.027244616 -0.04457911 -0.009555474 -0.060356706
000200 6e 11 fe 3c a2 55 e7 3c 3a 81 1d bb f5 d9 46 bd
       0.03101417 0.028239075 -0.0024033324 -0.048547704
000210 dd ab 1d 3d 23 64 a5 3c ed dd be bc 8a 90 26 3b
       0.03849398 0.02018935 -0.023299182 0.0025415742
000220 b9 7c 9b 3c 6e fc 45 3d 99 40 de bc b4 d9 f7 3c
       0.01898037 0.04833644 -0.027130412 0.030255176
000230 c0 e6 ee bc 47 d5 8c 3c 86 a3 31 bb d6 1c c3 3b
       -0.029162765 0.017191542 -0.0027105524 0.0059543652
000240 a9 12 29 3c 97 80 65 bc 80 e9 6f bd 48 a8 64 bd
       0.01031939 -0.014007709 -0.058572292 -0.055824548
000250 4b 73 79 bd 0e eb 21 bd 09 56 0a 3d 5f a1 1d 3d
       -0.060900968 -0.039530806 0.033773456 0.038483974
000260 9f 68 ac bc ed 07 4b 3d cf 7f 21 3d 1c fa 00 3c
       -0.021045981 0.049568105 0.03942853 0.007872131
000270 00 73 3a bb eb 1b 1d 3d 78 49 06 bd b0 cf 4e 3b
       -0.0028449893 0.038356703 -0.03278491 0.0031556897
000280 e8 40 16 bc ac 9a 15 bd 40 06 e1 3c bd 4b 12 3d
       -0.009170748 -0.03652446 0.0274688 0.03571676
000290 1f 70 09 3d 53 be 3a 3d c9 f7 fe bc f4 7e a6 3b
       0.033554193 0.045591664 -0.031124013 0.005081052
0002a0 89 39 87 bc 63 5e 83 bd 74 02 6e bc c9 c1 84 bd
       -0.016506927 -0.06414487 -0.014526952 -0.06482274
0002b0 3a 8f c3 3b fe 0e 4c bd f1 57 af bc a3 68 1b 3d
       0.0059680017 -0.049818985 -0.021404238 0.037941586
0002c0 9b b0 88 3c 13 32 41 3c c7 e3 c6 3c 35 ee 66 bd
       0.016685775 0.011791724 0.024278535 -0.056379516
0002d0 e9 bc 15 3c ee 36 d4 bc ca e6 3c 3d f7 8b fe 3c
       0.009139278 -0.025905099 0.046118535 0.0310726
0002e0 fb 25 dc bc 53 22 3f bd e5 57 8c 3c 14 20 3d 3b
       -0.02687358 -0.046663594 0.017131755 0.0028858231
0002f0 fd 92 bd bc b1 88 23 3d 36 d7 18 3b e6 c9 38 3c
       -0.023141379 0.03992528 0.0023321635 0.011278605
000300 15 ca 9a bc 3b 56 78 bd d2 08 a1 bc c7 05 21 3d
       -0.018895188 -0.06062911 -0.019657526 0.03931215
000310 f4 72 3d bd 14 8c 2a 3d 0f 72 c1 bc c7 66 63 3d
       -0.046252206 0.041637495 -0.023613958 0.055517938
000320 3d b0 36 3d 92 0c 13 bd f3 f9 27 bb c7 76 db bc
       0.044601668 -0.03590066 -0.002563116 -0.026790036
000330 6d 44 e8 3b 5c 7f 0e 3c 38 c2 31 3d 83 7a e6 bc
       0.007088235 0.008697357 0.043398112 -0.02813459
000340 98 e1 0b bd 54 9a 63 3d 81 ba 30 3a a4 b9 61 3d
       -0.03415069 0.0555671 0.00067416584 0.05510868
000350 c1 80 8a bc 3d af b5 bc 2f 06 52 3d e4 a8 85 3c
       -0.016907098 -0.022178287 0.05127543 0.016315885
000360 17 72 e1 bc 18 6f 88 bb e4 b0 27 3d 90 9e 5c bd
       -0.027520223 -0.004163634 0.04094018 -0.053862154
000370 4d 47 e8 bc 27 ef 4f bd 89 ac a7 bc 5e e3 e3 3c
       -0.028354311 -0.050765183 -0.020468013 0.027818378
000380 12 98 e6 bc 42 7f eb 3c 50 c1 19 bd 3c 98 4a bd
       -0.028148685 0.028747205 -0.037537873 -0.04946159
000390 49 ba 6f 3d 3a d2 a0 3c c4 af 65 bd 48 9d f1 bb
       0.058527265 0.019631494 -0.056075826 -0.0073734857
0003a0 5e 80 6c bd 7f 4b 25 3d 03 de c0 bc 0b cb 2e bd
       -0.057739608 0.0403552 -0.023543363 -0.042674106
0003b0 17 18 8b ba 51 b1 3c bc 0c c9 2f bc e8 f3 68 3c
       -0.0010612038 -0.011516885 -0.010729086 0.014218308
0003c0 b5 06 8b bd 6c 2c 46 3d 96 ba 7d bc 20 73 2d 3d
       -0.06788389 0.048382208 -0.01548638 0.04234612
0003d0 07 a3 16 bd 0f 95 b1 bc 16 16 5c bd e3 dd 27 bd
       -0.03677657 -0.021677522 -0.053732 -0.040983092
0003e0 97 14 fe bc ec 62 26 bd ef 73 bf bc 72 3b 10 bd
       -0.031015677 -0.040621683 -0.023370711 -0.03521294
0003f0 cf fb 2b 3d 1a 95 5e bd e5 22 4e bd e0 8f ce bb
       0.04198819 -0.054341413 -0.050326247 -0.0063037723

bias f4 [64]
000000 88 bd 89 bd 77 f2 13 bd 8a ee 71 bd af fd b6 3c
       -0.06725603 -0.036119904 -0.05906538 0.022337763
000010 a3 95 15 3c 8f d6 ec bc 45 83 de 3c ff 0d 66 bd
       0.009129914 -0.028910903 0.027162204 -0.05616569
000020 b0 31 86 3d f3 a3 ec 3c db a2 36 bd 2f 26 82 bc
       0.06552446 0.02888677 -0.044588905 -0.015887348
000030 87 ca bc 3c b5 45 8d 3c 69 94 45 3d 6d a5 0a bd
       0.023045791 0.017245153 0.048237238 -0.03384917
000040 02 06 54 bd e9 c4 f4 39 aa 13 5c bd d1 46 76 3d
       -0.051763542 0.00046686016 -0.05372969 0.06012613
000050 0a 43 37 3d a9 13 0e bd 1e 19 df bc 0f 0a 97 bc
       0.044741668 -0.034686718 -0.027233656 -0.018437413
000060 c0 3f 4d 3c 05 d5 5a bd 24 b7 12 3d b7 77 e4 3c
       0.012527406 -0.053425808 0.035819188 0.027889116
000070 a8 ca 7b 3d 0e 8d 17 3d c8 51 5e bc 1c 1b 85 bd
       0.061472565 0.036999755 -0.013569303 -0.06499311
000080 d0 4a 0d bd 23 56 62 bc 08 1a a1 3b 23 54 ca bc
       -0.034495175 -0.013814482 0.0049164332 -0.024698323
000090 f8 2b cc bc 35 65 0e bd 65 33 83 bb dc 2c 07 bd
       -0.02492331 -0.034764487 -0.0040039294 -0.033001766
0000a0 86 13 3b bd 3d 3f dc bb 28 6c e2 bc 23 d5 ed ba
       -0.045672916 -0.006721406 -0.027639464 -0.0018145185
0000b0 83 d7 10 3c cc ac 44 bd 13 28 10 bd bb f4 f5 3c
       0.0088404445 -0.048016354 -0.035194468 0.030023923
0000c0 d5 75 7c 3a fb 5b 2c bc 5f d1 18 3d ef 7d 38 ba
       0.00096305955 -0.010519977 0.037309047 -0.00070378085
0000d0 01 48 d1 bc 88 85 8f bc ac 66 80 ba d8 c4 0b bd
       -0.02554703 -0.017519727 -0.0009796224 -0.03412327
0000e0 9a 4e ea 3c e8 3f 43 3b 28 d3 82 bd 00 cd 1c 3b
       0.028601933 0.002979273 -0.06387931 0.00239259
0000f0 6d 1c 50 bd f9 e1 48 3d 68 b9 a2 3c 30 94 b8 3b
       -0.05080836 0.04904363 0.0198638 0.0056328997

weight f4 [64, 64, 3, 3]
000000 bd 7c 80 bb e0 f8 33 3c 81 40 d7 3c 4b 80 9a 3a
       -0.00392112 0.010984629 0.026275875 0.0011787502
000010 17 b5 8a 3b be 86 d8 3c f1 09 40 bc 39 85 9d bb
       0.0042330134 0.026431438 -0.01172112 -0.004807141
000020 c4 26 19 bd 62 c9 b5 3b 8e 52 23 bd b1 cb fe 3c
       -0.037390485 0.0055476883 -0.039873652 0.031102987
000030 40 97 b8 3c 2b db e3 3c 54 39 7d bc 11 61 df bc
       0.02253306 0.027814468 -0.015455563 -0.027267965
000040 9e 92 9a bc fc 3b 7a bc e7 fd a9 bc 68 d9 97 3b
       -0.01886874 -0.01527309 -0.020750953 0.004634071
000050 88 52 da bc b2 27 19 bd 69 a8 17 bc a0 25 08 bd
       -0.026650682 -0.037391372 -0.009256461 -0.033239007
000060 bc 42 15 bd 65 e6 bf 3c 70 76 25 3c 76 28 ef bb
       -0.036440596 0.02342529 0.0100990385 -0.0072985245
000070 c6 e2 b2 3c cc 20 e1 3c 24 9a 9e bc df 92 18 bc
       0.02183665 0.02748146 -0.01936061 -0.009312361
000080 a5 fb 1a 3d e9 87 be ba a2 73 0b bd 21 53 03 3d
       0.037837643 -0.0014536354 -0.034045823 0.0320617
000090 a3 86 82 bc 9b 35 59 3c 4e 50 4f 3c 86 21 ad 3b
       -0.01593334 0.013257409 0.0126534235 0.0052835373
0000a0 5d 22 04 bd 5e ac 69 3c 60 1c fa 3c da 7a 18 bc
       -0.032259334 0.014262287 0.030531108 -0.009306634
0000b0 a5 be 20 3d 87 71 e4 bb ec d1 46 bc 31 36 ae bc
       0.039244313 -0.0069715413 -0.01213501 -0.021266075
0000c0 e6 bd 47 bd b7 1b 42 bd 52 67 32 bd 13 0a 10 3c
       -0.048765086 -0.047389712 -0.043555565 0.008791464
0000d0 f0 a6 10 bc 6d 7b 23 bd 82 b2 bb 3c 0e c4 1f ba
       -0.0088288635 -0.03991263 0.022912268 -0.0006094583
0000e0 9a 4f c8 bc 79 44 0a 3c 81 63 d9 3c c8 e9 f2 bc
       -0.02445202 0.008439177 0.026536705 -0.029652491
0000f0 ba 90 65 bc 39 34 3b ba eb 14 8f bc a6 b3 8e bc
       -0.014011556 -0.00071412657 -0.01746603 -0.017419647
000100 e2 37 d1 bc dc 6d 88 bc 25 ae cd bc 18 07 b6 3a
       -0.025539342 -0.016653948 -0.025107453 0.0013887612
000110 15 92 5a bc c0 85 ac bc 70 5f 86 bc 39 11 10 3c
       -0.013340493 -0.02105987 -0.01640293 0.008793169
000120 17 8b d4 3c ac 80 7b bc cf cc 99 3c b7 2d bd 3c
       0.02594523 -0.015350502 0.018774418 0.023093088
000130 9f b2 4d 3c 8f b3 24 3c f5 2d 0c 3c 39 43 17 bc
       0.012554794 0.010052576 0.008555879 -0.009232336
000140 a2 f7 97 bc 6e 13 a9 bc 18 28 a2 bc 9c 7a af bc
       -0.018550698 -0.020639148 -0.019794509 -0.02142077
000150 44 91 2c ba 45 69 26 3c 8f 3d 97 3c 8d 60 fb bc
       -0.00065829256 0.010156934 0.01846197 -0.030685687
000160 e3 3b ed 3c c2 1b a9 bc ec 84 10 3c 3f 92 c7 3a
       0.02895922 -0.020643119 0.008820754 0.001522608
000170 8b 18 79 bb d4 4d f6 3c 89 51 04 3d da ad 77 bb
       -0.0038009014 0.030066408 0.03230432 -0.0037792833
000180 32 df 6d 3c 8c b8 81 3a 24 3a 05 3d 0b 41 12 3d
       0.014518546 0.0009896918 0.03252615 0.03570656
000190 b2 83 3a bd 33 a4 34 bd 42 11 92 bb 75 12 63 bc
       -0.04553575 -0.044101905 -0.0044576237 -0.013859381
0001a0 fa 2e 12 bd c7 91 1d bd 61 bb 04 bd 36 5e e7 3c
       -0.03568933 -0.038469102 -0.03240526 0.028243165
0001b0 d8 64 22 bd f4 09 a6 bc f2 4f 15 3c 1b 72 95 bc
       -0.039646953 -0.020268418 0.009113299 -0.018242886
0001c0 bf 36 f1 3c ad c1 d7 bc 98 55 03 bd 5e c2 aa 3b
       0.02944505 -0.026337469 -0.03206405 0.0052111587
0001d0 89 b7 04 bd 19 3b 0b bd 3a 49 00 bd fb 7f 7f bc
       -0.032401595 -0.033991907 -0.031319834 -0.015594478
0001e0 a3 35 81 3c 79 ff c5 3c ee 90 37 bd cc dd 72 bc
       0.015772646 0.02416967 -0.04481595 -0.014823388
0001f0 14 92 03 3c c9 90 0f 3c 1a 5b 34 3a 37 71 e8 bb
       0.008030433 0.008762547 0.000688003 -0.0070935744
000200 c5 a0 1f bd ce 04 b6 3c 57 a5 ee bc bf 2b 87 3c
       -0.03897168 0.022219088 -0.029131575 0.016500352
000210 52 f8 69 b9 f9 93 80 bb 10 7f 52 bc 0d 3f 0c 3d
       -0.00022313118 -0.0039238897 -0.012847677 0.034239817
000220 30 28 50 3c 5e d1 71 3c ea 22 34 3c bc 85 38 bd
       0.012704894 0.01475939 0.010994652 -0.045049414
000230 e3 d9 9f bb bc 04 84 bc 3d bf 2c 3c f8 3e d0 3b
       -0.004878269 -0.016115539 0.010543642 0.0063551627
000240 73 69 0c 3d 69 ef 1b bb 07 09 85 bb 6c b4 0a 3d
       0.03428025 -0.0023793823 -0.004059914 0.03386347
000250 f3 e4 0e bd 83 e3 34 bc 74 cf 28 3c 69 e1 57 bc
       -0.03488631 -0.011040571 0.010303367 -0.013176301
000260 00 ac 56 3c 62 a8 4d 3c 99 0c ab bc 00 c1 b2 bc
       0.013102531 0.012552353 -0.02088003 -0.021820545
000270 b9 42 82 3c 61 5a 3b 3c c9 1b df bc 08 c0 cd 3c
       0.015900956 0.011435122 -0.027234929 0.025115982
000280 45 07 12 bd f4 2d d6 3c 4e 8f bd bc e8 4b cc 3c
       -0.035651464 0.026144959 -0.023139622 0.024938539
000290 1a 72 c1 3b fc 04 cc 3c b1 97 07 bd 7a 4c 4a bc
       0.0059034945 0.02490472 -0.03310365 -0.012347335
0002a0 15 61 15 bd 84 22 3a bd 01 47 52 3b 6b 5d f0 bc
       -0.036469538 -0.045443073 0.0032085779 -0.02934142
0002b0 c1 20 4d ba 9a 75 b0 bb 80 85 9f bc af 6f ed 3c
       -0.000782501 -0.005385113 -0.019472837 0.028983919
0002c0 f4 40 13 bc 54 68 0e 3d 43 91 b2 3b f7 b3 ca bc
       -0.008987654 0.034767464 0.0054494455 -0.024744017
0002d0 d7 16 a1 bc bb c2 b8 3c c7 1b 6c bc 57 ef fd 3b
       -0.019664211 0.022553792 -0.0144109195 0.007749479
0002e0 24 07 bf 3b 4d 44 d8 3c 45 63 15 bd f2 38 9e 3c
       0.0058297087 0.026399756 -0.036471624 0.019314263
0002f0 0f c6 02 bd 9a af 8f 3c 20 7b c9 3c d6 18 39 bd
       -0.031927165 0.017539788 0.024594843 -0.0451897
000300 14 63 46 3b 2b a0 c3 3b 60 fc f0 bc 47 2e b8 bc
       0.0030271458 0.0059700212 -0.029417217 -0.022483004
000310 48 d7 13 bd d5 93 b1 bc 8b cd f7 3b 74 f8 e5 3a
       -0.03609398 -0.021676937 0.0075623444 0.0017545358
000320 50 e3 c2 bc d7 d4 66 bc d4 b4 1f 3d 33 c6 ae bb
       -0.023790032 -0.014088831 0.03899081 -0.005333686
000330 ea 7e aa 3c 27 09 6e 3a ed c2 de bc 76 4a 04 bd
       0.02081247 0.00090803433 -0.027192557 -0.032297574
000340 b6 92 97 bb 47 e9 f4 3c a5 4e e0 bc 48 8a 99 3a
       -0.0046256436 0.029896392 -0.02738125 0.0011714185
000350 c7 e3 d4 bc eb 49 2e bd c0 ad 5d bc 77 46 d6 bc
       -0.025987519 -0.042550962 -0.013530195 -0.026156647
000360 3d b8 2b bc c5 cf 12 3d 27 87 c0 3c 75 9e cb 3b
       -0.010480938 0.035842676 0.023501946 0.006213958
000370 30 a6 d7 3c bf df f4 bc 15 fd 0f ba 10 24 3d bd
       0.026324362 -0.029891847 -0.0005492729 -0.04617697
000380 79 d2 14 bd c5 87 87 bb c3 b9 67 3c dc a0 c7 3c
       -0.036333535 -0.004136058 0.01414341 0.024368696
000390 5b 88 3a bb 4f 47 a7 3b ae 9f 8a bb cb 12 a2 3c
       -0.0028462622 0.005104936 -0.004230461 0.019784352
0003a0 73 3f d0 3c cc 27 01 bd e7 51 01 bd a2 2a 11 bd
       0.02542088 -0.031532094 -0.03157225 -0.03544105
0003b0 58 3c d5 3c 6d a5 5c 3c 7a ea 1b 3b 8f f9 8b 3c
       0.02602975 0.013467175 0.0023790882 0.017086772
0003c0 b0 c2 02 3d 8c 17 cc 3c bf d3 be 3c fe 04 34 bd
       0.03192395 0.024913572 0.023294328 -0.043950073
0003d0 4e be 85 3c c6 f4 c6 3c e6 ff 8c 3c cb 13 14 3d
       0.016326096 0.024286639 0.017211866 0.03615169
0003e0 90 00 0e bc ca 73 53 3c 1a b5 83 3c 10 e0 f2 bb
       -0.008667126 0.012906024 0.016077567 -0.0074119642
0003f0 38 33 f4 bc 98 d1 2a bd 29 b0 0d bc 4c f4 c0 bc
       -0.02980958 -0.04170379 -0.008647957 -0.02355399

bias f4 [64]
000000 3b e9 8e 3c 8f 73 e0 3a bf 01 58 3d c4 89 27 bd
       0.017445197 0.0017124283 0.05273604 -0.040902868
000010 0e 0f cc 3c 47 03 9b bc c0 0d e9 bb 20 a2 a6 bc
       0.024909522 -0.018922461 -0.007112235 -0.02034098
000020 e6 a3 17 3d 23 cf 83 3a b5 08 d4 bc 1c f9 a7 3c
       0.03702154 0.0010056238 -0.025883058 0.020504527
000030 42 bb 10 bd 37 a7 3f bc c8 93 a0 bc 85 0a 06 ba
       -0.035334833 -0.011697582 -0.019601718 -0.0005113262
000040 c7 81 3f 3d 37 be 24 3b 20 7a ae bc e9 72 6c 3d
       0.046754625 0.002513779 -0.021298468 0.057726774
000050 e6 8e 2d bd 4b 5c 48 3d 18 a9 cc 3c ab b6 ac bc
       -0.042372607 0.048916142 0.024982974 -0.021083197
000060 71 11 2e bc 13 0d 22 3d c7 54 a9 3c b6 66 6d 3c
       -0.010624276 0.03956325 0.020670308 0.01448982
000070 03 26 41 3d d0 94 2e bb 4b bd dd 3b 5d c3 fe 3c
       0.04715539 -0.0026638992 0.0067669502 0.031099016
000080 a3 0e a7 3c d5 22 1d bd 23 20 19 bc 91 46 01 bb
       0.020392722 -0.038363297 -0.009346041 -0.0019725899
000090 7f f6 fd bc 71 e8 14 3d 96 5f 08 3c 45 5c da 3c
       -0.031001328 0.036354486 0.008323571 0.026655326
0000a0 db 5d 28 3c f4 de b8 bc 0a 69 e8 3c be f5 b9 3c
       0.010276283 -0.02256725 0.028370399 0.022700187
0000b0 c1 75 dd 3c d6 55 8c bc f0 d1 21 bc b0 31 b5 bc
       0.027033689 -0.017130774 -0.009876713 -0.02211842
0000c0 40 06 0d bd 76 13 d2 3c 72 7a de 3c ef 3f ba bc
       -0.03442979 0.025644045 0.027157996 -0.022735564
0000d0 00 89 f7 3c d9 b7 e6 3c 5f 27 fa 3b 36 d4 c0 bc
       0.030216694 0.028163837 0.007634088 -0.02353869
0000e0 9c 1d 03 3d 6a c6 b9 bb 43 3a 95 bb 63 8d ff 3b
       0.03201066 -0.0056694048 -0.0045540645 0.007798837
0000f0 90 f3 57 3c 2d f0 1e 3d b4 8c 07 3d 20 47 ff bb
       0.013180628 0.03880327 0.03309317 -0.007790461

weight f4 [64, 64, 3, 3]
000000 1c 05 63 bc bd 80 26 3c c6 88 74 3c f9 b7 f0 bc
       -0.013856199 0.01016253 0.014925187 -0.0293846
000010 65 dc 73 ba bf 64 42 bc 5f ec 33 bd 83 fe 80 bc
       -0.00093025557 -0.01186484 -0.043926593 -0.01574636
000020 43 72 07 3d 06 83 b0 bc 38 c3 84 bb 49 44 c9 3c
       0.033067953 -0.021546852 -0.004051592 0.024568694
000030 ca 91 ff bc 30 a2 da 3c d7 a7 1b bd 04 71 1b bd
       -0.031197447 0.026688665 -0.03800186 -0.037949577
000040 9e 26 9b 3b 44 5e 2c bd 09 dd 21 bd b3 9b fb bb
       0.004734828 -0.042082086 -0.039517436 -0.007678473
000050 d3 6f 40 b9 ea d8 78 bc 97 22 38 bd 1d 52 f4 bc
       -0.00018352205 -0.015188435 -0.044954862 -0.02982431
000060 b2 8c 3c bd 93 13 c3 bc 91 87 bb bc 59 b2 23 3d
       -0.046032615 -0.023813045 -0.022891792 0.039965007
000070 6e b3 ce 3c a0 2b 34 bc ee 8d e3 bc 2b ad 08 bd
       0.025232043 -0.010996729 -0.027777638 -0.03336827
000080 92 a4 a7 3c a0 44 fd 3a 80 a0 96 3a e6 76 4b bc
       0.020464215 0.001932282 0.0011491925 -0.012418484
000090 8c da e0 bc 5d 69 f8 3a db 91 14 3c 90 fd 9b 3c
       -0.027447961 0.0018952299 0.009067978 0.019041806
0000a0 11 05 df 3c f4 1c 3b bc 3c b9 2e 3a af ca 1d bd
       0.027224096 -0.011420477 0.00066651753 -0.038523372
0000b0 2f bc 64 bc ee 44 19 bb 69 07 83 bc 9b 10 95 3c
       -0.013960882 -0.0023387033 -0.015994744 0.018196395
0000c0 4a c2 05 bb 88 89 05 3c 1e 22 ef 3c b3 d4 ad 3c
       -0.0020409995 0.008150466 0.029191073 0.021219587
0000d0 c4 eb e1 3c ec b7 ef 3b 9c ea 15 3d b8 77 d2 bc
       0.027578242 0.0073156264 0.036600694 -0.025691852
0000e0 07 89 1a bb 70 6b 24 bc 46 93 96 bc f7 b2 bb bc
       -0.002358021 -0.010035381 -0.018380772 -0.022912486
0000f0 44 9d 72 bc f6 62 f4 bc 35 8e 33 3c 7c 65 6c bc
       -0.014808003 -0.029832345 0.010959198 -0.014428493
000100 80 41 1a bc e8 db 23 bd ba fc bf 3c 56 43 4e bc
       -0.0094150305 -0.04000464 0.02343594 -0.012589296
000110 e2 0f f0 3c a4 30 64 3c 0b 35 d7 bc c0 06 67 3a
       0.029304449 0.013927612 -0.02627041 0.00088129565
000120 bd c0 0c bd c6 63 be bc 80 c9 dd bc 81 b3 01 bc
       -0.034363497 -0.023240935 -0.027073622 -0.007916332
000130 6e 8c 29 bd 56 fd 97 bc 2d 06 eb 3c f4 6d 18 3d
       -0.04139369 -0.018553417 0.028689468 0.037214234
000140 1c 5d 9f 3c ec bb ee bc de 40 c5 3b b8 cf d9 3c
       0.019453578 -0.029142343 0.0060196957 0.026588306
000150 29 1d 30 3c 10 21 12 3d c3 3a 10 3d 05 1d 0d bd
       0.01074914 0.035676062 0.03521229 -0.034451503
000160 8f eb 0f 3d 58 ce c7 3c 00 51 58 bb 3e a9 fa bc
       0.035136756 0.024390385 -0.0033007264 -0.03059828
000170 a4 5b 01 bd b0 d1 c0 bc 0b 71 96 bc 00 80 20 3c
       -0.031581536 -0.023537487 -0.01836445 0.009796143
000180 56 83 7a bc 56 6d e7 3c da f4 9d 3c 3d f2 b1 3c
       -0.015290102 0.028250378 0.019281793 0.021721954
000190 bd 46 81 bc 1e 86 95 bc ef d0 03 3d 5e 66 c1 3c
       -0.015780801 -0.018252429 0.032181676 0.023608383
0001a0 a3 33 f3 bc 38 b5 1e bd 2a a9 80 3c 29 8d 67 3c
       -0.029687708 -0.038747042 0.015705664 0.014132776
0001b0 ae 03 e0 bc 1c 29 57 bc 5b 6e b1 bc fe 25 c4 bc
       -0.027345505 -0.01313236 -0.021659067 -0.023943897
0001c0 5e 70 b2 3c e3 22 04 3d 13 41 2a 3d 8a 3d cc 3c
       0.021782096 0.032259833 0.041565966 0.024931688
0001d0 50 52 c1 bc 40 fe ef bb 3f 36 13 3d 4b cf cf bc
       -0.02359882 -0.00732401 0.035940405 -0.0253674
0001e0 53 7a 96 bc 0c 86 77 bc 1a c7 bc 3c 10 5e 3a bc
       -0.018368876 -0.015107643 0.023044158 -0.011374965
0001f0 70 82 54 bc 6d 69 27 3d af bc 19 3d 19 ab f4 3c
       -0.012970552 0.040872026 0.03753346 0.029866742
000200 cb c3 29 3b 78 36 9e 3c dd e0 a3 bc f3 36 ee 3c
       0.0025904055 0.019313082 -0.020004684 0.029078936
000210 9d 3e 7f bc 94 c5 09 bd 34 f0 7f 3c 3c 69 ec bc
       -0.015578893 -0.03363569 0.015621234 -0.028858773
000220 83 24 0b 3d 33 75 8e 3c 7a ad 11 bb 99 0d f9 3b
       0.033970367 0.01738987 -0.0022228644 0.007600498
000230 4d 0a 8d bc aa 38 13 bd 54 a9 d6 3b bc d2 3c bc
       -0.017216826 -0.03594271 0.006550947 -0.011524852
000240 7b c1 49 bc 5a a4 c8 bc 90 97 14 bd c6 09 de 3c
       -0.012314196 -0.024492431 -0.036277354 0.02710427
000250 96 d5 56 3c 33 d7 e4 bc 0e b2 16 bd 76 c4 82 bc
       0.013112446 -0.027934646 -0.0367909 -0.01596282
000260 e8 b1 84 bb 06 58 ff 3b aa 9a c9 3b 7b a0 bb 3b
       -0.0040495284 0.0077924756 0.0061524706 0.005725918
000270 dc 0b 84 bc 02 29 c5 3b 55 cd 0b bd 85 01 27 bc
       -0.016118936 0.0060168514 -0.034131367 -0.010193233
000280 32 4a dc bc 74 83 0f bc 73 f0 13 3d e2 cc 85 bc
       -0.026890848 -0.008759368 0.036117982 -0.016333047
000290 15 8c 4e 3c 85 2c 22 bb d9 66 a4 3b 16 21 86 3c
       0.01260664 -0.0024745774 0.005017143 0.016373198
0002a0 37 65 0a bd 11 cd fb 3c 61 ed 2c bd 00 f8 ec b8
       -0.033787932 0.030737432 -0.04221857 -0.000112995505
0002b0 bd a7 25 3d d7 6b 06 3d 50 5b 42 3b 67 e6 be bc
       0.04044317 0.032817688 0.0029656477 -0.023303224
0002c0 65 95 98 bb 71 22 25 3d 43 68 ee bc dc 10 70 3c
       -0.004656481 0.04031605 -0.02910245 0.014652457
0002d0 fa a8 25 3a 4d 44 9c 3c 8d 9b c1 3b 66 e4 8a bc
       0.000631943 0.019075537 0.0059084357 -0.016954612
0002e0 d7 3e 8d bb 40 fe e6 3c 4f 70 90 bc 67 f8 df 3c
       -0.0043104696 0.028197408 -0.017631678 0.027340127
0002f0 69 c9 5e bc 9d 09 c1 3a 18 b3 68 3b ad 8f be 3c
       -0.013597825 0.0014727596 0.0035507139 0.02326187
000300 73 ab e7 bc cf ee a5 3b c6 bb 4a bc e4 c2 27 bd
       -0.028279996 0.0050638686 -0.01237387 -0.040957347
000310 c0 12 b3 bc 1f 1e d6 3c c8 94 f6 bc 30 ea 3e bc
       -0.021859527 0.02613741 -0.030100241 -0.011652514
000320 06 26 ed bc f1 48 28 3d 76 69 c4 3c 20 04 e5 bc
       -0.028948795 0.041085187 0.023976069 -0.027956069
000330 ad 6c 01 3d 2a 68 a8 3c 0a 2f 11 bd 31 84 76 bc
       0.031597782 0.020557482 -0.03544525 -0.015046165
000340 d8 78 82 bc 76 d7 e0 bb d1 96 3f 3b d0 f3 18 bd
       -0.015926763 -0.0068616224 0.002923418 -0.037341893
000350 c8 de 55 3c b4 9a d4 bc cc ae be 3b d6 f0 12 3c
       0.0130536035 -0.025952674 0.0058191773 0.008968553
000360 2d df ee 3c b3 3f 98 3c 01 23 4e bc cd 77 9c 3c
       0.029159153 0.018585062 -0.012581588 0.019100094
000370 e6 e7 bc bc fb 79 87 3c 66 f1 45 bc fd b2 a7 bc
       -0.023059797 0.016537657 -0.01208148 -0.02047109
000380 8e 22 e0 3c fd 3c 20 bc 84 bc 08 3d 2b b1 f5 bb
       0.027360227 -0.009780166 0.033382908 -0.0074979267
000390 c1 30 e9 bc 49 df 0a bd f7 c5 46 3c 00 d7 da 3c
       -0.02846563 -0.033904348 0.012132159 0.026713848
0003a0 c6 91 2b bd b1 98 04 bd ec d5 4e 3c cb ef cc 3b
       -0.041887067 -0.03237218 0.012624245 0.0062541715
0003b0 53 bb eb bc 68 1b c5 3c e8 6f 5c bc 28 4d a6 bc
       -0.028775847 0.02406092 -0.013454415 -0.020300463
0003c0 e0 bb dc bb c4 d7 be 3c 41 b8 91 bc 7c fc 08 bc
       -0.0067362636 0.023296244 -0.017788054 -0.008360978
0003d0 f0 df 0a bc 24 c0 1b bd 17 c2 8f bc 64 80 9c bc
       -0.008476242 -0.038025036 -0.017548604 -0.01910419
0003e0 42 75 38 bd fd da f1 bc 1b 83 e6 bc 3a f4 bf bb
       -0.0450337 -0.029523367 -0.028138688 -0.0058579715
0003f0 d0 11 32 bd 46 7a e8 bc 78 fb 3b bd 50 08 0c bd
       -0.04347402 -0.028378617 -0.045894116 -0.034187615

bias f4 [64]
000000 18 e7 8a bc 3e 83 89 bc 84 d9 e3 3c 6f c1 cf 3c
       -0.016955897 -0.016786214 0.02781368 0.025360791
000010 64 43 35 bd 20 10 bf 3c 03 c1 ee 3c f3 f4 fa 3c
       -0.04425372 0.023323119 0.02914477 0.030634379
000020 f8 67 5d 3d 9a 71 a0 bc 41 fa 46 3d eb 25 17 3d
       0.05405423 -0.01958542 0.048578504 0.036901396
000030 4e 58 5a 3d 36 3d 6a 3d 7b 5f 22 bd 7c a6 13 3c
       0.05330687 0.05718728 -0.03964184 0.009011861
000040 7a 0f 51 3c b4 97 b6 bc a0 99 d9 3c 5a 88 88 bc
       0.012760038 -0.022289135 0.026562512 -0.01666658
000050 c2 16 2b 3d 92 63 eb 3c 92 5f 0b 3c 67 15 ee bc
       0.04176975 0.028734002 0.008506672 -0.02906294
000060 96 76 53 bc 44 b5 1d bb 24 c6 20 bd 5a c6 3e bb
       -0.012906691 -0.0024064342 -0.03925146 -0.0029109926
000070 e6 bb 3c 3d 41 df e5 3c 78 23 1a bb 3c 48 fa 3c
       0.04607763 0.028060557 -0.0023519676 0.030552022
000080 68 e6 49 3d 3c 24 99 3c 2a e0 4e 3d 11 3c 3f bd
       0.049292 0.018694036 0.05050675 -0.046688143
000090 d9 2c bf bb d9 51 cb 3c 6b 66 18 3c a9 43 35 3c
       -0.0058342037 0.024819301 0.009301762 0.011063495
0000a0 16 12 f2 bc 81 78 a8 3c 49 22 af 3c b6 2e 01 3d
       -0.02954964 0.020565273 0.021378653 0.031538688
0000b0 cf f9 1a 3d c2 68 e2 3c 63 6b 06 bd 46 ce 1f bd
       0.037835892 0.027637843 -0.032817256 -0.039015077
0000c0 c8 bb 4a 3d a1 a6 16 3d a1 22 ad 3c 5b 77 aa bc
       0.04949549 0.036780003 0.021134676 -0.020808866
0000d0 80 ab 4c 3d f2 fb 12 bb 68 af ac bc 4e 58 7b 3c
       0.049968243 -0.0022428003 -0.021079734 0.015340878
0000e0 23 a4 5d 3d 8e c5 37 3c 04 78 41 bd e1 ad 6c bc
       0.05411161 0.011216534 -0.047233596 -0.014445753
0000f0 b3 41 95 3c 6a e2 cc bc 44 4c bc ba 72 38 dc 3b
       0.018219804 -0.025010306 -0.0014365991 0.006720596

weight f4 [64, 64, 3, 3]
000000 43 91 12 bc e2 47 03 3d 87 bf 06 3d 48 5b c1 bc
       -0.008945766 0.032050975 0.0328975 -0.023603097
000010 7b d5 b2 3c 30 9b d8 bc bf 16 86 3c 35 fa 06 3c
       0.021830311 -0.026441187 0.016368268 0.008238365
000020 28 a7 05 3d 1e cb 96 3b e9 48 98 bc f4 7a 43 bc
       0.032630116 0.00460185 -0.018589454 -0.01193117
000030 b1 27 01 bd 7b d6 21 3d da 3c 23 bb 54 dc 05 bc
       -0.031531993 0.039511185 -0.0024908097 -0.008170206
000040 34 75 f9 bc cc 36 a5 bc d8 07 34 3d 52 28 82 3b
       -0.030451395 -0.02016773 0.043952793 0.0039720917
000050 4e df 85 3c ad fb 3f bc 7e ec 81 3c ae 97 08 3d
       0.016341832 -0.011717719 0.015859839 0.033347778
000060 c7 3d c9 bc 9b 25 1c bd fa f0 15 3c 9b 18 b7 bc
       -0.02456559 -0.0381218 0.009151692 -0.0223506
000070 8a 75 24 bc f7 2f 90 bc 12 fa ac bc 4b 45 17 bb
       -0.010037789 -0.017600996 -0.021115337 -0.0023082073
000080 f2 9e be bc eb 65 9b bb d8 a8 d7 3b 74 47 e7 3c
       -0.02326915 -0.004742374 0.006581407 0.028232314
000090 e1 dc 23 3d bd d6 25 3d 60 29 08 3c d4 6a 1d 3d
       0.04000557 0.040487994 0.008310646 0.038431957
0000a0 5b d1 3b 3c 86 45 82 3c 32 99 97 3b 16 57 be bc
       0.011463488 0.015902292 0.0046264166 -0.023234885
0000b0 cb af 8e bc d3 f0 01 3d cd 5e ea bc 03 35 d8 3c
       -0.017417809 0.03172381 -0.028609658 0.026392465
0000c0 3f 6e 22 bc 84 2f f2 3c 8a a3 b4 3c 08 83 91 3c
       -0.00991398 0.029563673 0.022050638 0.017762676
0000d0 85 27 9c 3c aa 3e 57 bc 33 e3 a6 3c 5e ad 28 3d
       0.019061813 -0.013137499 0.020372009 0.04118096
0000e0 b7 18 20 3d d2 cf b9 bb e9 f7 05 bd 80 77 e8 3b
       0.03908607 -0.005670526 -0.03270713 0.0070943236
0000f0 52 b2 22 bc cd 4f dc 3b ab c1 e2 3c 66 bd c6 bb
       -0.00993021 0.00672338 0.027680239 -0.0060650585
000100 b4 c9 e6 bb 28 4d d9 3b 65 2c bc bc e7 6f 86 bc
       -0.007043088 0.006631512 -0.022970388 -0.016410781
000110 01 74 af 3b 81 fa 08 3d 87 0a 1f bd 70 cc cb 3c
       0.005354405 0.033442024 -0.0388284 0.024877757
000120 46 18 10 bb 04 77 b6 bc a8 67 56 bc 02 89 21 3d
       -0.0021987124 -0.022273548 -0.013086237 0.0394373
000130 9b de 76 bb 92 7c 04 bd 6f e9 8e 3c 17 cc c5 bc
       -0.0037669304 -0.032345362 0.017445294 -0.02414517
000140 1d e6 cc 3b 9f 68 f9 3c ee 78 1c 3d d8 8f 1a bd
       0.0062530176 0.030445395 0.038201265 -0.037734836
000150 52 37 f5 bc ca 14 e1 bc 61 d2 70 3c ec 89 e8 bc
       -0.029933605 -0.027475733 0.014698596 -0.028386079
000160 7d 03 f8 bc af 55 06 bd 70 7d 24 3d b8 07 a8 3c
       -0.0302751 -0.032796558 0.04015869 0.020511493
000170 be f9 f8 bc 0e 49 fd bb 29 0b b0 3c c6 91 fb bc
       -0.030392524 -0.007729656 0.021489697 -0.030709159
000180 cd 9f 21 3b 24 9b 2e 3d c4 26 14 3d ed b3 02 3d
       0.00246619 0.042628422 0.036169782 0.03190987
000190 fa 23 a9 3a 20 b6 07 3d a4 6a b5 bc 89 56 b3 3c
       0.0012904399 0.033132672 -0.022145577 0.02189185
0001a0 fa 57 02 bd fe 5c ab bb d2 16 09 bd 52 ec f0 3c
       -0.031822182 -0.0052295914 -0.03346903 0.029409561
0001b0 55 d4 39 3c 9c 48 11 3d bf 21 08 3d a9 b1 ae bc
       0.011342128 0.035469636 0.033235308 -0.02132495
0001c0 66 25 af 3b 9f f0 18 3d 36 02 c7 bb ce f4 e1 3c
       0.0053450344 0.03733885 -0.0060732616 0.027582552
0001d0 31 46 4b 3c 98 35 be 3b db ff 0a bc 0c b1 2c 3d
       0.012406872 0.0058047287 -0.008483852 0.042161033
0001e0 f3 eb 58 bd 56 78 2e bc 62 f1 17 3d 3a e1 83 bc
       -0.052959394 -0.0106488075 0.037095435 -0.016098607
0001f0 01 6a f9 bb 4b 52 3b 3d a2 c3 1b bc fb 54 96 bc
       -0.0076115136 0.045732778 -0.009507092 -0.018351069
000200 2d a4 09 3d 79 4a 17 bc ac ca cc bc b0 d2 7d bc
       0.033603836 -0.009234064 -0.024998985 -0.015492126
000210 ef a7 0b bd 61 5a 63 bc bd 9b 1d 3d 7d a0 a7 3c
       -0.0340957 -0.0138765285 0.0384786 0.020462269
000220 c2 71 93 3c 96 f1 b5 3a a5 59 22 3d 62 40 b4 3c
       0.01799858 0.0013881202 0.039636273 0.022003356
000230 6a a2 59 3b 8d 18 00 3c 27 dd 2e 3c f2 d6 d6 3c
       0.0033208379 0.007818353 0.010672844 0.02622554
000240 71 90 d5 3b 69 11 ee bc 1d de d6 3c 17 89 99 ba
       0.006517463 -0.029061036 0.026228959 -0.001171383
000250 3b 8e 24 3c a2 62 3a bb 98 20 d9 3c e8 42 0f 3b
       0.010043676 -0.0028440137 0.0265048 0.0021859948
000260 7d 7e 04 3d 81 b1 f5 bc cb 9a 95 3c 2a a0 92 bc
       0.03234719 -0.029991867 0.018262288 -0.017898638
000270 ce 82 03 3d 5d 37 d6 bc e6 82 15 bd 41 0e 84 3b
       0.032107167 -0.026149446 -0.036501788 0.0040300195
000280 0b a3 49 bc 4e 9b 90 3c a0 04 69 3c d5 9a f8 bb
       -0.012306939 0.01765218 0.014222294 -0.007586817
000290 83 fc e4 bb 50 b0 0c bd e5 4f de 3c 65 b7 1e bd
       -0.0069881096 -0.034347832 0.027137706 -0.038749117
0002a0 d2 6c 00 bd 10 dd 20 bd 41 cf ce 3c 0e d2 21 3d
       -0.03135378 -0.03927332 0.02524531 0.039506964
0002b0 b2 f5 f7 3a c3 f2 c1 3c 56 69 24 3d 8a b7 0c bc
       0.0018917827 0.023675328 0.04013952 -0.008588681
0002c0 39 98 a3 3c 88 b4 bd 3b 30 c6 9e 3b d2 52 10 bc
       0.019970046 0.0057893433 0.004845403 -0.008808808
0002d0 9e 91 a8 3c e9 9e 03 bc 58 47 4f 3c 5e 0d 8d b9
       0.020577248 -0.008033493 0.012651287 -0.00026903575
0002e0 c5 31 5b bd 6d 89 68 bd 39 8c 32 3c 1d 26 13 3d
       -0.05351426 -0.056771684 0.0108976895 0.03592502
0002f0 c0 6d 6f 3c 74 8e 06 bb 0f 5a 16 3d 00 5c df 3c
       0.014613569 -0.0020531686 0.03670698 0.027265549
000300 cb bb 17 3d 46 78 8e 3b 67 e4 f1 3c 9f 00 81 3b
       0.037044328 0.004347834 0.029527856 0.0039368416
000310 e7 29 e3 bc 90 2b a9 bc b0 25 b9 3b 0a 48 bb 3c
       -0.027729942 -0.020650655 0.0056502447 0.0228615
000320 b1 2a cd 3c 83 58 1a 3a a8 bc ba 3c 13 2e 97 3b
       0.02504477 0.0005887823 0.022795036 0.004613647
000330 7e aa b4 3c 95 eb 0f 3b f9 de 6f 3c 1a 33 d7 3c
       0.022053953 0.0021960486 0.014640563 0.026269484
000340 3e 7a 2c 3d 50 bf 39 3d c0 cf d8 3c 06 82 c5 3c
       0.042108767 0.045348465 0.02646625 0.024109852
000350 ef f9 b3 3c 5e 33 13 3d 85 d4 df bb b2 f6 83 bc
       0.021969764 0.03593766 -0.006830754 -0.016108844
000360 f8 2c d9 bb de 6e b4 3c 6a f5 19 bd 5a 6d e8 3c
       -0.006627675 0.022025522 -0.03758756 0.028372455
000370 0a 78 b2 3c 1b d2 b2 bc 80 87 93 b9 8d 97 04 3d
       0.021785755 -0.021828702 -0.0002813898 0.032371093
000380 2c e2 52 bc c6 2d fa bc b4 ee 87 bb b0 05 a4 3c
       -0.012871306 -0.030539405 -0.0041483287 0.020022243
000390 e9 f3 f8 bc 8d f2 b6 3b 49 df ac 3b b7 2f 0e bc
       -0.030389743 0.0055831135 0.005275641 -0.008678368
0003a0 75 b7 af 3c 64 7d 4b bc c3 39 32 3d 39 36 7b 3b
       0.021449784 -0.012420032 0.043512117 0.003833188
0003b0 d2 fb 10 3c cc b5 0f bd 1f f4 3b bd f5 80 37 3b
       0.008849101 -0.035085484 -0.04588711 0.0028000448
0003c0 67 32 f5 3c f6 7e d9 bc 0f e9 0b bd ca e4 79 bc
       0.02993126 -0.026549798 -0.03415781 -0.0152523015
0003d0 a7 9e 47 bc 5d ca e3 bc f2 20 f7 bb 1e 88 fe 3b
       -0.012183822 -0.027806455 -0.007541769 0.0077676913
0003e0 0d 31 c7 bc 90 f4 76 3c e4 30 b4 3c e2 e0 f2 3b
       -0.024315381 0.015072957 0.02199597 0.007412062
0003f0 ec e1 06 3d bb 7c a6 3c 40 36 86 3c 67 7e f2 bb
       0.0329303 0.020323148 0.01638329 -0.0074003222

bias f4 [64]
000000 f7 11 47 3d 1d 50 02 bd 95 d6 35 3c 66 d9 e3 3c
       0.048601117 -0.031814683 0.011098524 0.027813625
000010 14 56 85 bc 75 29 50 bc 33 76 15 bc a0 42 64 bc
       -0.016276397 -0.012705197 -0.009122419 -0.0139319
000020 e5 cd ad bb 4b b9 fd bc bb 8a 3f 3d 45 42 54 3c
       -0.0053040856 -0.030972144 0.046763163 0.012955253
000030 6f 44 c8 37 66 b5 7d bd 27 37 29 bd 1c 6b 45 3d
       2.3873725e-05 -0.061940573 -0.041312363 0.04819785
000040 38 e0 5c 3d 53 b5 16 3c 21 f3 8a bc 70 cb 1e bd
       0.05392477 0.0091985045 -0.016961636 -0.038768232
000050 30 74 c0 bc 22 fc 1b bd d5 be 3a bc 56 c2 d1 3c
       -0.023492903 -0.03808225 -0.011398037 0.025605362
000060 61 7f 50 3d a5 5f 06 3d 17 27 66 3d 1f 87 3d bc
       0.050902728 0.032806057 0.056189623 -0.01156786
000070 0b c1 93 bc 6f 44 21 3d f0 c0 e8 bb a8 85 74 3c
       -0.018036386 0.039371904 -0.007103078 0.014924444
000080 f8 8e 33 3d 8f 16 15 bd 38 0c 1d 3d a2 af a4 bc
       0.043837517 -0.036398467 0.03834173 -0.02010328
000090 08 f8 da bb 46 69 db bb 51 18 3a 3d 0c b8 61 3b
       -0.0066823997 -0.006695899 0.045433346 0.0034441976
0000a0 34 93 b0 bc 6c ec 2b 3c 38 b0 ec 3c 42 e6 e3 bb
       -0.021554567 0.010493379 0.028892621 -0.006954939
0000b0 c1 e7 3f 3b 19 8a 19 3d ec 23 ed bc bc 65 7f 3d
       0.0029282423 0.037485216 -0.028947793 0.06235288
0000c0 ea 88 c3 3c 87 c6 3f bd 9e 31 38 3d 52 a5 af bc
       0.023868997 -0.04682019 0.044969194 -0.021441136
0000d0 93 9c 0a 3c 77 79 58 3c a8 83 92 bc cf ea b4 bc
       0.008460182 0.013212553 -0.017885044 -0.022084622
0000e0 ab df df 3c 22 54 aa bc a5 6f 25 bd 7f f8 7f 3c
       0.027328333 -0.02079207 -0.040389676 0.015623211
0000f0 be 27 a8 bc 2c 9a 9b bc 67 b0 c4 bc 96 99 05 3d
       -0.020526763 -0.018994413 -0.024009896 0.032617174
