MOEmodels/rowModel_2.pt (torch, 95275 bytes, 12 tensors)

weight f4 [4, 1, 3, 3]
0	0xbdfca800	-0.12336731
1	0xbdcd4540	-0.10022974
2	0x3e9186c9	0.28423145
3	0x3c9bc130	0.019013017
4	0x3e2e3b42	0.17014793
5	0x3ea3f523	0.32022962
6	0xbc86de90	-0.016463548
7	0x3e8e4819	0.2778938
8	0x3e052958	0.13004053
9	0x3cc087c0	0.02350223
10	0xbe89bfee	-0.26904243
11	0xbdc91630	-0.09818685
12	0xbd5f9cc0	-0.054592848
13	0x3d29bc18	0.041439146
14	0x3df15dec	0.11785492
15	0x3d2c9298	0.04213199
16	0xbcc42340	-0.02394259
17	0xbe9ff61a	-0.31242448
18	0xbdc511d6	-0.096225426
19	0x3e836441	0.25662425
20	0xbdb381f0	-0.08765018
21	0x3cb6b1c0	0.022301555
22	0xbe129a0b	-0.14316575
23	0xbdae6330	-0.08515012
24	0xbde23bf6	-0.11046593
25	0x3e268b9e	0.16264197
26	0x3d7e1298	0.06202945
27	0xbea56c02	-0.32308966
28	0xbe8134cc	-0.25235593
29	0x3e8163cb	0.25271448
30	0xbbda1040	-0.006654769
31	0x3df9048c	0.121590704
32	0xbe0efa73	-0.13962726
33	0xbe0347c3	-0.12820344
34	0x3e798742	0.24368003
35	0x3d936de4	0.07198694

bias f4 [4]
0	0x3e5514a2	0.20808652
1	0xbd1b8cf8	-0.037976235
2	0xbe7762c3	-0.24158768
3	0x3cdb2b10	0.026753932

weight f4 [8, 4, 3, 3]
0	0xbde8922e	-0.113560066
1	0x3d860706	0.06544308
2	0x3df8eb5a	0.12154265
3	0xbd6f8b50	-0.058482468
4	0xbd6d1966	-0.05788555
5	0xbe1ec40c	-0.15504473
6	0x3d82280e	0.06355296
7	0xbdd00a60	-0.10158229
8	0x3e041319	0.1289791
9	0xbd9eea9b	-0.07759591
10	0x3e2543cd	0.16139145
11	0x3d956a32	0.07295646
12	0x3d700004	0.058593765
13	0x3d59ae54	0.053144768
14	0x3daa88de	0.083268866
15	0xbd31f266	-0.04344406
16	0xbd8fbf6b	-0.07018932
17	0x3e22ae25	0.15886743
18	0xbe249858	-0.1607374
19	0xbddfdbfe	-0.10930632
20	0x3dc2bc72	0.09508599
21	0xbc5f8570	-0.013642654
22	0xbe26d45a	-0.16291943
23	0xbdc771a8	-0.09738475
24	0x3ceb8e28	0.028754309
25	0xbd8de126	-0.06927709
26	0xbc175830	-0.009237334
27	0x3d29c300	0.041445732
28	0xbe208463	-0.15675502
29	0x3cbf3380	0.023339987
30	0x3d353250	0.044237435
31	0xbd6cf1e0	-0.057847857
32	0xbcc8c0c8	-0.024505988
33	0x3d85204e	0.06500302
34	0x3cd08180	0.025452375
35	0x3e2633b5	0.16230662
36	0xbe09c72b	-0.13454883
37	0x3d2952bc	0.041338667
38	0xbe0c7200	-0.13715363
39	0x3b400d40	0.0029304773
40	0xbde4a2e0	-0.111638784
41	0xbe0744b8	-0.13209808
42	0xbe268737	-0.16262518
43	0xbe1886e3	-0.14895205
44	0x3c6c8910	0.014436975
45	0x3d9306b2	0.071790114
46	0xbda61dd0	-0.08111155
47	0xbd85b37e	-0.06528376
48	0xbdb48e96	-0.088162586
49	0x3d5b8ebc	0.05360292
50	0xbda7ea98	-0.08199042
51	0x3d23e820	0.040016294
52	0xbd563320	-0.05229485
53	0x3da5964e	0.08085309
54	0x3dca7eba	0.098874524
55	0xbe1d36d0	-0.1535294
56	0x3c47ce50	0.012195185
57	0x3cf23948	0.02956833
58	0x3e0a4f47	0.13506804
59	0x3df7063a	0.120617345
60	0x3d348c4c	0.04407911
61	0xbe1cdf46	-0.15319547
62	0xbdef1530	-0.11673963
63	0x3e094deb	0.1340863
64	0x3e240d85	0.16020782
65	0x3d3bbef0	0.04583639
66	0xbdc564eb	-0.09638389
67	0xbdd167c3	-0.10224869
68	0x3e28146d	0.16414042
69	0xbddb9eb8	-0.107236326
70	0x3deea106	0.116518065
71	0xbe163423	-0.14668326
72	0xbd3f9606	-0.046773933
73	0x3de7e0b6	0.11322157
74	0x3d0fcfa0	0.035110116
75	0xbe180b9b	-0.14848177
76	0xbcabf8d8	-0.020992681
77	0x3b599300	0.003319919
78	0xbe28330e	-0.16425726
79	0xbd4aa3e0	-0.04947269
80	0xbdaf5a08	-0.08562094
81	0xbe187d67	-0.14891587
82	0x3d25a18c	0.040437266
83	0xbd12ba20	-0.035822034
84	0x3e1092ed	0.14118548
85	0xbd03b9d0	-0.032159626
86	0xbda9b7bb	-0.08286997
87	0x3d0aa8b4	0.033852294
88	0x3ddaed2a	0.10689767
89	0x3dd5a7da	0.10432406
90	0x3bd8a480	0.006611407
91	0xbdddb568	-0.10825616
92	0x3d9574de	0.07297681
93	0x3d85dd9a	0.06536408
94	0xbb629040	-0.0034570843
95	0xbd7bcb0c	-0.061472937
96	0x3e2012ad	0.15632124
97	0x3de0269a	0.10944863
98	0x3e2a6c59	0.16642894
99	0xbd56b950	-0.05242282
100	0xbe148967	-0.1450554
101	0xbdb33358	-0.087500274
102	0x3d82bffa	0.06384273
103	0xbd9c0cd0	-0.07619631
104	0x3dce9efa	0.10088916
105	0x3e1c0c7f	0.15239142
106	0xbd6412e0	-0.055682063
107	0x3bc7e2e0	0.0061000437
108	0xbdc902c0	-0.09814978
109	0x3e0d2131	0.13782193
110	0xbd9fd310	-0.07803929
111	0xbc182770	-0.009286746
112	0x3e297845	0.16549785
113	0xbe11f04e	-0.14251825
114	0xbdce8f9b	-0.10085984
115	0xbc39f670	-0.011350259
116	0x3e0d8451	0.13820006
117	0x3dc007c2	0.0937648
118	0x3d76fea4	0.060301438
119	0x3e1dce6d	0.15410776
120	0xbdc72190	-0.097231984
121	0xbd173d24	-0.036923543
122	0x3e23fc31	0.16014172
123	0xbdc47f18	-0.09594554
124	0x3df4594a	0.11931093
125	0xbd4fc320	-0.050723195
126	0x3d8abe58	0.067745864
127	0x3d9eb2d0	0.077489495
128	0xbd02708c	-0.031845614
129	0x3e1c849b	0.1528496
130	0x3c82e8c8	0.01598014
131	0x3cef27a8	0.029193714
132	0xbc81a528	-0.015825823
133	0x3dd78932	0.10524215
134	0x3c1b93c0	0.009495676
135	0x3db6b9d2	0.08922161
136	0x3b9edb00	0.004847884
137	0x3d758764	0.05994357
138	0xbd2b85c0	-0.0418756
139	0xbdd1a22e	-0.102360114
140	0xbe2529ab	-0.16129176
141	0xbe0c9fe2	-0.13732865
142	0xbdd8a480	-0.10578251
143	0x3c14d1d0	0.009083226
144	0xbd04f334	-0.0324585
145	0x3d8f2cde	0.069909796
146	0x3dd63ffa	0.10461421
147	0xbc028680	-0.007966638
148	0xbddd279e	-0.10798572
149	0xba627d00	-0.0008639842
150	0x3c299a00	0.010351658
151	0x3d3372e0	0.043810725
152	0x3e0dc9bf	0.13846491
153	0x3d829aaa	0.06377156
154	0xbdb3866e	-0.08765875
155	0xbe05f2f3	-0.13080959
156	0x3d387120	0.04502976
157	0x3d07a22c	0.033113644
158	0xbdcddf7b	-0.10052391
159	0x3c57b450	0.013165548
160	0xbde76ebb	-0.11300417
161	0x3e0445ed	0.129173
162	0x3d214464	0.039371863
163	0xbe16207c	-0.1466083
164	0x3e01960d	0.12654896
165	0xbd835a0b	-0.06413659
166	0xbda8c4ee	-0.08240686
167	0xbe0725c2	-0.13197997
168	0x3dc5ac8e	0.09652053
169	0x3dbe6996	0.09297483
170	0xbcac3128	-0.021019533
171	0xbe0d856b	-0.13820426
172	0xbd956d2b	-0.07296213
173	0x3bc2ad80	0.005941093
174	0xbded2726	-0.115797326
175	0xbe0c32e2	-0.13691285
176	0x3d3564b0	0.044285476
177	0x3e165f41	0.14684774
178	0xbe215ce4	-0.15758091
179	0x3dcc70da	0.09982462
180	0x3d94e462	0.07270123
181	0x3bb5ab20	0.0055440813
182	0x3d17d2fc	0.037066445
183	0xbd06406c	-0.03277628
184	0x3e1a5a79	0.15073575
185	0xbd88fa3e	-0.06688355
186	0x3c759600	0.014989376
187	0xbc026a10	-0.007959858
188	0xbd577f96	-0.05261191
189	0x3d684d80	0.056714535
190	0xbe11a35f	-0.14222477
191	0x3dcef47a	0.10105224
192	0xbe00565b	-0.12532942
193	0x3dc9f8ca	0.09861906
194	0xbe1f1984	-0.15537077
195	0x3d22b8c4	0.039726987
196	0xbc74d0b0	-0.014942333
197	0x3db26742	0.08711101
198	0x3d54bcb4	0.051937774
199	0x3db59e12	0.0886804
200	0xbd4c1d5c	-0.049832687
201	0x3e24dc0d	0.16099568
202	0x3dc9d752	0.09855522
203	0x3e210c99	0.15727462
204	0xbb6bd140	-0.0035982877
205	0xbdfdce8e	-0.12392913
206	0xbd5f230c	-0.054476783
207	0xbe0aeeb3	-0.13567619
208	0xbdf68fe6	-0.12039165
209	0x3c8d8d88	0.017279401
210	0x3d842562	0.06452443
211	0x3da9d976	0.082934305
212	0xbdbb6c8e	-0.091515645
213	0x3d915f66	0.07098274
214	0xbe0ca7a0	-0.13735819
215	0x3db14d22	0.0865729
216	0x3cf2d280	0.02964139
217	0xbdcc8800	-0.099868774
218	0xbe04467f	-0.12917517
219	0xbde1125b	-0.10989829
220	0xbdc7b883	-0.0975199
221	0x3d685ec4	0.056731
222	0x3e0081e9	0.12549557
223	0xbe05cc32	-0.13066176
224	0xbdc5fbd3	-0.09667172
225	0x3db5908e	0.08865462
226	0xbd9fe988	-0.078082144
227	0x3e177105	0.14789207
228	0x3dbf8cca	0.09353025
229	0xbd3a8da0	-0.04554522
230	0xbde900b3	-0.113770865
231	0xbe25e23e	-0.16199586
232	0xbe0e880e	-0.13919088
233	0x3ddb994a	0.10722597
234	0x3e20e365	0.15711744
235	0xbd0f3ab0	-0.034968078
236	0x3dbedaea	0.09319098
237	0xbd856f6b	-0.06515392
238	0x3db7521a	0.089512065
239	0xbdc1f68e	-0.09470855
240	0xbe0ce474	-0.13759023
241	0x3ce5cc78	0.0280516
242	0x3dfb6f52	0.12277092
243	0xbd4eef96	-0.050521456
244	0x3dd47d4a	0.103754595
245	0xbd849b43	-0.06474926
246	0x3e24ca0d	0.16092701
247	0xbdb6b65e	-0.089215025
248	0xbe23956a	-0.15974966
249	0xbce25760	-0.027629554
250	0xbe1f9d2a	-0.15587297
251	0x3da7cd2a	0.08193429
252	0x3e12df85	0.14343078
253	0x3d8b11ae	0.067904815
254	0x3d82ced8	0.063871086
255	0x3c896398	0.016771123

bias f4 [8]
0	0xbd3aa48c	-0.04556708
1	0x3ddb7a2a	0.1071666
2	0x3d8c25c8	0.06843144
3	0x3dbb0a6a	0.09132846
4	0xbe0580a7	-0.13037358
5	0xbe2a4c10	-0.16630578
6	0xbcf59c78	-0.029981837
7	0xbe12dcf8	-0.14342105

weight f4 [8, 8, 3, 3]
0	0xbdeb3108	-0.11483961
1	0x3a91eec0	0.0011133775
2	0x3c1e3078	0.009655111
3	0xbdb6ec46	-0.08931784
4	0x3cca7c04	0.024717338
5	0xbdbfbef3	-0.093625925
6	0x3da40245	0.080082454
7	0xbd878d02	-0.06618692
8	0xbdec8f25	-0.1155074
9	0x3d1dec0a	0.038555183
10	0xbd3cc24a	-0.046083726
11	0xbd8f2d98	-0.06991118
12	0x3c962004	0.018325813
13	0xbd3ceb4a	-0.046122827
14	0x3de4af7d	0.11166284
15	0x3dae781b	0.08519002
16	0xbbf3e880	-0.0074434876
17	0x3c859f34	0.016311266
18	0xbdab59a0	-0.08366704
19	0xbcd74924	-0.026279993
20	0x3cb7dc84	0.022444017
21	0xbd8019f8	-0.06254953
22	0xbdf139af	-0.117785804
23	0xbde05fc4	-0.10955766
24	0x3dd90f9f	0.105986826
25	0x3be718b0	0.0070525035
26	0xbdd9e941	-0.10640193
27	0xbd814508	-0.06311995
28	0xbd77006c	-0.060303137
29	0xbd42c9d2	-0.047555752
30	0x3dc3a04b	0.09552058
31	0x3c806fc4	0.015678294
32	0xbc9dabf4	-0.019247033
33	0x3d8a5607	0.0675469
34	0x3cfab0ec	0.030601941
35	0xb9ebfb00	-0.00045009702
36	0xbddb491d	-0.107073046
37	0x3dd51c35	0.10405771
38	0x3d1effb2	0.03881807
39	0x3c794fc8	0.015216775
40	0xbd073e8a	-0.033018626
41	0x3d5bc576	0.05365511
42	0x3b13b940	0.0022540838
43	0xbbf188a0	-0.0073710233
44	0xbd96fa8a	-0.07372005
45	0x3ddd014b	0.10791262
46	0x3ccaf48c	0.024774812
47	0xbd441bfe	-0.047878258
48	0x3cec8004	0.028869636
49	0xbd746bf4	-0.059673265
50	0xbcce4294	-0.025178231
51	0xbcbdb3b0	-0.02315697
52	0xbd64dc92	-0.055874415
53	0xbdb14fe7	-0.08657818
54	0xbd72bf6e	-0.059264593
55	0x3b0ef320	0.0021812394
56	0x3d986607	0.07441335
57	0x3c82855c	0.015932731
58	0x3d9a7b1b	0.07543012
59	0x3d4db92e	0.05022543
60	0xbdbf19e6	-0.093311116
61	0x3d4fa3ea	0.05069343
62	0x3c908cac	0.017645203
63	0x3da0587d	0.07829378
64	0x3c9b6a6c	0.018971644
65	0xbde8d30e	-0.113683805
66	0x3ce8c18c	0.028412603
67	0x3d43ccca	0.047802724
68	0x3c1dc3b8	0.0096291825
69	0xbde6682e	-0.112503394
70	0xbd8f836e	-0.0700749
71	0xbc9a14b0	-0.018808693
72	0xbb763220	-0.0037566498
73	0x3dae000b	0.08496102
74	0x3d802a4b	0.06258067
75	0xbdb07d88	-0.08617693
76	0xbd9e0abe	-0.07716893
77	0xbdd30c2e	-0.103050575
78	0xbc70ae38	-0.0146899745
79	0x3d87722d	0.06613574
80	0xbdb39a94	-0.08769718
81	0x3b0eaf00	0.0021771789
82	0x3d056412	0.032566138
83	0x3df018f3	0.11723509
84	0x3da86a2b	0.08223375
85	0x3da9bd0f	0.08288013
86	0x3db5d64d	0.08878765
87	0x3d7d121a	0.06178484
88	0xbd63399c	-0.055474862
89	0x3dac6399	0.08417434
90	0xbd720d1f	-0.059094545
91	0xbd572462	-0.05252493
92	0xbd40265a	-0.046911575
93	0x3d596c62	0.053081878
94	0x3d348ec2	0.044081457
95	0x3da7d7d3	0.08195462
96	0xbd64c745	-0.0558541
97	0xbd1e08c2	-0.03858257
98	0x3be81410	0.0070824698
99	0x3d71f816	0.059074484
100	0xbd0f7f92	-0.03503377
101	0xbd1862e0	-0.03720367
102	0xbdbd3e71	-0.092404254
103	0x3dc6a80d	0.09700022
104	0x3d7a701e	0.06114208
105	0xbdd679b9	-0.104724355
106	0xbd2e92ea	-0.042620577
107	0x3c93eef4	0.018058278
108	0xbdbe7c4f	-0.09301054
109	0xbdda9de7	-0.10674649
110	0xbdee4941	-0.11635066
111	0x3da3a031	0.079895385
112	0xbd2d5790	-0.042319834
113	0x3d5a2ee2	0.053267367
114	0x3dc0a6e3	0.09406831
115	0x3dcb08db	0.099137984
116	0xbde2cc15	-0.11074082
117	0xbc599528	-0.0132801905
118	0x3cbe3a04	0.023221023
119	0x3cb56db4	0.022147037
120	0xbde5c687	-0.11219507
121	0x3db3a329	0.08771355
122	0xbd797c73	-0.0609097
123	0xbcbe9da4	-0.023268528
124	0x3dbd3c19	0.09239978
125	0xbbfa4d30	-0.007638596
126	0x3b014320	0.0019723848
127	0x3dbfd149	0.0936609
128	0xbd09ddc6	-0.033658765
129	0x3c82d5f4	0.015971161
130	0x3dc6590f	0.09684955
131	0x3d0d8a1a	0.034555532
132	0x3da54817	0.08070391
133	0xbd97def1	-0.074155696
134	0xbbcef580	-0.006315887
135	0xbdca65d7	-0.09882706
136	0xbc242fc8	-0.010021158
137	0xbd41eba8	-0.04734388
138	0x3dbb3b0b	0.09142121
139	0xbcc9f1a4	-0.024651356
140	0xbbf2ffc0	-0.0074157417
141	0x3dba78a7	0.09105044
142	0x3d890ad3	0.06691518
143	0x3cb53cec	0.022123776
144	0xbcba7be8	-0.022764161
145	0x3aa32140	0.0012445822
146	0xbc8a7028	-0.016899183
147	0x3d29b92e	0.041436367
148	0xbd16aefa	-0.036787964
149	0x3c783408	0.015149124
150	0x3d877f15	0.06616036
151	0xbd6a906c	-0.057266638
152	0x3d0c1d1a	0.03420744
153	0x3d4f701e	0.050644033
154	0xbd78582d	-0.060630966
155	0xbc843350	-0.016137749
156	0x3bcb7e50	0.006210126
157	0xbde7528d	-0.11295042
158	0x3de62885	0.11238197
159	0x3ded654f	0.11591589
160	0xbda28798	-0.07936019
161	0x3dc698ff	0.096971504
162	0xbdb912a7	-0.09036761
163	0xbc7a7980	-0.015287757
164	0xbc89dac8	-0.016827956
165	0x3ba06e80	0.004895985
166	0x3d537a7a	0.051630475
167	0x3cec0e5c	0.02881544
168	0xbdbb2547	-0.091379695
169	0x3c87df64	0.016586013
170	0xbd9ae9b0	-0.075641036
171	0x3d6d9a3a	0.05800841
172	0xbdd4ddde	-0.1039388
173	0x3cd16bbc	0.025564067
174	0xbdec675b	-0.11543151
175	0x3cf9e84c	0.030506276
176	0xbddb7085	-0.10714821
177	0x3d18e36e	0.03732627
178	0x3aad1b40	0.0013206974
179	0x3dc8fe6f	0.09814154
180	0xbde02197	-0.10943907
181	0x3d80a0d3	0.06280675
182	0x3d286d0a	0.041119613
183	0xbcf5a110	-0.029984027
184	0xbc35ff60	-0.011108249
185	0x3d9a09ef	0.07521426
186	0xbde10a79	-0.109883256
187	0xbd4c23d2	-0.04983885
188	0x3ca797fc	0.020458214
189	0xbd5efbac	-0.05443923
190	0xbcb13534	-0.021631815
191	0xbdbe3b03	-0.09288599
192	0x3d8164c7	0.0631805
193	0x3ddb4a49	0.10707528
194	0x3c648b88	0.0139492825
195	0x3d64427e	0.055727474
196	0xbd47e308	-0.0488005
197	0xbdd0707d	-0.101777054
198	0xbd779c1a	-0.060451604
199	0x3d79016e	0.06079238
200	0x3d1dafd6	0.03849777
201	0x3b4379c0	0.0029827207
202	0x3dbec601	0.0931511
203	0xbd10c4a6	-0.03534379
204	0xbd0a915a	-0.033830024
205	0xbbb753e0	-0.0055947155
206	0x3dd21033	0.10256996
207	0xba2a9080	-0.00065065175
208	0x3c9ee1c4	0.019394763
209	0xbda39e26	-0.07989149
210	0xbd41ee7c	-0.047346577
211	0x3dba8353	0.09107079
212	0xbde9af52	-0.11410393
213	0xbde6f284	-0.11276725
214	0x3d98d711	0.07462896
215	0x3d7d306e	0.061813764
216	0xbd98ba2a	-0.07457383
217	0x3de73737	0.11289828
218	0x3d25de02	0.040494926
219	0xbd186c3e	-0.037212603
220	0x3d125da6	0.03573384
221	0x3d183ade	0.037165515
222	0x3b72e420	0.0037062243
223	0xbcfc2398	-0.030778691
224	0x3d58a08a	0.052887477
225	0x3d90f5ef	0.07078158
226	0xbd347fc8	-0.044067174
227	0xb9e6ae00	-0.0004399866
228	0xbd1eac2e	-0.038738422
229	0x3d476662	0.048681624
230	0xbd6fdc1b	-0.05855952
231	0x3decba37	0.11558955
232	0xbcfc8da0	-0.03082925
233	0xbb178500	-0.0023120046
234	0x3ba0d490	0.004908152
235	0xbc7b6b80	-0.015345454
236	0xbc15fcf8	-0.009154551
237	0x3cdc1d74	0.026869513
238	0x3d00d43a	0.031452395
239	0x3c98d6cc	0.01865711
240	0x3dc4cdff	0.09609603
241	0x3b60bbe0	0.003429167
242	0x3da12525	0.07868413
243	0x3da7bf75	0.081908144
244	0xbc636948	-0.0138800815
245	0xbdc3ecb6	-0.095666334
246	0x3dc1f1cf	0.094699495
247	0x3dc71e7d	0.09722612
248	0x3dc9b71d	0.09849379
249	0xbcff0b3c	-0.031133287
250	0xbd72484c	-0.05915098
251	0xbcb3e3f4	-0.021959282
252	0xbc78bec0	-0.015182197
253	0x3c314fd8	0.010822259
254	0xbca69f40	-0.020339608
255	0xbd249a92	-0.040186472

bias f4 [8]
0	0x3c312018	0.010810874
1	0xbdef7145	-0.11691526
2	0xbd993c0a	-0.07482155
3	0xbc64d928	-0.01396779
4	0x3d7bd612	0.06148345
5	0xbdebecd4	-0.11519781
6	0x3dc6ada7	0.0970109
7	0xbd1bc1a2	-0.03802646

weight f4 [8, 8, 3, 3]
0	0x3db37863	0.08763196
1	0x3d9cee97	0.07662695
2	0xbdc2bc13	-0.095085286
3	0x3d441526	0.04787173
4	0x3db56c11	0.08858503
5	0x3d845361	0.06461216
6	0x3d3fd87a	0.046837308
7	0x3dd3ba85	0.1033831
8	0x3d453712	0.048148222
9	0x3c1443c8	0.009049363
10	0xbbed1610	-0.007235296
11	0x3de38cdb	0.111108504
12	0xbd2cf460	-0.04222524
13	0x3c74cf68	0.014942028
14	0x3ccb944c	0.024850987
15	0x3c7da058	0.015480123
16	0x3ddc8395	0.10767285
17	0xbd31c43e	-0.04340004
18	0x3d9432d3	0.072362565
19	0xbdd81245	-0.1055036
20	0x3da630a9	0.0811475
21	0xbd875de6	-0.066097066
22	0xbc3688c0	-0.011141002
23	0xbd25c3a4	-0.04046978
24	0x3cda0a2c	0.026616178
25	0xbd7d83a5	-0.061893124
26	0xbddda384	-0.10822204
27	0x3de46553	0.111521386
28	0x3da168a1	0.078812845
29	0xbdd0e88c	-0.10200605
30	0x3d87aca7	0.06624728
31	0xbd7a98d6	-0.061180912
32	0xbdc3709c	-0.09542963
33	0x3c647918	0.013944887
34	0x3d8811c3	0.06644013
35	0x3deb6067	0.11492997
36	0xbdef1b8c	-0.11675176
37	0x3d6030ae	0.054733925
38	0x3d545a4a	0.05184392
39	0xbcc3055c	-0.023806266
40	0xbb25cb60	-0.0025298223
41	0xbdd1e01e	-0.10247825
42	0x3c97e194	0.018540181
43	0xbd06553a	-0.032796122
44	0x3dac5563	0.08414724
45	0xbd96edd9	-0.073695846
46	0xbc538850	-0.012910917
47	0x3c83553c	0.016031854
48	0x3c97995c	0.018505745
49	0xbb652280	-0.003496319
50	0xbd8b45bf	-0.068004124
51	0x3d7efc1e	0.062252156
52	0xbd18ad26	-0.037274502
53	0x3ccd7954	0.025082268
54	0x3de76845	0.11299185
55	0xbdd3993a	-0.1033196
56	0x3dd7862b	0.105236374
57	0xbde95fa9	-0.11395199
58	0xbd6a1754	-0.057151154
59	0x3cb7704c	0.022392415
60	0xbd082150	-0.033234894
61	0xbd9ce42c	-0.07660708
62	0x3d104f3a	0.035231806
63	0x3dc021e7	0.09381466
64	0xbdadd761	-0.08488346
65	0xbcef8100	-0.029236317
66	0x3d8b42f9	0.067998834
67	0x3d83a993	0.06428828
68	0x3c2e3a78	0.010634057
69	0xbd61a7fc	-0.055091843
70	0x3c21b188	0.009868987
71	0x3d09db76	0.03365656
72	0xbd1aaed6	-0.037764393
73	0x3dc68859	0.09693975
74	0xbd54438a	-0.051822223
75	0xbd72ce44	-0.05927874
76	0xbd307db2	-0.043088622
77	0xbd5326ce	-0.05155068
78	0x3d6178e6	0.05504694
79	0x3d8727d1	0.06599391
80	0x3dcd270b	0.100172125
81	0xbdb29616	-0.08720033
82	0xbd99c6b6	-0.07508604
83	0x3d44ee56	0.048078857
84	0xbd3a2bfc	-0.045452103
85	0x3cb1a51c	0.021685176
86	0x3db3969f	0.08768963
87	0xbd419fec	-0.047271654
88	0xbc3f4af8	-0.011675589
89	0x3db3ff95	0.08788983
90	0x3c622bb8	0.013804369
91	0x3cb0b4a4	0.021570511
92	0xbd295e1c	-0.041349515
93	0xbcf23878	-0.029567942
94	0x3da754e1	0.08170486
95	0xbda25bcc	-0.07927665
96	0xbd9a1e8c	-0.075253576
97	0x3dc65cfb	0.09685703
98	0xbdb852bf	-0.090001576
99	0xbd56df72	-0.052459188
100	0xbdd7d004	-0.10537723
101	0xbd688d0b	-0.056775134
102	0x3c0eb258	0.008709513
103	0xbd92f13a	-0.071749166
104	0xbd6703a4	-0.056399956
105	0x3dcfbb23	0.10143115
106	0xbdbae5fc	-0.09125897
107	0xbd7ddc94	-0.061977938
108	0x3d30a976	0.04313036
109	0x3d01078a	0.03150133
110	0xbd537a1a	-0.051630117
111	0x3db4d901	0.08830453
112	0xbde5a00c	-0.11212167
113	0x3d39fc72	0.045406766
114	0x3d0d46c6	0.034491323
115	0xbd84062c	-0.0644649
116	0xbd932c42	-0.07186176
117	0xbce17620	-0.027522147
118	0x3ca04acc	0.019566916
119	0x3d8c29f1	0.06843937
120	0x3db03d9d	0.08605502
121	0x3d22cd2a	0.03974644
122	0x3dc4dbab	0.09612211
123	0xbda914bf	-0.0825591
124	0xbdc9dc5a	-0.09856482
125	0x3db459e3	0.08806207
126	0xbd1407ee	-0.036140375
127	0x3ca0ad9c	0.019614033
128	0xbdc13754	-0.09434381
129	0x3dcbad4b	0.099451624
130	0x3bca49d0	0.00617335
131	0xbcb99904	-0.022655971
132	0xbd512c26	-0.051067494
133	0xbda62d04	-0.08114055
134	0x3da2ea77	0.07954877
135	0xba7f0d80	-0.00097294897
136	0xbd074318	-0.03302297
137	0xbcb754f4	-0.022379376
138	0xbdbedd5c	-0.09319565
139	0xbd777c48	-0.06042126
140	0x3cb1b38c	0.02169206
141	0xbd5f7d74	-0.054563
142	0xbd0eeaf2	-0.03489203
143	0xbdbe94b4	-0.093057066
144	0x3dbc1cb1	0.0918516
145	0x3d8dafd5	0.06918303
146	0xbdd40595	-0.10352627
147	0xbdb2f92d	-0.08738933
148	0x3b787320	0.0037910417
149	0x3c9517ec	0.018199883
150	0xbd20b536	-0.039235316
151	0xbde44efb	-0.11147877
152	0xbd7a2bc4	-0.061076894
153	0x3aba6f00	0.0014223754
154	0xbdb59b2c	-0.08867487
155	0xbdc32bf6	-0.09529869
156	0x3d9291db	0.07156726
157	0xbda4f9cc	-0.080554575
158	0x3d295ea6	0.04135003
159	0x3dd53029	0.104095764
160	0x3d996adb	0.07491084
161	0xbcd564cc	-0.02604904
162	0x3d43c4c2	0.047795065
163	0xbdaaa660	-0.08332515
164	0x3dda9c67	0.10674363
165	0x3dd3bcad	0.103387214
166	0x3c106358	0.008812748
167	0x3d86ed8d	0.06588278
168	0x3dbbc829	0.09169037
169	0x3d49b34a	0.04924325
170	0x3dc9dc25	0.09856442
171	0xbcd0d970	-0.025494307
172	0xbdd7de00	-0.1054039
173	0x3c3410f8	0.010990374
174	0x3d4f961e	0.050680272
175	0xbc793f08	-0.015212782
176	0xbde4fab6	-0.11180632
177	0xbc1f7ca0	-0.009734303
178	0x3dd1ba81	0.10240651
179	0x3a2a1780	0.0006488487
180	0x3cb1919c	0.021675877
181	0x3dcdb8f1	0.100450404
182	0xbd99aeba	-0.075040296
183	0x3d68c146	0.056824945
184	0x3dd6ce93	0.1048862
185	0xbccad500	-0.02475977
186	0xbcddd418	-0.027078673
187	0xbd2d24fa	-0.04227159
188	0xbd20f186	-0.039292835
189	0xbd7ab8a8	-0.06121126
190	0xbdbd2a50	-0.09236586
191	0x3c6bcf28	0.014392652
192	0x3bf9d010	0.00762368
193	0xbcdb88bc	-0.026798598
194	0xbda85ddf	-0.082210295
195	0xbdd454c9	-0.10367734
196	0xbde4b7c7	-0.11167865
197	0x3d67c91e	0.056588285
198	0x3db38217	0.08765047
199	0xbdcc42ce	-0.099736795
200	0xbca886a4	-0.020572014
201	0x3d748742	0.059699304
202	0xbd645f8f	-0.055755194
203	0xbda5a0d7	-0.080873184
204	0xbd17b09c	-0.037033662
205	0x3cb5f354	0.022210754
206	0xbce31c08	-0.027723327
207	0xbd9b3a3b	-0.07579466
208	0x3b7bf920	0.003844805
209	0xbd733694	-0.05937822
210	0x3c50fbf8	0.0127553865
211	0x3cf5216c	0.029923163
212	0x3d401e0a	0.046903647
213	0x3d4268b6	0.04746314
214	0x3ddd48e1	0.10804916
215	0xbd404370	-0.046939313
216	0xbde0e875	-0.10981838
217	0x3d0c337a	0.03422878
218	0x3dab408d	0.083619215
219	0xbc5bafc0	-0.013408601
220	0x3d8edb23	0.06975391
221	0x3da4b361	0.08042026
222	0x3dd65d55	0.104670204
223	0x3cbc48dc	0.02298396
224	0x3d980c85	0.07424263
225	0x3da31867	0.07963639
226	0xbcdad588	-0.026713148
227	0x3d4e5f9a	0.05038414
228	0xbba35ca0	-0.004985407
229	0xbdd3bcc4	-0.103387386
230	0x3ccbc284	0.024873026
231	0xbdbfea02	-0.09370805
232	0x3d9c7af7	0.07640641
233	0x3de73301	0.11289025
234	0x3d959cb9	0.07305283
235	0xbd947301	-0.07248498
236	0xbd917738	-0.07102817
237	0xbdb9975a	-0.09062071
238	0x3def2e43	0.116787456
239	0xbca4c874	-0.020115115
240	0xbd5877fc	-0.0528488
241	0x3ad28c80	0.0016063601
242	0xbd66f69f	-0.05638754
243	0x3b90a930	0.0044147
244	0x3dc62041	0.09674121
245	0xbd9207cb	-0.07130393
246	0xbda4b3d0	-0.08042109
247	0x3cd2c064	0.025726505
248	0xbd18502e	-0.03718584
249	0x3d05867e	0.032598965
250	0xbd952d90	-0.07284081
251	0xbded946f	-0.11600577
252	0xbd94ff98	-0.07275313
253	0x3d52dfd6	0.051482998
254	0x3d52372a	0.05132214
255	0xbdbca57a	-0.0921125

bias f4 [8]
0	0x3d19f462	0.037586577
1	0x3c86642c	0.016405188
2	0x3da5a6b7	0.08088439
3	0xbd0dcc88	-0.034618884
4	0xbc25d2f8	-0.0101211
5	0x3cdb292c	0.02675303
6	0xbd5aed64	-0.05344905
7	0xbc7c7040	-0.015407622

weight f4 [128, 128]
0	0xbd7b7610	-0.06139189
1	0xbd4ef31d	-0.05052482
2	0xbd8c93bf	-0.06864118
3	0xbcc9d0e8	-0.024635747
4	0xbbf6b210	-0.007528551
5	0xbda83054	-0.08212343
6	0xba6a6500	-0.0008941442
7	0xbcb16d90	-0.021658689
8	0x3b649b60	0.003488265
9	0xbd84f2c4	-0.06491616
10	0x3d3db6c2	0.04631687
11	0xbd81bdae	-0.06335007
12	0x3d3285ea	0.04358474
13	0xbd09462b	-0.033514183
14	0x3d85fb77	0.06542104
15	0x3d9dfbfd	0.077140786
16	0x3d0b2cb0	0.033978164
17	0xbd41af85	-0.04728653
18	0x3db24bdb	0.087058745
19	0xbd6fe858	-0.05857119
20	0xbd30c19e	-0.043153398
21	0x3c2dea80	0.010614991
22	0x3d5d2d86	0.053998493
23	0xbdaccb53	-0.084372185
24	0xbb1b58a0	-0.0023703948
25	0x3d8d1ba5	0.068900384
26	0xbd2fe2f8	-0.042941064
27	0x3d513de2	0.051084407
28	0xbd76f3ec	-0.060291216
29	0x3b105960	0.0022025928
30	0x3d91b291	0.07114137
31	0x3ca594e4	0.020212598
32	0xbd9b4af2	-0.07582654
33	0x3d71c9e6	0.059030436
34	0x3d31dcbe	0.043423407
35	0x3d9f552b	0.077799164
36	0x3d92f4ef	0.071756236
37	0xbc32f928	-0.010923661
38	0xbd60946f	-0.054829057
39	0xbd61c702	-0.05512143
40	0x3c56d128	0.01311139
41	0xbd085a45	-0.033289213
42	0x3cd85614	0.026408233
43	0xbcef029c	-0.029176049
44	0x3d000480	0.03125429
45	0xbcd82b42	-0.026387814
46	0xbb79b0a0	-0.0038099661
47	0x3d8f39d7	0.06993454
48	0x3c9fbca0	0.019499123
49	0x3d3b7ff2	0.045776315
50	0xbda35f7e	-0.07977198
51	0x3d6fd326	0.058550976
52	0xbd80b1d0	-0.06283915
53	0x3cdadbcc	0.026716135
54	0xbb907d30	-0.0044094548
55	0x3d48bf4a	0.049010552
56	0xbd979e02	-0.074031845
57	0x3d789306	0.060687087
58	0xbd1d94fc	-0.03847216
59	0xbc9b7c10	-0.018980056
60	0xbcbddf44	-0.02317775
61	0x3be1b5f0	0.0068881437
62	0x3cd5eaa4	0.026112862
63	0x3d9ad1df	0.07559561
64	0x3c2badc0	0.010478437
65	0xbc6c9858	-0.014440618
66	0x3da3c261	0.07996059
67	0xbc825f64	-0.015914626
68	0x3cee27d8	0.029071733
69	0xbd3a3351	-0.045459095
70	0x3d97b6fb	0.07407948
71	0xbd59aa25	-0.053140778
72	0xbd660900	-0.056160927
73	0xbb82bf40	-0.003990084
74	0x3b6d14c0	0.0036175698
75	0xbdb3326a	-0.0874985
76	0xbc1a4c90	-0.009417668
77	0xbd1ea992	-0.038735934
78	0x3d4b96f2	0.0497045
79	0x3d034eb4	0.03205748
80	0xbd2b4f01	-0.04182339
81	0x3d7729ae	0.060342483
82	0x3d303376	0.043017827
83	0x3d756fe2	0.059921153
84	0x3d2c4972	0.04206223
85	0xbd2595a6	-0.04042592
86	0xbd05cbb6	-0.032664977
87	0xbdafb043	-0.08578541
88	0x3d3c40a2	0.045960076
89	0xbc6a9340	-0.014317334
90	0x3d18887e	0.037239544
91	0x3d12515c	0.03572212
92	0x3b6691e0	0.0035182163
93	0x3d172732	0.036902614
94	0x3b3887e0	0.002815716
95	0x3d76b97e	0.060235493
96	0x3d1f425e	0.038881652
97	0x3cdae4f4	0.026720501
98	0x3daf6a59	0.08565206
99	0x3d2f2512	0.042759962
100	0xba840300	-0.0010071695
101	0x3db3cc79	0.087792344
102	0x3daf6623	0.08564403
103	0xbd264048	-0.040588647
104	0x3d9cf891	0.07664598
105	0x3dab23db	0.08356448
106	0xbd02a50c	-0.031895682
107	0x3da3087d	0.079606034
108	0x3da378bf	0.07982015
109	0xbd6dfc4c	-0.058101937
110	0x3a91b5c0	0.0011116788
111	0x3db39091	0.08767808
112	0xbd0d8410	-0.034549773
113	0x3d42675e	0.04746186
114	0xbd14f9d9	-0.036371086
115	0xbd29dfa1	-0.041473035
116	0xbd89b34d	-0.06723652
117	0xbd3b2e3d	-0.045698393
118	0xbcf2fc34	-0.029661275
119	0xbd804486	-0.0626307
120	0xbc815d84	-0.015791662
121	0xbdb455cc	-0.08805427
122	0xbd077f55	-0.033080418
123	0x3d8cdd67	0.06878167
124	0xbd7aedd2	-0.06126196
125	0xbd73b2a0	-0.059496522
126	0xbd3656fe	-0.044516556
127	0xbcdb2876	-0.026752692
128	0x3d5bca96	0.053659998
129	0xbcd09ff8	-0.025466904
130	0x3d3ce06e	0.04611247
131	0x3d4b8f96	0.04969748
132	0x3d5b7ba6	0.053584717
133	0xbd0ff492	-0.03514535
134	0xbd8cafe0	-0.06869483
135	0xbc9cc4c4	-0.019136794
136	0xbd4e9c89	-0.050442252
137	0xbd405277	-0.046953645
138	0xbd838158	-0.06421155
139	0x3d645d7a	0.05575321
140	0xbc3f1278	-0.011662118
141	0x3d85e9a3	0.06538703
142	0x3d46de5a	0.048551895
143	0xbd7c64c4	-0.061619535
144	0xbd4eea02	-0.050516136
145	0x3c0ec450	0.008713797
146	0xbd63953f	-0.055562254
147	0x3d355626	0.04427161
148	0xbc216608	-0.009850986
149	0x3d63822e	0.05554407
150	0xbd99b271	-0.07504738
151	0x3c215168	0.009846069
152	0xbd624d4a	-0.05524949
153	0xbc3bde38	-0.011466555
154	0xbc198110	-0.00936915
155	0xbd6700bb	-0.05639718
156	0x3d878c47	0.06618553
157	0xbd420651	-0.047369305
158	0xbda06985	-0.07832626
159	0xbd63e518	-0.055638403
160	0x3cf6b080	0.030113459
161	0xbccbd110	-0.024879962
162	0xbc229c90	-0.009925023
163	0xbda74b2d	-0.081686355
164	0xbd09567a	-0.033529736
165	0xbc24ac28	-0.010050811
166	0x3cc5c90c	0.024143718
167	0xbdab79a6	-0.08372812
168	0x3d98afaf	0.07455384
169	0xbc37faa0	-0.011229187
170	0x3d127b74	0.035762265
171	0x3d0cb904	0.034356132
172	0x3c8aa89c	0.016926102
173	0xbd8fd964	-0.07023886
174	0xbd6a5970	-0.0572142
175	0x3d032166	0.032014273
176	0x3ce8b054	0.028404392
177	0xba9a4f40	-0.0011772886
178	0xbd8b264b	-0.06794413
179	0x3d243aee	0.040095262
180	0xbd6035e1	-0.054738883
181	0xbd8df16a	-0.06930812
182	0x3d5708d6	0.05249866
183	0x3d6da7ee	0.05802148
184	0xbd12a151	-0.035798375
185	0xbd5832c6	-0.052782796
186	0xbc4cb700	-0.0124948025
187	0x3d7a6926	0.061135434
188	0xbccfb0b0	-0.025352806
189	0xbd482db5	-0.048871715
190	0xbda778ce	-0.081773385
191	0x3c654460	0.013993353
192	0xbb95c370	-0.004570417
193	0xbcd8db0a	-0.026471633
194	0x3bdc8160	0.00672929
195	0xbd86b1a7	-0.06576853
196	0xbd8a0044	-0.06738332
197	0x3da1cf1b	0.0790083
198	0xbcdf69a6	-0.027272057
199	0x3d8fab7d	0.07015131
200	0x3da0422f	0.078251235
201	0xbd1ef4b9	-0.038807604
202	0x3d45ff8a	0.048339404
203	0x3d8e27ab	0.0694116
204	0xbd34f288	-0.04417661
205	0x3d9292e3	0.07156923
206	0x3d1d5d7e	0.03841924
207	0xbbf415e0	-0.0074488968
208	0x3d10c3b6	0.035342894
209	0x3dafba5b	0.08580466
210	0xbd873f70	-0.066038966
211	0x3ce4fab4	0.027951576
212	0xbd6497e7	-0.055808928
213	0xbb8a87d0	-0.004227616
214	0x3ca6602c	0.02030953
215	0x3b8e56d0	0.004343845
216	0xbd838368	-0.06421548
217	0x3d85fd8b	0.065425
218	0x3d82f4c7	0.06394344
219	0xbd930c90	-0.071801305
220	0x3bad9720	0.0052975565
221	0xbab96b00	-0.0014146268
222	0x3d21b726	0.039481305
223	0x3d25c2f6	0.040469132
224	0x3d6aa456	0.05728563
225	0xbc7b3130	-0.015331551
226	0x3d9f1d2f	0.07769238
227	0xbdb2dc15	-0.087333836
228	0xbd05123a	-0.032488085
229	0xbd55a135	-0.052155692
230	0x3d5c1a8e	0.053736262
231	0x3cc4a30c	0.024003528
232	0x3c963f94	0.018340863
233	0xbcb56a80	-0.02214551
234	0xbad32d80	-0.0016111583
235	0x3d8ae0bf	0.06781148
236	0xbd7e7064	-0.062118903
237	0xbd863b2e	-0.065542564
238	0x3b8fc200	0.0043871403
239	0x3cd437b4	0.025905468
240	0xbcbc0210	-0.022950202
241	0xbd9a04d9	-0.07520456
242	0x3d800275	0.06250469
243	0xbccdbe00	-0.025115013
244	0xbd007c4f	-0.03136855
245	0xbda4c0ac	-0.08044562
246	0xbdada851	-0.084793694
247	0x3ccb04cc	0.02478256
248	0x3da880bb	0.082276784
249	0x3d61bf7a	0.055114247
250	0x3ce2d6cc	0.027690314
251	0xbd39ff93	-0.04540975
252	0xbd9e6b1d	-0.07735274
253	0xbc863bc8	-0.016385928
254	0xbd26967b	-0.040670853
255	0x3d890749	0.06690843

bias f4 [128]
0	0xbd1f6cc7	-0.038922098
1	0xbd66f81d	-0.056388963
2	0xbda9b126	-0.082857415
3	0x3d62d7fa	0.055381753
4	0x3d7d6ece	0.06187325
5	0xba88e8c0	-0.0010445341
6	0x3d1142e0	0.035464168
7	0xbc231420	-0.009953529
8	0xbd5263ce	-0.051364712
9	0xbb984a00	-0.0046474934
10	0x3c2e5d90	0.010642424
11	0x3d78bdda	0.06072793
12	0xbd55a398	-0.05215797
13	0xbd1e4cd5	-0.03864749
14	0xbc8cb9e0	-0.017178476
15	0xbb9bc940	-0.0047542155
16	0xbd16affd	-0.03678893
17	0xbd50a8a5	-0.050942082
18	0xbd596a38	-0.053079814
19	0x3d83f107	0.06442457
20	0xbce5c014	-0.028045692
21	0xbda93211	-0.082615025
22	0x3ce0efc4	0.02745808
23	0xbcbb6db8	-0.022879466
24	0xbd01e752	-0.031714745
25	0xb825b000	-3.950298e-05
26	0x3abea640	0.0014545396
27	0xbd37b8e9	-0.04485408
28	0x3d70b846	0.058769487
29	0xbadc6a80	-0.0016816407
30	0x3d1aecce	0.03782349
31	0x3da9eeb1	0.0829748
32	0x3c210bb8	0.009829454
33	0xbda49e92	-0.080380574
34	0x3b72e4a0	0.003706254
35	0xbd35a74c	-0.044349
36	0x3a813900	0.0009858906
37	0xbd540fae	-0.051772766
38	0xba916580	-0.0011092871
39	0x3cbd9cb8	0.023146018
40	0x3d6a1d9e	0.05715715
41	0xbda0e153	-0.07855477
42	0xbd150cf3	-0.036389302
43	0xbc4f6028	-0.012657203
44	0xbd7f070e	-0.062262587
45	0x3ceeded0	0.02915898
46	0xbcabaaa8	-0.020955399
47	0xbd18436a	-0.037173666
48	0xbc8b33bc	-0.016992442
49	0x3cfc1084	0.030769594
50	0xbd7b35d9	-0.06133065
51	0xbd7a469a	-0.061102487
52	0xbca0ff78	-0.019653067
53	0x3d86ed61	0.06588245
54	0xbdaf5274	-0.085606486
55	0x3d92e3e7	0.07172375
56	0x39073a00	0.0001289621
57	0xbd597bd2	-0.0530966
58	0x3da03eb5	0.078244604
59	0x3d92bd6d	0.07165036
60	0x3d93b907	0.072130255
61	0x3cc88cec	0.02448126
62	0xbc16d290	-0.009205475
63	0xbd954841	-0.07289172
64	0xbba7e2d0	-0.0051234737
65	0xbd49f86e	-0.049309187
66	0xbd893dc5	-0.06701235
67	0xbc691088	-0.014225133
68	0xbd6eb039	-0.058273528
69	0x3c6d2ce8	0.0144760385
70	0x3da96d9d	0.0827286
71	0x3d00f438	0.031482905
72	0x3daadb51	0.083426125
73	0xbda8950c	-0.082315534
74	0x3b85cbe0	0.0040831417
75	0x3ce1ebe0	0.027578294
76	0xbd2e5b60	-0.04256761
77	0x3d59d2e6	0.053179644
78	0x3d87ea99	0.06636543
79	0x3db41b13	0.087942265
80	0xbd607b93	-0.05480535
81	0x3cea47c0	0.028598666
82	0x3dac1ff1	0.0840453
83	0x3c032498	0.00800433
84	0x3d4f432a	0.050601162
85	0xbd857ddd	-0.06518147
86	0xbd236c4b	-0.039898198
87	0x3d1d6506	0.03842642
88	0xbd8c2a12	-0.06843962
89	0x3d539ede	0.05166518
90	0x3c81164c	0.015757702
91	0x3c2619a8	0.010137953
92	0xbbb2d7b0	-0.005457841
93	0x3d9c1751	0.07621635
94	0x3d4aa25a	0.049471237
95	0xbcefdbde	-0.029279646
96	0xbd716d14	-0.058941916
97	0xbdabbb4c	-0.083853334
98	0xbc8d926c	-0.017281733
99	0xbd67af63	-0.056563746
100	0xbd7ea85a	-0.06217227
101	0x3d6b9732	0.057517238
102	0xbc86ae1c	-0.016440444
103	0xbd9f7c54	-0.077873856
104	0x3cc72e0c	0.024313949
105	0x3d2477e2	0.04015339
106	0x3d891891	0.06694139
107	0xbc9cc144	-0.019135125
108	0x3d3cce2e	0.046095066
109	0xbc50d2b0	-0.012745544
110	0xbd479d7b	-0.04873417
111	0x3c4b6f20	0.012416631
112	0x3d095fbc	0.033538565
113	0x3b0c4640	0.0021404177
114	0x3d944f2b	0.072416626
115	0x3d16e96a	0.036843695
116	0x3dacfaa1	0.08446241
117	0x3d08a73a	0.033362605
118	0x3dab6519	0.08368892
119	0xbc79b028	-0.015239753
120	0x3d5f57d2	0.05452711
121	0xbc2c5538	-0.010518365
122	0x3d9bad2d	0.0760139
123	0x3ccd7370	0.025079459
124	0x3d8890c7	0.06668239
125	0xbd9c313c	-0.07626578
126	0x3daedb05	0.085378684
127	0x3d8c69f3	0.06856146

weight f4 [32, 128]
0	0xbd81b422	-0.06333186
1	0x3c877648	0.016535893
2	0xbd100c7e	-0.035168163
3	0x3bc1c640	0.005913526
4	0xbd1a1c75	-0.037624795
5	0x3cb13c9c	0.021635346
6	0xbd73be8f	-0.059507903
7	0x3d5fe502	0.05466176
8	0x3c3ac538	0.01139956
9	0x3d88a479	0.06671996
10	0xbd1841cd	-0.037172128
11	0x3d8cf53f	0.068827145
12	0x3c83e148	0.016098633
13	0x3db37af9	0.087636895
14	0xbd4660af	-0.04843205
15	0x3d2290ca	0.039688863
16	0xbc744960	-0.014910072
17	0xbd624ba2	-0.05524791
18	0xbd214651	-0.0393737
19	0xbd4b8b8f	-0.04969364
20	0x3d7d811a	0.0618907
21	0x3d3faba6	0.046794556
22	0x3d958e21	0.073024996
23	0x3d555286	0.052080654
24	0x3d36d132	0.044633098
25	0xbd93479e	-0.07191394
26	0xbd155a56	-0.036463104
27	0x3d64fd9a	0.055905916
28	0x3cb8eec8	0.022574797
29	0x3ca7e674	0.02049563
30	0xbcd05af8	-0.025434002
31	0xbc9f7ac0	-0.019467711
32	0x3cf1c444	0.029512532
33	0xbcc354dc	-0.023844175
34	0x3c006508	0.007836588
35	0xbb280660	-0.0025638565
36	0x3cad9670	0.021189898
37	0xbd7be298	-0.061495394
38	0x3d03b660	0.03215635
39	0xbb878600	-0.004135847
40	0x3ce0c3dc	0.027437143
41	0xbd8cbadc	-0.06871578
42	0xbda4be98	-0.080441654
43	0x3d5d187a	0.05397842
44	0xbd04acf8	-0.03239152
45	0xbcb5d60c	-0.022196792
46	0x3dab71d5	0.08371321
47	0x3daa333b	0.08310553
48	0xbdb23286	-0.08701043
49	0x3c548718	0.012971662
50	0x3d85f9e3	0.06541803
51	0x3d53394a	0.051568307
52	0xbda1a00b	-0.07891854
53	0xbd613911	-0.054986063
54	0xbc98f75c	-0.018672638
55	0x3c99b9c8	0.018765345
56	0x3ce8bc54	0.028410114
57	0x3bd445c0	0.0064780414
58	0x3c521720	0.012822896
59	0xbb3ff3a0	-0.00292895
60	0x3d31be62	0.043394454
61	0x3d937835	0.07200662
62	0xba966800	-0.0011475086
63	0xbd3a2447	-0.045444753
64	0xbb522d00	-0.003207028
65	0x3c53c368	0.012925006
66	0xbd1b2770	-0.037879407
67	0x3b2b2780	0.0026116073
68	0x3cccc9e8	0.02499862
69	0x3d34a36e	0.04410117
70	0x3d90ebbf	0.07076215
71	0xbdaabcd0	-0.083367944
72	0x3bc89750	0.0061215535
73	0x3c7c4720	0.015397817
74	0xbd9089b4	-0.07057515
75	0xbd742144	-0.059602037
76	0xbd421b14	-0.047389105
77	0xbd822c79	-0.06356139
78	0x3d4f4b4a	0.05060891
79	0xbc40adb0	-0.01176016
80	0x3db19fe5	0.086730756
81	0xbdad3cbf	-0.08458852
82	0x3d8076df	0.06272673
83	0x3d92c663	0.071667455
84	0xbcf7cd2e	-0.030249204
85	0xbd3e79b5	-0.046502788
86	0x3d13567e	0.035971157
87	0x3d93cfd7	0.07217377
88	0x3d85910b	0.065218054
89	0xbd2230bf	-0.03959727
90	0x3da1ef57	0.079069786
91	0xbd23557a	-0.03987644
92	0x3cc2faf4	0.023801304
93	0xbcdff410	-0.027338058
94	0xbc6c99b8	-0.014440946
95	0xbbbb2a80	-0.0057118535
96	0x3d8778db	0.06614848
97	0xbca56ad0	-0.020192534
98	0x3d439fe2	0.047759898
99	0xbd435bc0	-0.04769492
100	0x3c394e58	0.0113101825
101	0xbd970286	-0.07373528
102	0xbd0f91fc	-0.03505133
103	0xbda7aac2	-0.08186866
104	0xbda7d815	-0.08195511
105	0x3d3e9b06	0.04653456
106	0x3c2075b0	0.009793684
107	0x3d9abc19	0.07555408
108	0xbdaa338a	-0.083106115
109	0x3d94fa2b	0.07274278
110	0x3d5bdf0a	0.053679504
111	0xbd778b05	-0.060435314
112	0x3db36367	0.08759194
113	0xbd9ad2a6	-0.07559709
114	0xbc932f40	-0.017966866
115	0x3db0a945	0.086260356
116	0xbd4c889b	-0.049934965
117	0xbdb3e2d8	-0.087835014
118	0x3d46da3a	0.04854796
119	0xbc1ebb90	-0.009688273
120	0x3cf6eecc	0.030143164
121	0x3d11d884	0.035606876
122	0x3d85bd85	0.065302886
123	0xbd9f30ba	-0.07772966
124	0x3d509eb2	0.050932594
125	0x3d7cd34a	0.06172494
126	0x3d01445e	0.03155934
127	0x3bafe530	0.0053678975
128	0xbcd11ab8	-0.025525436
129	0xbda85920	-0.08220124
130	0x3d1f9f5e	0.038970344
131	0x3d907d81	0.07055188
132	0x3c86a31c	0.016435198
133	0xbcac8560	-0.021059692
134	0x3daa2b9d	0.083091
135	0x3d401de6	0.046903513
136	0x3d857b07	0.06517606
137	0xbdad374d	-0.084578134
138	0xbdaf2f2d	-0.0855392
139	0x3dae6e07	0.0851708
140	0x3d3f69fe	0.04673194
141	0x3dac4241	0.084110744
142	0x3b5de600	0.0033859015
143	0xbd60596f	-0.05477279
144	0xbd5c665f	-0.053808566
145	0x3cef9640	0.02924645
146	0x3d59e86a	0.053200163
147	0xbd4d5f47	-0.05013969
148	0xbcb6b7a4	-0.022304364
149	0xbcd25ce4	-0.02567906
150	0x3c6850b8	0.014179401
151	0xbd105d72	-0.035245366
152	0x3d654b46	0.05597999
153	0x3ceea66c	0.02913209
154	0xbd306dce	-0.043073468
155	0x3cc3e1e8	0.023911431
156	0x3d26494a	0.040597238
157	0x3d3507c6	0.044196866
158	0x3c4ebc40	0.0126181245
159	0xbd5ba9fb	-0.053628903
160	0xbd6c5e14	-0.057706907
161	0xbd27a23c	-0.040926203
162	0xbcee765c	-0.029109173
163	0xbd9f9294	-0.077916294
164	0xbcb52a90	-0.022115022
165	0xbda69574	-0.08133975
166	0xbd3d7860	-0.046257377
167	0x3991b000	0.00027787685
168	0xbc85713c	-0.016289346
169	0xbccdb8bc	-0.025112502
170	0x39ae3200	0.0003322512
171	0x3d21890e	0.039437346
172	0xbcf45ff2	-0.029830907
173	0xbd2188ee	-0.039437227
174	0x3d334f2e	0.043776684
175	0xbd3b9f58	-0.04580626
176	0xbd808950	-0.0627619
177	0x3d49ca36	0.04926511
178	0xbd11f8df	-0.035637733
179	0x3d9a50cf	0.07534944
180	0xbd7cc746	-0.06171348
181	0x3d9a30eb	0.075288616
182	0x3d038f24	0.03211893
183	0xbcd39724	-0.025828905
184	0xbd914f65	-0.070952214
185	0x3d65eb66	0.056132697
186	0xbda927d2	-0.08259548
187	0x3d1b0f0a	0.03785614
188	0x3d8db23d	0.06918762
189	0x3dae1a79	0.08501143
190	0xbd5e53fc	-0.054279312
191	0xbda4027e	-0.08008288
192	0x3d7e14fa	0.062031724
193	0x3ab4ed40	0.0013803616
194	0xbd80cea6	-0.06289415
195	0xbd855598	-0.06510466
196	0xbd803551	-0.06260169
197	0xbc499d00	-0.012305498
198	0x3d85bebf	0.065305226
199	0xbcf516f4	-0.029918171
200	0xbda3724c	-0.07980785
201	0xb93ab000	-0.00017803907
202	0x3cf2cbe0	0.02963823
203	0x3d2b22b2	0.041781135
204	0xbd4ba211	-0.049715105
205	0x3d445bee	0.047939233
206	0xbd04ae73	-0.03239293
207	0x3d133c18	0.03594598
208	0x3d96d0bf	0.07364034
209	0xbc149fb0	-0.009071276
210	0xbc200930	-0.0097678155
211	0xbd85eb85	-0.065390624
212	0x3da5ab4d	0.08089314
213	0x3bb5cf40	0.0055483878
214	0x3ab7a900	0.0014012158
215	0x3d0bedbc	0.034162268
216	0x3caecd3c	0.021338098
217	0xbcf6348a	-0.03005435
218	0xbd6bd661	-0.057577495
219	0xbd9223cc	-0.07135734
220	0xbd438734	-0.04773636
221	0xbd3abb15	-0.04558857
222	0xbc8c42f8	-0.017121777
223	0xbd6050d6	-0.05476459
224	0xbd77a4c3	-0.060459863
225	0xba14c880	-0.0005675629
226	0xbd330d1d	-0.043713678
227	0xbc83343c	-0.016016118
228	0xbc2a0058	-0.0103760585
229	0x3d9f1107	0.077669196
230	0x3d76fc02	0.060298927
231	0xbdaaa851	-0.08332885
232	0x3cbd7ec0	0.023131728
233	0xbd6560a7	-0.056000378
234	0xbca2f474	-0.019891955
235	0xbdac933f	-0.084265225
236	0xbc5f72f0	-0.013638243
237	0xbc74d470	-0.014943227
238	0x3c789f28	0.015174665
239	0xbd05ba28	-0.032648236
240	0x3ce5d064	0.02805347
241	0xbda42db8	-0.08016533
242	0xbd093f05	-0.033507366
243	0xbd134ede	-0.035963885
244	0x3d672902	0.056435592
245	0xbd600fdf	-0.054702636
246	0xbd1bef64	-0.038070098
247	0x3d91d2a5	0.071202554
248	0xbdb1715d	-0.086642005
249	0x3c1b7248	0.009487696
250	0x3d9ab499	0.075539775
251	0x3d739836	0.05947133
252	0x3d50aab2	0.050944038
253	0xbd5fb121	-0.054612283
254	0x3da3048b	0.07959851
255	0x3da6e37b	0.08148857

bias f4 [32]
0	0x3bf21f20	0.0073889643
1	0xbda5b40c	-0.08090982
2	0xbd102fdb	-0.03520189
3	0x3d95c18b	0.07312306
4	0x3d3284ba	0.04358361
5	0xbd48d06b	-0.049026888
6	0x3c2bcb70	0.010485515
7	0x3ce09f1c	0.02741962
8	0x3d7f8706	0.062384628
9	0xbd87e3b2	-0.06635226
10	0x3da33757	0.079695396
11	0x3d51a932	0.051186748
12	0xbd18f8cd	-0.03734665
13	0x3d692516	0.056920134
14	0x3d8f804d	0.07006893
15	0xbc77a4d0	-0.015114978
16	0x3d8235bd	0.06357906
17	0x3d529cd2	0.051419087
18	0x3d9a21ff	0.075260155
19	0x3da4b78f	0.080428235
20	0xbd5b28f2	-0.053505845
21	0xbd4d1554	-0.05006917
22	0x3d751196	0.059831224
23	0x3c0752e0	0.008259505
24	0x3d79d1da	0.060991146
25	0xbd9ecf5e	-0.07754396
26	0xbdb1dcbe	-0.08684681
27	0xbd52b05f	-0.05143773
28	0x3d7fd8da	0.062462665
29	0x3d9c1583	0.076212905
30	0xbc870f7c	-0.016486876
31	0x3caa9b34	0.02082596
