MOEmodels/rowModel_5.pt (torch, 95275 bytes, 12 tensors)

weight f4 [4, 1, 3, 3]
00000000: 0c2d a5be ae0f 543e 58bd 7bbd 7d34 863e
00000010: 59f9 a33e d0e4 99bc db6f 8f3e bd7d 903e
00000020: 9cc7 a2bd 18ad 91be 966a 76be 6552 933e
00000030: 6e5f 69be db04 38be c38e a23e a6c1 92be
00000040: 464f e6bd 50c8 fe3c f478 8ebe 0f5a a7be
00000050: 5e5c 75be c0e0 03be 3b32 a13e e3b9 a0be
00000060: 62b6 463e 652c 863e 6c1e d3bd 3cf4 983d
00000070: f3a7 53be c45b f03d 5e9f 7cbe 0c01 d2bd
00000080: bbf1 22be 1289 413e c011 053d e468 b83d
-0.3226093 0.20709106 -0.06145987 0.2621192 0.32026175 -0.018785864 0.28015026 0.2822093
-0.07948229 -0.28452373 -0.24064097 0.287738 -0.2279031 -0.17970602 0.31749544 -0.28663367
-0.11245589 0.031101376 -0.27826655 -0.32685897 -0.23961017 -0.12878704 0.31483635 -0.3139182
0.19405511 0.26205745 -0.10308537 0.07468459 -0.20669536 0.11736253 -0.24670169 -0.10254106
-0.15912525 0.18899944 0.03248763 0.09004381

bias f4 [4]
00000000: 3582 9e3e 10df ef3c 869c eabd 40a2 ddbc
0.30958715 0.02928117 -0.11455636 -0.027054906

weight f4 [8, 4, 3, 3]
00000000: e8f4 943c f0ef 113d e241 fe3d 00bc 2a3b
00000010: 8edb d3bd 90f8 473c f280 e83d 4ed8 bf3d
00000020: a0c2 9dbb 88a5 f93c 7428 3e3d d2d0 ef3d
00000030: 1095 02bc f08b bfbd 38ae e9bd 00cf 443a
00000040: f471 17be ab79 f0bd e568 123e 7e93 f3bd
00000050: 6e3f 8fbd 51c4 153e 2002 69bd 72ba aa3d
00000060: 8666 a13d 70a8 3ebc 4a48 f23d d96a 0b3e
00000070: ecf5 373d a60f f03d 3bc5 c0bd 084e d2bc
00000080: 4073 cebc 18c5 993c 5ff0 253e 1ced 07be
00000090: 50ec 6bbd 0024 b6bb 2053 913b 66bd b0bd
000000a0: b0db 633c 405f 16bb cc94 513d 7978 153e
000000b0: d813 babd 7a1a e93d 5f1f 2a3e 41af 013e
000000c0: a87c 19be 1074 16bc d29d d03d fec9 f4bd
000000d0: 0028 d138 76e3 a6bd 8e78 813d 52ef 843d
000000e0: 5235 ba3d 4e95 cbbd 4f11 12be 0c14 73bd
000000f0: 98ba abbd f06b 113d f663 b9bd af3e 24be
00000100: 00cf cdbc 0168 123e 5630 e63d f291 1dbe
00000110: ab30 13be a6a1 13be c63c edbd cd20 053e
00000120: e4b9 0bbe 68ff 883d 25ba 083e 805f c3bd
00000130: 3085 31bd 2d4d 0b3e 0122 1d3e 2c57 623d
00000140: dec5 a7bd b08a 04bc f621 9f3d 4ce3 2e3d
00000150: 10cd 103c acce 043d d88a c4bc f778 07be
00000160: d633 9e3d 1392 23be c041 683c a472 17be
00000170: 97a8 1cbe 693a 043e aebc edbd 88eb dabd
00000180: 60bd b2bb c523 073e 9ca0 13be 105e 4b3c
00000190: dc3b 5b3d 6618 55bd 5788 17be 0ef2 893d
000001a0: 303c 193d 4877 8bbc eb73 96bd e400 623d
000001b0: 42d3 c53d ee28 b43d a097 b0bc a1b2 003e
000001c0: 6ef7 b03d 5d43 283e 80f3 cf3c cc52 2abd
000001d0: a0f0 683d 4ec3 c63d e399 9cbd c059 4fbb
000001e0: 6826 fb3c 3971 093e 45b0 243e 493a 293e
000001f0: 26aa c13d 8d74 1a3e 4439 583d 1a33 983d
00000200: 32ec e13d 20aa 82bd 02cd 1fbe 9950 033e
00000210: aa81 f53d a7f1 0bbe a1fe 1f3e b076 1f3d
00000220: d4bb 0a3d 54f2 603d 68c0 86bd 10db 383c
00000230: 887f a3bd 0428 4b3d 7ca0 023d f036 57bd
00000240: 6b4a 043e 384e ae3c 160f 62bd de75 fdbd
00000250: 372f 1abe bc23 2a3d fe3c 28be f65e c8bd
00000260: 6c68 2cbd 148c 04bd 0a8a c03d 4079 22bd
00000270: cec4 e13d 56e6 9abd c404 6f3d e832 d53c
00000280: d0e4 663d e3a2 c8bd 56a6 b93d da0a af3d
00000290: 003c 2dbb a6cd 42bd 4c67 22bd 90dd 58bd
000002a0: 580c 00be 9eeb c23d 521e e83d d383 febd
000002b0: ee9b 21be cadb ab3d 609a 5dbd 7f16 1a3e
000002c0: 07b2 04be c683 91bd 3f00 093e 90a4 1f3c
000002d0: 44d9 1bbd 5bc8 81bd 0863 a13d 9f62 1b3e
000002e0: f861 ed3c e03b abbb e64a 99bd 3003 3d3c
000002f0: f42a 3a3d 1001 653c 5ec9 9fbd c82e a4bd
00000300: 4077 603d 19ed 073e f881 a13c 1a77 b03d
00000310: e047 103d 70b4 27bc 44d6 05be f049 403c
00000320: 18b7 e8bc c6cd b33d c0ad e4bc ee5f a73d
00000330: 9294 873d 8296 e53d e079 25be a07e 09be
00000340: 61f5 0e3e 30d1 1b3d 000b 13be e4e5 6e3d
00000350: 80f8 ea3a b0c1 06bc 7097 5b3c 0abb df3d
00000360: c712 253e ccd1 673d 8631 27be f266 ec3d
00000370: b2c5 b53d ff50 153e 98be a3bc 093a 083e
00000380: 7eeb 91bd da5c 17be d8a4 98bc 3117 0b3e
00000390: fe99 c03d 00a7 5fbd 14b3 05be c8c7 943c
000003a0: 73ae edbd 6656 af3d 2074 c03b ce01 983d
000003b0: 3366 b3bd b36f 90bd 80e9 473c 34c5 2b3d
000003c0: 68f0 1bbe 80a9 4cbd 42cd d23d 80fd afbd
000003d0: e8ac eb3c e0be 923c f8dd fcbc 9fa8 10be
000003e0: 9325 8ebd c0c3 953c d60c 4cbd 0871 c1bc
000003f0: 5f61 22be 480d a63c fdb8 0f3e ba62 b93d
0.018183187 0.035629213 0.1241491 0.0026051998 -0.10344611 0.012205258 0.11352719 0.09367429
-0.004814461 0.03047444 0.046425298 0.11709751 -0.00797011 -0.09352863 -0.11410183 0.0007507652
-0.14789563 -0.11741956 0.14297827 -0.11893366 -0.0699452 0.1462567 -0.056886792 0.08336343
0.07880883 -0.011636838 0.11830194 0.13614978 0.044912264 0.11721735 -0.09412619 -0.025671974
-0.02520144 0.01877074 0.16204976 -0.13274044 -0.057598412 -0.0055584908 0.004434958 -0.08629875
0.013907358 -0.0022944957 0.051167294 0.14596738 -0.09085816 0.11382003 0.1661353 0.1266451
-0.14988959 -0.009182945 0.10186352 -0.119525895 9.973347e-05 -0.081488535 0.06321822 0.06490959
0.09092201 -0.09940587 -0.14264415 -0.05934529 -0.08385199 0.035503328 -0.09052269 -0.16039537
-0.02512312 0.14297487 0.11239688 -0.15387705 -0.14374034 -0.14417133 -0.11583857 0.13000794
-0.1364513 0.0668934 0.13352259 -0.095396996 -0.043339908 0.13603659 0.15345003 0.055258915
-0.08192037 -0.008089706 0.077701494 0.042697236 0.008837953 0.03242366 -0.023991987 -0.13229738
0.07724731 -0.15973692 0.014175832 -0.14789826 -0.15298687 0.12912907 -0.116082534 -0.10689455
-0.005454704 0.13197239 -0.14416736 0.012412563 0.053523883 -0.05202522 -0.14798103 0.067356214
0.037410915 -0.017024651 -0.07346328 0.05517663 0.09659435 0.08796869 -0.021556675 0.12568142
0.086409435 0.16431947 0.025384665 -0.041582868 0.056870103 0.0970522 -0.07646539 -0.0031639189
0.030657962 0.13422097 0.16082866 0.1652614 0.09456281 0.15083523 0.052788988 0.07431622
0.11031379 -0.06380105 -0.15605548 0.12823714 0.11987622 -0.13666402 0.15624477 0.03893155
0.033870533 0.054918602 -0.06579667 0.011282697 -0.07983309 0.04959871 0.03189133 -0.052542627
0.12919013 0.021277532 -0.05519017 -0.12375997 -0.15057074 0.041537985 -0.16429517 -0.09783737
-0.042091772 -0.03236015 0.09401329 -0.039666414 0.11023866 -0.07563464 0.058354154 0.02602525
0.056370556 -0.09796693 0.09064929 0.08546992 -0.0026433468 -0.047559403 -0.039649293 -0.052945673
-0.12504709 0.09517597 0.11333908 -0.12427487 -0.15782139 0.08391531 -0.0541023 0.15047644
-0.12958537 -0.07105212 0.13379 0.009743825 -0.038048998 -0.06337043 0.07880217 0.1517434
0.02897738 -0.0052256435 -0.07484989 0.0115364045 0.04545112 0.013977304 -0.078020796 -0.08016735
0.054801226 0.1327404 0.019715294 0.08616467 0.035224795 -0.010235891 -0.13070017 0.011736378
-0.028407618 0.087794825 -0.027914882 0.08172594 0.066201344 0.11210348 -0.16159773 -0.1342721
0.13960792 0.038041294 -0.14359665 0.05832471 0.0017926842 -0.00822489 0.013402805 0.10924347
0.16120444 0.056596562 -0.16327485 0.11543073 0.08875598 0.14581679 -0.019988343 0.13303389
-0.07124995 -0.14781514 -0.018633291 0.13583066 0.09404372 -0.054602623 -0.13056594 0.01816167
-0.11605539 0.08561401 0.005873218 0.07422219 -0.08759727 -0.07052555 0.012201667 0.041936114
-0.15228426 -0.049966335 0.10293056 -0.08593273 0.028768972 0.017913282 -0.030867562 -0.14126824
-0.069407605 0.018281817 -0.04981693 -0.023613468 -0.15857457 0.020270005 0.14035411 0.09052034

bias f4 [8]
00000000: 277b 283e c02a 6cbc 9ab7 f13d 8a61 b23d
00000010: 430b b0bd 65ea 093e 0228 ac3d ea53 d33d
0.16453229 -0.014414489 0.11802597 0.0871001 -0.08595898 0.1346832 0.084060684 0.1031874

weight f4 [8, 8, 3, 3]
00000000: 2933 ddbd e379 6cbd db7b c53d 87b4 a1bd
00000010: e673 573d ac74 a7bd d8e0 dbbd 04bf 9dbc
00000020: 1f5e 93bd f124 ea3d 1820 54bd d68e 7abd
00000030: 9606 12bd c65b 263d 3b44 8b3d 278b c73d
00000040: e031 71bc ba65 83bd 02a0 013d 8c2f d0bc
00000050: 0897 7b3c 35be 823d 2883 7cbc 986e 3c3c
00000060: 009b 04ba b40a e63c 1010 a7bd 5587 bc3d
00000070: 6e45 793d cb70 a83d 69cf e03d 8268 51bd
00000080: 23f0 7abd aadb d3bd a9a1 b33d f914 903d
00000090: 6ccc 07bd 6a91 87bd 73dd 9d3d eb27 823d
000000a0: d20d edbd 00cf a5bb 48ea 3abd 76d0 593d
000000b0: b9d8 e33d 4e78 203d 4cff f03c a0be 6dbd
000000c0: f9ce 993d f1cb 84bd f227 703d 23e8 6dbd
000000d0: ef44 cfbd 44bc 72bd c786 a53d 9428 24bd
000000e0: 9655 473d f7b1 af3d 0e1c 5bbd 68a3 393c
000000f0: b491 c0bd 0519 c63d 78e7 6abc ce70 7a3d
00000100: fb7a d93d 728b 4b3d 9e6b d3bd f64c ddbd
00000110: d833 343c bc63 d6bd 208a 96bd 4c8a be3c
00000120: 387c 4c3c 01b4 ee3d 5d6f e3bd 56c0 edbd
00000130: 2426 d43c 2453 d7bd b6e6 493d 6631 bdbd
00000140: e4ba c13c 2580 bf3d ff6e de3d b72b aabd
00000150: 4ad4 78bd dae0 0f3d 784b b8bc 3cb6 9dbd
00000160: 2a0a 8abd e473 85bc e6ab 663d f0eb f1bb
00000170: 70cb b5bc f074 e9bd f8e9 593c 1896 0cbc
00000180: a96e aa3d e42b 2abd ce1e 05bd cc45 cf3c
00000190: 138d a63d 6d42 bcbd 1010 efbb bab2 093d
000001a0: 213d ac3d 7b89 a63d 2af3 4ebd 40ea 53bd
000001b0: ae21 5e3d 707b cfbd 80e7 04bc 9d9a 9c3d
000001c0: 1cfc 86bc f51b a5bd 7afb ebbd b26a e7bd
000001d0: 3210 423d c2c4 2abd ecc9 c03c 665c 613d
000001e0: ab47 ec3d c2c3 363d a645 473d a6da 00bd
000001f0: 730f 9f3d 0cc5 f43c 3bcd c23d 3de0 e7bd
00000200: ef3a 973d d89b c3bd 4561 9fbd 1f3a 8c3d
00000210: ce89 2b3d 1ad2 92bd 4b14 aa3d b6a3 90bd
00000220: 3030 90bc 106e 9bbb 6ebb 89bd 3654 623d
00000230: 9662 20bd 223d 223d 4eb3 0e3d ac9c 963c
00000240: 3a66 01bd 3ab6 5fbd 80b8 493a 58b7 ecbc
00000250: 4801 0abd 5a71 183d ee22 673d f05a 9dbb
00000260: f3f9 e0bd ab5a 983d 1e90 b0bd 005f 41bc
00000270: c810 e3bc c5cd c4bd 378e adbd 1ab9 653d
00000280: d013 2abc a01a 2bbd d161 ae3d c248 243d
00000290: 24d9 85bd a835 1b3c e02f 613b 10bb 2abd
000002a0: 3f56 db3d e8a7 cbbd 713f cabd 79af e03d
000002b0: 4c28 c0bc 9879 dcbc c058 e0bc 209c 21bb
000002c0: 0a93 213d cb2a ec3d 2b26 c43d 7276 30bd
000002d0: 7514 c03d c6f0 a2bd 1d9a e73d 150b a73d
000002e0: 7a57 403d 98fe 00bc dce8 60bd b613 a7bd
000002f0: 45bf 8dbd e11d a73d 008f 253b 306e 5ebd
00000300: 7f8e 803d e0a4 edbb c205 b1bd 8e08 09bd
00000310: 00ec be38 2ee1 9ebd dc5f b2bc aab4 213d
00000320: a8bf 0abd 44dd d7bd 1f5d d13d 3678 a9bd
00000330: aadf 4c3d 608e 60bb 90a7 04bc 9dc0 e6bd
00000340: 220e 4cbd 7438 04bd 37c1 c2bd b802 07bd
00000350: 788b 6e3c af06 8a3d 661e 46bd 8d36 e83d
00000360: f5ba dcbd 7bc8 c53d 20d5 31bb 4f38 993d
00000370: e0bb db3b c050 053b ea54 763d 6ea5 88bd
00000380: 6226 613d 07dd b43d 83f8 9d3d 1140 c23d
00000390: 2ae2 4d3d 324f 053d 94f5 07bd b1ce 9ebd
000003a0: 2820 123c 947a cdbd 9076 92bb 6c1f bd3c
000003b0: 9aad 7f3d 53b2 bfbd 141f cfbc dce6 e93c
000003c0: 8cbd e2bc 903d 913b 1ad7 e9bd fbd3 b73d
000003d0: 4f7c ee3d 27bd 9f3d dd86 853d 8a8e 113d
000003e0: fd52 9a3d dc18 e73c c28f 1c3d b861 15bd
000003f0: 60a8 2bbd 357a cb3d 34ca fa3c 49fc b2bd
-0.10800774 -0.057733428 0.09642764 -0.07895761 0.052600764 -0.0817655 -0.10736245 -0.019256122
-0.071956865 0.11432827 -0.05178842 -0.061171375 -0.035650812 0.040614866 0.06800123 0.09743338
-0.014721364 -0.06415887 0.031646736 -0.025413297 0.015355833 0.06383935 -0.015412129 0.011500977
-0.0005058497 0.028081276 -0.081573606 0.092055 0.06085723 0.082246386 0.1097706 -0.051125057
-0.06126417 -0.10344632 0.087710686 0.0703525 -0.033153936 -0.066195324 0.07708254 0.0635527
-0.11574902 -0.0050600767 -0.045633584 0.05317732 0.11125321 0.03917723 0.02941861 -0.058043122
0.0751018 -0.06484211 0.058631845 -0.05808271 -0.1012057 -0.059261575 0.08082347 -0.04007776
0.048665605 0.08578866 -0.053493552 0.011330463 -0.09402791 0.09672741 -0.014337413 0.061142735
0.1061916 0.049693532 -0.10323261 -0.10805695 0.010998689 -0.104682416 -0.07350564 0.023259304
0.012480788 0.11655427 -0.11105225 -0.11608951 0.025897093 -0.10513905 0.04929229 -0.09237938
0.023648687 0.093506135 0.108610146 -0.08309119 -0.06074933 0.035126545 -0.022496924 -0.07700774
-0.0674022 -0.016290613 0.05631628 -0.0073828623 -0.022191733 -0.11399257 0.013300411 -0.008580707
0.08321888 -0.041545764 -0.03250008 0.025301836 0.081323765 -0.09192357 -0.007295616 0.033617713
0.08410097 0.08131691 -0.050524868 -0.05173707 0.05423134 -0.10130966 -0.0081118345 0.07646678
-0.016477637 -0.08061973 -0.11522575 -0.112996474 0.047378726 -0.04169155 0.023533784 0.05501976
0.11537107 0.044620283 0.048650406 -0.03145852 0.077666186 0.029879116 0.09511801 -0.11322067
0.073842876 -0.09551209 -0.077822246 0.06847023 0.041879468 -0.0716898 0.08304652 -0.070624754
-0.017601103 -0.004743345 -0.067252025 0.05525609 -0.03915652 0.039609082 0.034838967 0.018385254
-0.03159163 -0.054617144 0.0007695034 -0.028896019 -0.03369263 0.037217475 0.056429796 -0.0048021004
-0.10985174 0.074391685 -0.08621238 -0.011802435 -0.027717963 -0.0960956 -0.08474391 0.05608473
-0.0103807 -0.04177344 0.08514751 0.04010845 -0.06535557 0.009473242 0.003436081 -0.041682303
0.107098095 -0.09944135 -0.09875382 0.10970969 -0.023456715 -0.02691345 -0.02738607 -0.0024659708
0.039446868 0.115315996 0.095775925 -0.04308171 0.09378902 -0.0795608 0.11308692 0.081564106
0.046958424 -0.0078732 -0.054909572 -0.081580564 -0.069212474 0.08159996 0.0025262237 -0.0543043
0.06277179 -0.0072523206 -0.08643676 -0.033455424 9.1038644e-05 -0.07757793 -0.021774225 0.039478935
-0.033874184 -0.1054025 0.102228396 -0.082748815 0.05001799 -0.003426455 -0.008096591 -0.11267207
-0.049818166 -0.0322804 -0.09509509 -0.032961577 0.014559619 0.06739556 -0.048368834 0.1133853
-0.10777847 0.09657379 -0.002713509 0.07481443 0.006705746 0.002034232 0.060139574 -0.06672178
0.054968245 0.0883122 0.077134155 0.09484876 0.050264515 0.03254623 -0.033193186 -0.07754267
0.008918799 -0.100331455 -0.0044697 0.023086272 0.06242142 -0.093601845 -0.025283374 0.028552465
-0.027678274 0.0044323877 -0.114179805 0.08975979 0.11644804 0.0779975 0.06519864 0.035536326
0.0753536 0.028210096 0.038223036 -0.036470145 -0.04190862 0.099354185 0.030613996 -0.08739526

bias f4 [8]
00000000: ee4b 463d be2e 633d d465 923c 7c1f 4bbd
00000010: 9763 da3d 403e 78bd 9285 083d 7864 36bd
0.048412256 0.0554645 0.017870821 -0.049590573 0.106635265 -0.06060624 0.033330508 -0.04452941

weight f4 [8, 8, 3, 3]
00000000: 768d 3b3d dc65 9dbc 50b8 fc3b a4b5 c3bc
00000010: a6a4 62bd 8488 8a3c b270 19bd b2a8 96bd
00000020: 3fc4 d1bd 1a1f 90bd 6367 b83d 5e28 6d3d
00000030: 3441 a7bd c03a 5abc a2cb 9ebd 1bb2 8c3d
00000040: 0064 4abc e053 6cbc f30d d3bd ce97 353d
00000050: c6c3 603d 8622 32bd 5a31 2e3d 2497 953c
00000060: 98fe a7bd bb09 63bd 40c1 ccbb 6443 d73c
00000070: 2dff 8ebd cbf6 a43d 75df dc3d 009e 6fbb
00000080: 9c45 d8bc 55df efbd 18be 15bc ee43 3c3d
00000090: dcdc b5bc 83df b8bd 4c2c a2bc 1721 9abd
000000a0: e83d 06bc bc37 f93c 36cd 143d fdd2 d0bd
000000b0: f012 f8bb 3ccd cbbd a042 96bd 2455 bcbd
000000c0: 4b44 b8bd 828d 0bbd 2f1e 84bd 63a0 d23d
000000d0: 4a71 493d f610 573d ca45 99bd 90e6 de3b
000000e0: 89ef dfbd 4945 cb3d 7c26 973c facf 0cbd
000000f0: fb4a ccbd 47ee 983d 4be5 823d f233 3dbd
00000100: 5b20 b53d 91c3 ba3d 2e2a 00bd df91 aa3d
00000110: 570d b5bd 8889 503c 03fd 973d 2ffb e63d
00000120: 8cd9 30bd d709 933d 6681 2dbd d6ed 483d
00000130: c76c cabd e875 b0bd ab7f a33d e4eb 89bd
00000140: 2e75 673d 8325 adbd a06a 393b 746d d1bd
00000150: e4f0 e13c 5222 7fbd d63a 3abd 6423 aebd
00000160: fd51 a4bd 8916 e13d eb11 db3d 9c6f fd3c
00000170: 7db3 b13d bc20 42bd 3180 a83d ea80 51bd
00000180: 64b7 803c 4243 703d 8364 c73d 2872 45bd
00000190: 18c0 3ebc 231c aa3d e0d0 3bbd bf44 d23d
000001a0: 2b45 bdbd 0520 b2bd 6cf7 47bd 30f7 c5bb
000001b0: 9855 ebbc 7007 bbbc b0aa 8dbd f24f 663d
000001c0: f4ff 9dbd a2ab 0abd fc8c aa3c 0be6 8f3d
000001d0: d45b e9bc 54b5 e5bd 6cdc 72bd 7eec 613d
000001e0: dc6b 24bd cca6 8d3c b03a edbc 9bd8 b6bd
000001f0: efb1 ecbd aadb 453d 04a6 b73c f094 1abd
00000200: 1d82 d3bd d266 7e3d 659a e63d 9821 b9bc
00000210: b778 9a3d 3d37 9c3d 4501 883d abed c43d
00000220: de13 663d f8ee 0fbd 6e76 023d 66c4 88bd
00000230: 28fa bebd 6046 d3bd 7f3d cb3d 078d 9e3d
00000240: 1c5a bbbc 4227 283d c6c8 373d 2d29 c33d
00000250: c299 efbd 461b 783d 2382 a7bd 7816 3d3c
00000260: 88e4 033c d000 eebd 8071 4c3b 6e80 57bd
00000270: 6151 d53d a4c7 b33c 2c59 e33c e898 fabc
00000280: d2cb 7b3d bcb6 b7bc 53c3 b53d 38fd 37bd
00000290: 4891 66bc 4897 4b3c 88cf 28bc d85f 2f3c
000002a0: cc10 fd3c 92ed 1e3d a238 b3bd 5040 12bc
000002b0: d1e6 d73d bea8 d8bd 3c06 97bc 55a9 b73d
000002c0: 6f5f b0bd 45ed 9b3d f21f 343d bc53 b53c
000002d0: 0cb2 f63c 57d6 c83d 3193 883d fc53 93bd
000002e0: d7a2 dd3d 3a04 5ebd 009d 7a3a 7de4 c5bd
000002f0: efb0 b53d 414a a53d 44e5 a23c 5828 a8bd
00000300: 2cb8 f0bd 2b1f 8e3d c15f b53d 872c b33d
00000310: b84a 553c c9f4 a43d ecec 8d3c 6069 47bb
00000320: 3a2c 793d 98b0 683c 00cf 1bbc bbbc cb3d
00000330: fa5c a3bd fce5 f7bc 3fb4 e63d acb2 abbd
00000340: f8a1 b1bd c22d 783d ae41 4b3d 8d52 c1bd
00000350: e422 bbbd aad9 0e3d 2a04 1a3d 0642 b0bd
00000360: 1a6a 2a3d 58c7 0c3c e8ce 683c 84a8 d2bd
00000370: c2e0 a1bd 7b01 a3bd c8e9 54bd d878 84bc
00000380: 67f5 debd c0a9 d7bd 4063 bcbb 98c4 563c
00000390: fea3 29bd 42b6 28bd b112 cb3d 3c71 a8bd
000003a0: 742d 893c 4174 6abd 108c 8abc 0de7 ae3d
000003b0: c3d1 bcbd a426 bc3c 00c2 e8b9 500a a0bd
000003c0: 8b1c c93d 8985 c33d c023 63bc e025 a2bc
000003d0: b4c9 f9bc 6679 17bd 56c5 103d 4d6e b4bd
000003e0: 0066 f8bb 7e91 2abd f69d 773d 08fb 8fbd
000003f0: 3452 b4bc 80c9 9b3b 0924 9e3d a68f 28bd
0.045789205 -0.01921361 0.0077124014 -0.023890324 -0.055332802 0.016910799 -0.03746099 -0.07356395
-0.10242509 -0.07037182 0.090040945 0.057899825 -0.081667334 -0.013319671 -0.077536836 0.068699084
-0.012352943 -0.014424294 -0.10305395 0.044334225 0.054874204 -0.043489955 0.042527534 0.018260546
-0.08202857 -0.0554292 -0.006248623 0.026277252 -0.06982265 0.080548845 0.107848085 -0.0036562681
-0.02640038 -0.11712519 -0.00913956 0.04596322 -0.02220004 -0.090270065 -0.019796513 -0.07525843
-0.008193471 0.030422084 0.036328517 -0.10196493 -0.007570617 -0.09951255 -0.073369265 -0.09195927
-0.08997401 -0.0340705 -0.064510696 0.102844976 0.049180306 0.05250641 -0.07484014 0.0068023875
-0.109343596 0.099253245 0.018450968 -0.03437803 -0.09975239 0.07467323 0.063913904 -0.046192117
0.08844062 0.091193326 -0.031290226 0.08328604 -0.08840435 0.0127281025 0.07421305 0.11278378
-0.04317622 0.07179611 -0.042359732 0.049054943 -0.09884029 -0.08616239 0.07983335 -0.06734446
0.056508236 -0.084544204 0.0028292313 -0.10225955 0.027580686 -0.06228859 -0.045466267 -0.08502844
-0.080234505 0.10990626 0.10696777 0.030937009 0.08676813 -0.0473945 0.082275756 -0.051148333
0.015712447 0.058657892 0.09735968 -0.04820457 -0.011642478 0.08306148 -0.045853496 0.102670185
-0.09241708 -0.086975135 -0.048819944 -0.00604143 -0.028727338 -0.022830695 -0.06917322 0.056228586
-0.07714835 -0.033855088 0.02081918 0.07026299 -0.02848617 -0.11216226 -0.059292242 0.055157177
-0.040141925 0.017291449 -0.028958648 -0.08928033 -0.11557376 0.04830519 0.02241803 -0.037739694
-0.103275515 0.062109776 0.11259917 -0.022599027 0.07542556 0.07627723 0.06640867 0.09615644
0.05617129 -0.035140008 0.031851225 -0.06678085 -0.09325057 -0.10316157 0.09923839 0.077417426
-0.022870116 0.041053064 0.044869207 0.09529338 -0.11699249 0.060572885 -0.081791185 0.0115410015
0.008050092 -0.11621249 0.003119558 -0.052612714 0.104159124 0.021945782 0.027752481 -0.03059049
0.061473675 -0.022426002 0.08875146 -0.044919223 -0.014072724 0.012426205 -0.010303386 0.010704003
0.030891798 0.038800783 -0.08751036 -0.008926466 0.105420716 -0.1057906 -0.01843559 0.089678444
-0.086119525 0.07613615 0.043975778 0.022134654 0.030114196 0.09806507 0.066686995 -0.07193753
0.10822075 -0.05420325 0.0009560138 -0.09662721 0.08871638 0.080708034 0.019884713 -0.0821082
-0.11753878 0.069395386 0.08856154 0.08748727 0.013018303 0.080545016 0.017324887 -0.0030427799
0.060833193 0.0142022595 -0.009509802 0.09948107 -0.07976718 -0.030261032 0.11264848 -0.08383688
-0.08673471 0.060590513 0.049623184 -0.094395734 -0.09137514 0.03487555 0.037601627 -0.08606343
0.041605093 0.008592449 0.014209487 -0.10286048 -0.07904197 -0.07959267 -0.051980764 -0.016170904
-0.108866505 -0.10530424 -0.005749136 0.013108395 -0.04141616 -0.04118944 0.099156745 -0.08224723
0.016745307 -0.057239775 -0.01691249 0.08540163 -0.092196964 0.022967644 -0.0004439503 -0.07814467
0.09819897 0.09546954 -0.013863504 -0.01979345 -0.030491687 -0.03698101 0.035344444 -0.08810101
-0.0075805187 -0.04164266 0.060453378 -0.07030302 -0.022011854 0.0047542453 0.07721717 -0.04115262

bias f4 [8]
00000000: bbd7 803d a67d 8dbd f377 ebbd cd5a 913d
00000010: f0a3 2ebc 58e6 6dbc 02bb 4ebd fe03 6f3d
0.06291147 -0.06908731 -0.11497488 0.07097397 -0.010659203 -0.01452025 -0.050471313 0.058353417

weight f4 [128, 128]
00000000: 0922 ab3d 51ab 01bd ced2 353d 8a7e 583d
00000010: 2efd 2b3d 00a4 feb8 c02f ad3b 447b 96bd
00000020: 704d 0ebc 2086 47bc d235 83bd 84ef 973c
00000030: 67c0 65bd f874 14bc 3fc4 9e3d 806f fe3c
00000040: 9259 793d ee3a 2e3d 47a3 92bd c29e 0f3d
00000050: daa4 8fbd 4a5d 1c3d e85d 41bd 323e 2d3d
00000060: 8aea 463d 6c2e 9bbd 68cd 84bc 79cf 913d
00000070: f770 b0bd fce7 9ebd 143f 8e3c 7051 b2bc
00000080: 508c 013d 7860 323c 4e6b 203d 807c 563a
00000090: 9478 a0bc db15 83bd b54b 9c3d ba91 53bd
000000a0: 7df1 33bd 6c69 77bd 12bd 93bd acf7 abbd
000000b0: dde4 8dbd 0da6 aabd 928a 74bd 90d8 63bc
000000c0: a534 01bd 6886 cdbc 5a3b 2e3d f3f3 8abd
000000d0: cc4b be3c 6f2d a23d 1237 06bd 0860 443c
000000e0: 5e56 553d d83c 37bc 40bc 5d3b 2218 26bd
000000f0: 48d5 a0bd 2e5b 743d 0090 2538 7043 cbbb
00000100: 48af a7bc 8a01 85bd 704b 93bd c8c9 d43c
00000110: c0c4 81bb 4ffb 8dbd 6658 9ebd 38a0 17bd
00000120: 905c 5bbc 2e4b 5a3d 8a32 9ebd 26cf 7f3d
00000130: bda7 5fbd aed4 55bd fc15 e33c 70a9 48bc
00000140: 04b3 0e3d 9063 f53c 5410 9dbc a807 b3bc
00000150: db33 953d d4f0 c6bc b0f4 ec3b 7002 8dbc
00000160: c2e9 2f3d 80c4 3cbb 558a 863d afaa af3d
00000170: 36d3 7b3d 2c97 9ebd f885 6a3c 2f83 98bd
00000180: 24a7 943c fbc0 9c3d 0086 d5b9 6074 a3bd
00000190: 8e69 483d 1462 88bc 3d4a 953d ff4c 59bd
000001a0: c21c 1c3d 56b8 41bd 1d04 1bbd 3dfd b13d
000001b0: 6a32 5e3d 14ac 0d3d b9c1 9cbd 9ed2 61bd
000001c0: 4c57 95bc 4a70 673d 783e 22bd a8cc 1fbd
000001d0: 7019 3e3c 7753 973d fa91 683d 1816 a8bd
000001e0: daa1 2c3d d008 c33c f0c1 f03c b24b 233d
000001f0: 7007 503c 9d20 31bd 6952 24bd 3c66 ee3c
00000200: 70eb 003d b612 febc 4223 a9bd f628 1d3d
00000210: f935 a6bd c885 483c 46d7 723d ecff 8c3c
00000220: 8e1c 2a3d dc8a 92bd e471 abbd c0e9 0e3c
00000230: b2ed 6c3d df6b 8e3d bbd2 903d 0a8d 6e3d
00000240: 36ab 043d 4f4d 24bd 286a a9bd 109a d1bc
00000250: 22c8 273d c1be b23d e828 73bc e1b0 80bd
00000260: 3894 88bc b8cd c8bc 6812 a13c 5538 833d
00000270: 548a b0bc 65a7 903d 060c 94bd e021 1ebc
00000280: a25f 373d a411 9fbc e005 97bc 41fc a83d
00000290: e103 74bd c0fc 863a 9bfa b43d 04e1 ef3c
000002a0: 50ad 64bc 11f9 a0bd 1c62 f8bc 4e36 8abd
000002b0: 20b1 9ebb 4165 923d 45d3 a93d af39 933d
000002c0: 40fe aabb a454 acbd f4b6 a6bc f410 0abd
000002d0: ddea 69bd 6029 96bc 50c9 dd3b 5761 24bd
000002e0: 0819 68bc ccbb 8f3c 4ec3 493d 8e69 343d
000002f0: aac8 0b3d 0402 b4bd 6d58 99bd 2e0a 9dbd
00000300: 3128 3cbd 9cf7 a33c 8f88 20bd c0f1 b2bd
00000310: ab5f 98bd 9ca8 9dbd 42a5 87bd 66f2 91bd
00000320: 80d0 f33b a851 c03c 9c41 54bd 64b3 aebc
00000330: 3200 23bd 3ffb 2ebd d66f 90bd 9c1f eb3c
00000340: 0836 083d 6a5c 6e3d e0d1 16bc c342 b23d
00000350: 36da 223d 4a80 6bbd cb02 9a3d 1b5a 943d
00000360: 38c6 633c c9c2 863d 846d 2ebd 9947 8c3d
00000370: 4ec0 573d fe46 213d 194a 953d 0cd8 4bbd
00000380: 959c a13d a08a d43c f8f2 0b3c 4aed 44bd
00000390: 2ae8 793d d0d9 263c 00a4 0b39 24fc 0e3d
000003a0: 2c9f 75bd b0bf 9dbc 1e0b 5c3d b81a 2f3c
000003b0: 30e2 d5bb 756f 993d 5753 9e3d c6d1 6e3d
000003c0: 04cf b8bc 20b5 a13b 481f b3bd db4f 82bd
000003d0: bf54 823d c44b abbd 4877 81bd f0e8 8ebd
000003e0: e7b0 43bd 52a2 a1bd 68eb ccbc 2cb4 80bd
000003f0: 280e b73c 2338 843d 2012 c53c 1c3b 97bc
0.08356101 -0.03165752 0.044390492 0.052855052 0.041989498 -0.00012142211 0.0052852333 -0.0734773
-0.008685455 -0.012177974 -0.0640675 0.018546827 -0.056091692 -0.009061091 0.07752275 0.031059027
0.060876437 0.04253667 -0.07160049 0.035063513 -0.07013865 0.038174905 -0.047208697 0.042295642
0.048563518 -0.07577214 -0.016211227 0.071196504 -0.08615296 -0.07759091 0.017364062 -0.021767348
0.031627953 0.010887258 0.039164834 0.0008182004 -0.019588746 -0.06400653 0.076316275 -0.051652648
-0.043931473 -0.060403273 -0.07213797 -0.08396849 -0.06928418 -0.08332453 -0.059702463 -0.013906613
-0.031544346 -0.025088504 0.04253707 -0.06784811 0.023229502 0.07918822 -0.032767363 0.011985786
0.05208432 -0.01118394 0.003383413 -0.04055036 -0.0785318 0.05965727 3.9473176e-05 -0.0062031075
-0.020469323 -0.06494434 -0.07192123 0.025975123 -0.003960222 -0.06932699 -0.077317044 -0.03701803
-0.013388768 0.053294353 -0.07724483 0.06245341 -0.054603327 -0.05220478 0.027720444 -0.012247428
0.03483869 0.029954702 -0.019172825 -0.021854237 0.07285281 -0.024284758 0.0072313175 -0.017213076
0.04294754 -0.0028803647 0.065693535 0.08577477 0.061480723 -0.077436775 0.014314167 -0.07446896
0.018146105 0.076539956 -0.00040726364 -0.07981181 0.04892879 -0.01664833 0.072895505 -0.053051945
0.038113363 -0.047294937 -0.03784572 0.086908795 0.054247297 0.034587935 -0.07654137 -0.0551325
-0.018230103 0.05650357 -0.039610356 -0.039013535 0.011602744 0.073889665 0.05677984 -0.08207339
0.04214654 0.023807913 0.029389352 0.03986711 0.012697086 -0.043243993 -0.040117655 0.029101484
0.03147453 -0.031014781 -0.08258678 0.03836914 -0.08115763 0.012238927 0.059287332 0.017211877
0.041531138 -0.071553916 -0.08371332 0.0087227225 0.05784387 0.069541685 0.07071444 0.058239974
0.032389842 -0.04011279 -0.08272201 -0.025586158 0.040962346 0.0872779 -0.014841296 -0.06283737
-0.016672239 -0.024512157 0.019662097 0.06407229 -0.021550335 0.07063178 -0.07228856 -0.009651631
0.044768937 -0.019417591 -0.018435419 0.082512386 -0.05957401 0.0010298714 0.08836862 0.0292821
-0.013957337 -0.07860006 -0.03032022 -0.06748639 -0.0048428923 0.07148219 0.082922496 0.07188737
-0.0052182972 -0.084145814 -0.02035091 -0.033707574 -0.05710875 -0.018330276 0.006768383 -0.040131893
-0.014166124 0.017545603 0.049258523 0.044045977 0.034126915 -0.08789447 -0.07487569 -0.07667957
-0.045936767 0.02001553 -0.039192732 -0.087375164 -0.07440122 -0.07698175 -0.06623317 -0.07126312
0.0074406266 0.023476437 -0.051820382 -0.021325774 -0.03979511 -0.042720076 -0.07052581 0.028701596
0.033254653 0.0581936 -0.009205312 0.0870414 0.039758883 -0.057495393 0.07520064 0.07243749
0.0139022395 0.06580121 -0.04258491 0.06849594 0.05267363 0.039374344 0.07289524 -0.049766585
0.07891194 0.025945008 0.008541815 -0.04807786 0.061012425 0.0101837665 0.00013317168 0.03490843
-0.05996625 -0.019256443 0.05372154 0.010687523 -0.006527208 0.07491962 0.077307396 0.058305524
-0.02255965 0.004934922 -0.08746201 -0.063628875 0.0636382 -0.083640605 -0.06321579 -0.06978023
-0.04777613 -0.07892288 -0.025014594 -0.06284365 0.022345617 0.0645602 0.024056494 -0.018460803

bias f4 [128]
00000000: 409c 99ba c699 86bd 0000 ecbb 0e76 573d
00000010: 082a 7cbc 9a3c ffbc 40ba 23bd 703c 9cbc
00000020: b876 73bc a835 153d 7c6b da3c 3d71 93bd
00000030: a29f 93bd f0c4 05bd 32e6 543d 2290 5d3d
00000040: b851 fb3c 9a08 e2bc 5831 acbc 53b0 af3d
00000050: 2c72 f53c f168 993d e6ca 95bd ca1d 103d
00000060: d264 623d eafe 1e3d 6040 5b3b e16f 953d
00000070: 4b93 8b3d 1e3f 6d3d 60df f13b 14b3 65bd
00000080: 6c62 81bc e904 19bd a092 b2bc b4a0 6bbd
00000090: 80c8 893b 281b eb3c a4f1 0dbd c65d 593d
000000a0: 4ba6 9e3d eec0 aabd 408a 333c c685 4d3d
000000b0: 59dd b43d 758a 9e3d b7fa 02bd 3ff0 01bd
000000c0: 80f7 22bb 353e 863d 73c2 9a3d cff1 a9bd
000000d0: 45aa 893d 2513 ac3d 666b 4a3d 280e 95bd
000000e0: b500 a83d a8f0 f4bc 9006 e03c 72bd 2c3d
000000f0: 24be 9ebc 2055 ea3c 0044 9238 e600 2b3d
00000100: 958b a13d 4ec1 4f3d 4011 a6bc 08ae a0bd
00000110: ca44 163d fcf7 b6bc 8f19 8f3d 800a fdbb
00000120: 6e0c 37bd 0097 9b3c 1acb 563d 6242 123d
00000130: 08a4 2ebc 022b 75bd 9c37 9dbc 15dc 4bbd
00000140: 9e29 2e3d c706 923d b038 29bd e6f5 02bd
00000150: 7e86 84bd df5d 813d db75 873d 64bf 843c
00000160: 6ad0 f1bc c081 55bd 67e7 863d cae7 94bd
00000170: a0c7 cdbc 3936 62bd 3831 473c ebfd 33bd
00000180: 0a9f 6e3d 28f3 083d 2671 1d3d 6ff3 af3d
00000190: da20 3f3d e5c6 42bd 4e00 1f3d c8ad ffbc
000001a0: eed4 7ebd 4820 9abd 8257 163d f480 32bd
000001b0: 97b7 85bd 7f2d 22bd f589 b03d 3c4e f13c
000001c0: 8092 bcba 93cc 63bd 4476 db3c 52cf 6bbd
000001d0: 6e8c 413d c0d6 cfbc a2f8 243d 6642 033d
000001e0: d11e 8e3d 52f0 8abd e05f f13c 6803 9cbd
000001f0: f40e d43c 9dfd ac3d 80cc ed3a 2707 823d
-0.001171954 -0.06572299 -0.0072021484 0.05260282 -0.01539088 -0.031156827 -0.039972544 -0.019071788
-0.014859848 0.036428124 0.02666258 -0.07199333 -0.07208182 -0.032658517 0.051977344 0.054092534
0.030678615 -0.027591992 -0.021019623 0.08578553 0.029961668 0.07490719 -0.073140904 0.03518466
0.05527193 0.038817324 0.0033455119 0.0729673 0.06815203 0.05792152 0.0073813647 -0.056078985
-0.015794002 -0.0373582 -0.021798432 -0.057526305 0.0042048097 0.028699473 -0.034654275 0.053067945
0.077465616 -0.0833758 0.010958254 0.050176404 0.08831281 0.07741252 -0.03197738 -0.031723257
-0.002486676 0.06554834 0.075566195 -0.082980745 0.067219295 0.08402089 0.04941883 -0.07278091
0.0820326 -0.02989991 0.02734688 0.042172857 -0.019377775 0.028605044 6.9744885e-05 0.041748904
0.07887951 0.05072146 -0.020271897 -0.07845694 0.036686696 -0.022335045 0.06987297 -0.007722199
-0.04468959 0.0189929 0.052439786 0.03570784 -0.010659225 -0.05985547 -0.019191556 -0.049770433
0.042520158 0.07130199 -0.041313827 -0.03197279 -0.06470965 0.063167326 0.06614276 0.016204543
-0.029518325 -0.052125692 0.06587105 -0.07270773 -0.025119603 -0.055227492 0.012157731 -0.043943327
0.05825714 0.033435017 0.038437985 0.08591353 0.04666219 -0.04755296 0.03881865 -0.031210795
-0.062214784 -0.075256884 0.036704548 -0.04358001 -0.065291576 -0.03959417 0.08620063 0.02945625
-0.0014386922 -0.05561502 0.026789792 -0.057570763 0.047253065 -0.025370955 0.040276177 0.032045744
0.069394715 -0.06784119 0.029464662 -0.07617837 0.025886036 0.084468104 0.0018142611 0.063490205

weight f4 [32, 128]
00000000: 1e50 633d 9451 2bbd dc44 91bd c0ca d8bb
00000010: 20f9 b33b a051 8f3c a65e a1bd 58e4 2a3c
00000020: 9752 b23d 891f 43bd eda6 893d 296a 8abd
00000030: caa2 5c3d 6673 573d 8084 5ebd e084 1dbc
00000040: a5d2 a1bd 420e 30bd 5841 4c3c 0cbc f13c
00000050: 82c8 6abd 8b34 ae3d 2ab8 473d 888c 793c
00000060: 2de2 ac3d e40b c83c 63d1 8fbd 00a1 cd3c
00000070: 80a1 c73a fe78 173d c8bf b6bc aab7 5a3d
00000080: b8fb 94bd 9427 153d fe20 54bd 60f6 97bb
00000090: 2877 04bc f2a6 43bd 143c f9bc 2e34 42bd
000000a0: 77fb 923d a47b 82bc 502a 5dbc a8f4 c73c
000000b0: c820 c0bc 8440 8ebd 8ad8 543d 5c00 6bbd
000000c0: 4026 d03a c58e 993d 6059 39bb 200a a6bd
000000d0: 5085 c9bc 5e42 d9bc 7e99 4a3d 9803 53bc
000000e0: 7037 80bc edb5 853d 9009 9dbd 7381 9bbd
000000f0: 2ec2 4c3d 2239 613d 515b a03d c079 2c3c
00000100: 88fd 14bc a2df 173d e060 8fbd 42c3 2a3d
00000110: b7b6 b0bd a61a 44bd de15 39bd 40db 2fbb
00000120: c063 a93c 3d2d 4dbd b135 a9bd 02dd febc
00000130: a244 7b3d f175 a13d 7213 4cbd 85c5 b43d
00000140: 9800 abbd 9d07 8a3d 4351 09bd b48b c0bc
00000150: c356 843d a0ac b8bb 551e 8dbd 380b 84bd
00000160: e803 a8bc a0a6 433c 5ee6 b3bd 6034 9abc
00000170: 5bc8 acbd 1f31 a73d cc6c d53c 6904 b33d
00000180: 4f92 b2bd d749 b43d 10d1 f13b ea40 5c3d
00000190: 10c6 70bc 09bd ad3d 7a08 6c3d 3170 5cbd
000001a0: 66c7 1b3d 1068 a6bc e89f 4cbd aab5 5b3d
000001b0: cd57 1abd 92bc 173d ecf1 00bd 2f1d 843d
000001c0: 8247 5b3d 6ea7 a5bd 1ed2 a8bd f02a e03b
000001d0: 7494 debc de52 293d 0da8 56bd fa6d f0bc
000001e0: c46c 3fbd e0fc d63b 0081 0e3a a1b4 a43d
000001f0: 2cd7 06bd 13bd 9d3d 24eb e33c 52f0 abbd
00000200: 25cf 8d3d 1e2e 5d3d 6353 69bd 4057 c73a
00000210: b0d0 8dbb b753 76bd 846f a9bd fd67 803d
00000220: 449e 73bd 6336 9b3d 1170 a5bd a19d 833d
00000230: f222 2e3d e178 ad3d 02c8 90bd 80db 6bbb
00000240: 4042 6b3b 3d31 923d ac48 a13c fcc4 d53c
00000250: 7814 11bc ead7 2abd b0ff f3bc 0080 873b
00000260: d810 34bd e4e0 9e3c c116 34bd 3479 f03c
00000270: efd1 a83d e876 1bbd e02e a3bc 4068 3f3b
00000280: d1af 843d f769 8b3d e446 9abc 70c9 c9bb
00000290: a6e6 3c3d 1ec9 89bd 8417 b93c e07d 7cbb
000002a0: 1064 cc3c b0d0 b8bc 8604 7d3d f918 80bd
000002b0: d63c 613d 802b 84bd 9c0f dc3c d21b e8bc
000002c0: f06a d23b 80bd 2eba 9d63 843d 80c8 f2ba
000002d0: 31d0 953d 80fa bc3c c65e 86bd d876 5fbc
000002e0: b79d b1bd 4c38 19bd 9638 243d e681 283d
000002f0: 7928 37bd c4a7 873c 09ec a43d 25bc 863d
00000300: 80d7 c5bc fc58 ba3c 4c39 843c b6ab 5f3d
00000310: 1976 59bd c01f 82bc 3366 873d 8813 6cbd
00000320: 186e fbbc c47b cdbc 03e8 a53d b52f a23d
00000330: e13c 24bd 3557 a03d 7f84 02bd 6117 48bd
00000340: 0e4f f1bc 64cb d53c 2fa1 863d 6a0e 723d
00000350: 8e8d 563d 5c99 bdbc d360 3abd a8c3 843c
00000360: 7c07 a2bc c0cf 55bc 4045 e03b c4ac fb3c
00000370: d6aa 0c3d 7660 7b3d bc33 c13c 82bb b4bd
00000380: a21d 91bd 4034 80bd b8e7 96bd 3b88 943d
00000390: c3e6 9c3d 4190 963d a11a 85bd 86ec 583d
000003a0: 00d7 49bb ec8b b4bc 4f8c 41bd a451 a13c
000003b0: deab 103d 7bbe 913d 465c 273d df26 2cbd
000003c0: 809d 23bb eaf0 6f3d 6814 5bbc 9ee1 16bd
000003d0: dd8a 9b3d a1bf a63d 8846 c9bc 54e6 b6bc
000003e0: 0bff b4bd 5b64 56bd 3bb6 a93d 3a6f 5c3d
000003f0: b6cb 9cbd 746f dcbc 403b afbd a835 a6bc
0.055496328 -0.041825846 -0.07093212 -0.0066159666 0.0054923445 0.017494977 -0.07879381 0.010430418
0.08707159 -0.047637496 0.06721292 -0.0675853 0.053866185 0.052600287 -0.05432558 -0.009614199
-0.079015054 -0.042982347 0.012466751 0.029508613 -0.057320125 0.085061155 0.048759617 0.015231259
0.08441577 0.024419732 -0.07022359 0.025101185 0.0015230626 0.03698062 -0.022308245 0.053397812
-0.07274574 0.036414698 -0.051789276 -0.0046375245 -0.00808505 -0.047766633 -0.030424155 -0.047413044
0.07176869 -0.015928097 -0.013498858 0.024408653 -0.023453131 -0.06945899 0.05196432 -0.05737339
0.001588054 0.07497934 -0.0028282031 -0.081074 -0.024599701 -0.026520904 0.049462788 -0.012879275
-0.015651435 0.0652884 -0.076678395 -0.0759305 0.04998987 0.054986127 0.07829917 0.010527074
-0.00909365 0.037078507 -0.07000899 0.04169012 -0.086286 -0.047876976 -0.04518687 -0.0026833564
0.020677447 -0.05009197 -0.08262194 -0.031111244 0.06134475 0.07883824 -0.049823232 0.08826736
-0.083497226 0.06739733 -0.033524763 -0.023504116 0.06461861 -0.005635813 -0.06890551 -0.06447452
-0.020509675 0.011941582 -0.087841734 -0.018823802 -0.08436652 0.08163666 0.026052855 0.087410755
-0.087193124 0.08803146 0.0073796585 0.053772844 -0.014695659 0.08483321 0.05762527 -0.05381793
0.038031958 -0.020313293 -0.049957186 0.053640045 -0.03768139 0.03704507 -0.031480715 0.06450879
0.053534992 -0.08088575 -0.08243202 0.006841056 -0.027170397 0.041338794 -0.05240636 -0.029349316
-0.046734586 0.006560907 0.00054360926 0.08042265 -0.032920048 0.07702079 0.027822085 -0.08395447
0.06924275 0.05399906 -0.05696429 0.0015208498 -0.004327856 -0.06013843 -0.08273223 0.06269834
-0.059477106 0.07578733 -0.080780156 0.0642655 0.042513795 0.084703214 -0.070693985 -0.0035988986
0.0035897642 0.07138298 0.019687973 0.026094906 -0.008854978 -0.041709818 -0.029785007 0.004135132
-0.043961376 0.019394346 -0.043967012 0.02935467 0.08243167 -0.037955195 -0.019919813 0.0029206425
0.06478847 0.068073206 -0.018832631 -0.0061580464 0.0461184 -0.06727813 0.022594221 -0.0038527176
0.024950057 -0.022560447 0.061771892 -0.06254763 0.05498966 -0.064536095 0.026862912 -0.028333578
0.0064214393 -0.0006665811 0.06464312 -0.0018522888 0.073151 0.023068666 -0.06561045 -0.013639174
-0.0867266 -0.037407205 0.040093027 0.041139506 -0.044716332 0.01655949 0.08052833 0.065788545
-0.02415061 0.02274751 0.016140603 0.054607116 -0.053091142 -0.01588428 0.0661129 -0.057635814
-0.030692145 -0.02508343 0.08100893 0.07919256 -0.04009712 0.078291334 -0.03186464 -0.04885042
-0.029456642 0.02609796 0.06573712 0.059095778 0.05238109 -0.023144417 -0.045502495 0.016206577
-0.01977896 -0.01305002 0.0068441927 0.03072203 0.03434261 0.06137129 0.02358424 -0.08824827
-0.0708573 -0.06259966 -0.073684156 0.072525464 0.07661202 0.07351733 -0.0649922 0.05295994
-0.0030798316 -0.022039376 -0.04725295 0.01969225 0.035320155 0.071164094 0.040859483 -0.042029258
-0.0024965703 0.058579363 -0.013371564 -0.03683626 0.075948454 0.08142019 -0.024569765 -0.022326626
-0.08837708 -0.0523418 0.08286711 0.05381701 -0.07656042 -0.026908614 -0.08556223 -0.020289257

bias f4 [32]
00000000: 6a2d 423d 7e5e 333d 927c 423d 90dd a9bd
00000010: 0009 bcb9 0003 b13a d08b b9bc a51c aabd
00000020: 8006 aa3b b6d9 733d 405c 6e3c 80a5 3cba
00000030: 5146 b1bd 3e21 263d 7cbd 15bd a722 adbd
00000040: d015 593c d035 683c a062 39bc 0080 903b
00000050: e2b2 3a3d 4052 0ebb c81f 08bc bf3c 63bd
00000060: efc4 49bd 9389 8a3d e467 bc3c fee9 6fbd
00000070: 7839 5dbc 5657 423d 3040 fe3b f308 3bbd
0.04740659 0.043791287 0.04748208 -0.08294213 -0.0003586486 0.0013504922 -0.022649676 -0.08306245
0.005188763 0.059533797 0.014548361 -0.0007196292 -0.0865599 0.040559046 -0.03655766 -0.08453875
0.013249829 0.014172986 -0.011315018 0.00440979 0.045580752 -0.0021716505 -0.0083083585 -0.055477854
-0.049260076 0.067645214 0.022998758 -0.05857276 -0.013502471 0.04744657 0.0077591166 -0.04566283
