MOEmodels/rowModel_4.pt (torch, 95275 bytes, 12 tensors)

weight f4 [4, 1, 3, 3]
0	0x3e01d332	0.12678221
1	0xbc498980	-0.012300849
2	0xbd3dc040	-0.046325922
3	0xbe6c79b6	-0.23093304
4	0x3e6bc11a	0.23022881
5	0x3bc98640	0.006150037
6	0xbe6b2bab	-0.22965877
7	0xbdb67f56	-0.08911006
8	0xbdafbffc	-0.0858154
9	0x3c577e20	0.013152629
10	0x3e678216	0.22608218
11	0x3e647f8e	0.22314283
12	0xbe15fff3	-0.14648418
13	0x3db57c90	0.08861649
14	0x3e9be6bb	0.3044947
15	0xbe79541b	-0.2434849
16	0x3db00420	0.08594537
17	0x3e6676e2	0.22506288
18	0xbe24e8ee	-0.1610448
19	0x3e34887a	0.17630187
20	0xbe9e0e6b	-0.30870375
21	0x3e8b29b9	0.2718027
22	0xbe5ae1ee	-0.21375248
23	0xbe7183c0	-0.23585415
24	0xbc6ce860	-0.014459699
25	0xbe81a16a	-0.25318462
26	0xbd7276d8	-0.05919537
27	0x3e2d77e2	0.16940263
28	0x3e8d75ab	0.27628836
29	0x3cfb7a70	0.030698031
30	0x3e287b20	0.16453218
31	0xbe17dbd6	-0.14829955
32	0x3e6f326a	0.23359075
33	0xbea02faa	-0.31286365
34	0x3c2006a0	0.0097672045
35	0x3e108c7e	0.14116094

bias f4 [4]
0	0xbde57826	-0.11204557
1	0xbdc2422c	-0.094852775
2	0xbe72001b	-0.23632853
3	0x3dbcf870	0.09227073

weight f4 [8, 4, 3, 3]
0	0x3e0e2101	0.13879777
1	0x3d4adb84	0.049525753
2	0xbdeee0e6	-0.1166399
3	0x3d10a09c	0.03530942
4	0x3dcebaa2	0.10094191
5	0xbd365f90	-0.04452473
6	0x3d440934	0.04786034
7	0x3d9ae722	0.07563616
8	0xbe0fb23e	-0.14032838
9	0x3dbd8d3e	0.092554554
10	0xbdec3536	-0.11533587
11	0xbd7c3ea6	-0.061583184
12	0xbd1a033c	-0.03760074
13	0x3d7a3ad4	0.06109126
14	0xbcc21fe0	-0.02369684
15	0x3dd3284a	0.10310419
16	0x3dab1df2	0.08355321
17	0x3bfdf5e0	0.007750258
18	0xbd66c910	-0.056344092
19	0xbdc4425e	-0.09582971
20	0x3d8ef162	0.06979634
21	0x3bbf9280	0.0058463216
22	0x3d5009b0	0.05079049
23	0xbb996760	-0.0046815127
24	0x3e085dbd	0.13317008
25	0x3d8410ca	0.06448515
26	0xbdd09f3e	-0.10186623
27	0xbdb412cb	-0.08792647
28	0x3d9f383e	0.07774399
29	0xbe190433	-0.14943008
30	0x3e027779	0.12740888
31	0x3d81c210	0.063358426
32	0x3dbc3642	0.09190036
33	0x3e24ee5b	0.1610655
34	0xbca66920	-0.0203138
35	0x3ca19280	0.019723177
36	0x3a2ed400	0.00066691637
37	0xbbe5f420	-0.0070176274
38	0x3e04d949	0.12973513
39	0x3d8c1752	0.068403855
40	0xbd0606a0	-0.03272116
41	0xbd35b456	-0.044361435
42	0xbda7b100	-0.08188057
43	0xbd9abe93	-0.075558804
44	0xbc43e3c0	-0.011956155
45	0x3c6a1f00	0.014289618
46	0x3e176f71	0.14788605
47	0x3c5e4f50	0.013568714
48	0x3e21a715	0.15786393
49	0xbda582e6	-0.080816075
50	0x3e28a207	0.16468059
51	0x3db1ac8a	0.08675487
52	0xbd72efe6	-0.059310816
53	0xbda36ef3	-0.07980146
54	0x3e228d1f	0.15874146
55	0x3db603c2	0.088874355
56	0xbcf92f00	-0.03041792
57	0x3dbd7622	0.09251048
58	0x3d983340	0.0743165
59	0x3cdf26b8	0.027240142
60	0xbd34d860	-0.044151664
61	0xbd55c490	-0.05218941
62	0x3e1cd33d	0.15314956
63	0xbc8026e8	-0.015643552
64	0xbcf83380	-0.030297995
65	0xbc22d9b0	-0.009939596
66	0xbe0969f4	-0.13419324
67	0x3d698c30	0.05701846
68	0x3c35c190	0.011093512
69	0xbd98abe0	-0.074546576
70	0x3d250b1c	0.040293798
71	0x3c6c7e00	0.014434338
72	0x3d484400	0.048892975
73	0xbda3cb7b	-0.07997795
74	0xbd00fcdc	-0.031491145
75	0x3c27e8f0	0.010248408
76	0xbe1238ef	-0.14279531
77	0xbd1251c4	-0.03572251
78	0xbda3d4eb	-0.07999595
79	0x3e01802b	0.12646548
80	0xbdbc5c43	-0.09197285
81	0x3d80ec90	0.06295121
82	0x3e003e41	0.12523748
83	0x3e0dd06d	0.1384904
84	0xbe2488f4	-0.16067868
85	0xbc8a7160	-0.016899765
86	0x3e1e0e35	0.15435107
87	0xbddce79b	-0.10786363
88	0xbe161b37	-0.14658819
89	0xbd2906cc	-0.041266248
90	0x3e1dec69	0.15422215
91	0xbe0750fa	-0.13214484
92	0xbe1330c2	-0.14374068
93	0x3d92bd86	0.07165055
94	0xbc4ed950	-0.0126250535
95	0xbdddfcb3	-0.10839214
96	0x3e19b449	0.1501018
97	0x3df2df1a	0.118589595
98	0x3dd71052	0.1050116
99	0xbe118faf	-0.14214967
100	0xbc0e73f0	-0.008694634
101	0xbd980b26	-0.074240014
102	0x3d86cf32	0.06582488
103	0xbe28fedf	-0.16503476
104	0x3dd3f542	0.103495136
105	0xbb20fe00	-0.0024565458
106	0xbcc5ee08	-0.024161354
107	0xbd358c86	-0.044323467
108	0x3de5cc8a	0.11220653
109	0xbd44b016	-0.04801949
110	0x3dbd0a82	0.0923052
111	0xbd9aa8c3	-0.0755172
112	0xbdfdc90b	-0.123918615
113	0x3db45b0a	0.08806427
114	0xbcdf1f00	-0.027236462
115	0xbe0d0616	-0.13771853
116	0x3d246cc0	0.040142775
117	0x3dba1efe	0.090879425
118	0xbd8ce9e0	-0.068805456
119	0xbdbeb178	-0.09311193
120	0x3d3bc5f4	0.04584308
121	0xbe1f01b6	-0.15527996
122	0xbc9a9458	-0.018869564
123	0x3d98f84a	0.074692324
124	0xbd599280	-0.05311823
125	0xbddefcb6	-0.108880445
126	0x3d57cba0	0.052684426
127	0x3c4a0bd0	0.012331918
128	0x3daac2d6	0.08337943
129	0xbca2c658	-0.019869968
130	0xbc30bd70	-0.010787353
131	0xbdc1d586	-0.094645545
132	0xbe0a01b0	-0.13477206
133	0xbda06e70	-0.07833564
134	0xbd116a2c	-0.035501644
135	0x3dec7e0a	0.115474775
136	0x3b8986a0	0.0041969568
137	0x3dea2a52	0.11433853
138	0x3ca69660	0.020335376
139	0x3ce30eb8	0.02771698
140	0xbd22e550	-0.03976947
141	0x3e26d9f1	0.16294076
142	0xbdb85c56	-0.09001987
143	0x3d25106c	0.040298864
144	0xbd5303fc	-0.05151747
145	0x3e155265	0.14582212
146	0x3dc9e992	0.09859003
147	0x3d24ce84	0.04023601
148	0x3e1f936b	0.15583579
149	0x3da3f89a	0.08006401
150	0x3e0b7353	0.13618211
151	0x3cdd4bb8	0.027013645
152	0x3d1ab42c	0.03776948
153	0x3c2f75b0	0.010709211
154	0xbdcdfd68	-0.10058099
155	0x3e218f29	0.15777268
156	0x3e1cce13	0.15312986
157	0x3c820958	0.015873596
158	0xbdf3856b	-0.11890682
159	0x3c956340	0.018235803
160	0x3d81b1fe	0.063327774
161	0xbe20b557	-0.15694176
162	0x3b79f6c0	0.003814146
163	0x3db5ce3a	0.08877225
164	0x3ca131b8	0.019677028
165	0x3e28fae1	0.16501953
166	0x3dfdc65a	0.12391348
167	0xbdd13ae0	-0.10216308
168	0x3bbbfb60	0.0057367533
169	0x3c23b210	0.009991184
170	0xbe1d01ec	-0.15332764
171	0xbc161630	-0.009160563
172	0x3e19e3d9	0.15028323
173	0xbd08661c	-0.033300504
174	0x3df49266	0.11941986
175	0xbe045e32	-0.12926558
176	0x3dbd4706	0.09242062
177	0xbe005e2e	-0.12535927
178	0x3dd8c6b2	0.10584773
179	0x3de18fd2	0.1101376
180	0xbda275b6	-0.07932608
181	0x3e25859d	0.1616425
182	0xbd1c8bf4	-0.038219407
183	0xbddcb2c0	-0.10776281
184	0xbe17b2bb	-0.14814274
185	0xbc008350	-0.007843807
186	0xbc87c278	-0.016572222
187	0xbe1ec60e	-0.1550524
188	0xbd8ca073	-0.06866541
189	0x3e035dff	0.12828825
190	0xbda475f8	-0.08030313
191	0x3e1220cb	0.14270322
192	0xbdfdae20	-0.12386727
193	0xbcd7f2f8	-0.026360974
194	0xbd7a4526	-0.0611011
195	0x3d904dc8	0.070460856
196	0xbe26674b	-0.1625034
197	0xbd6f50bc	-0.058426604
198	0xbdde6126	-0.10858373
199	0xbd810e88	-0.063016
200	0xbda0c8e6	-0.07850818
201	0x3c60d090	0.0137216
202	0xbdd6e553	-0.10492959
203	0x3dad170a	0.0845166
204	0x3e1b649f	0.15175103
205	0xbd6a5800	-0.05721283
206	0x3d601da4	0.054715768
207	0x3dc6f58e	0.097148046
208	0xbdb939f3	-0.09044256
209	0x3e148acd	0.14506073
210	0x3d26942c	0.04066865
211	0xbe1a429f	-0.15064476
212	0x3da22582	0.0791731
213	0xbe170d66	-0.14751205
214	0xbe108ca7	-0.14116155
215	0x3c809780	0.01569724
216	0xbc15a390	-0.009133235
217	0x3e270b7b	0.16312973
218	0x3e12e26f	0.1434419
219	0xbdf12c96	-0.11776082
220	0x3e1f83cd	0.15577622
221	0x3d194a94	0.03742464
222	0xbdb7aa36	-0.08968012
223	0xbd48b28c	-0.0489984
224	0xbd8243f3	-0.063606165
225	0xbc5a9a10	-0.013342395
226	0x3e1dff9b	0.15429537
227	0xbe278aeb	-0.16361587
228	0xbe0742da	-0.13209096
229	0xbd3b0160	-0.04565561
230	0xbddc3ff6	-0.10754387
231	0x3d921ab6	0.07134001
232	0xbdfe10d3	-0.12405553
233	0xbda29a9b	-0.07939645
234	0x3ac0bc80	0.0014704615
235	0x3e24bc4f	0.16087459
236	0xbdad0feb	-0.08450302
237	0x3e0371a5	0.1283632
238	0xbe1fbc54	-0.15599185
239	0xbe1764bb	-0.1478452
240	0x3d96db4a	0.07366045
241	0x3cb910a0	0.022590935
242	0xba57a700	-0.0008226484
243	0xbcb708c8	-0.022343054
244	0xbdefc710	-0.1170789
245	0xbd0d56d0	-0.03450662
246	0xbe05f1da	-0.1308054
247	0x3e1a8cdd	0.15092798
248	0x3e000335	0.12501223
249	0x3c653240	0.013989031
250	0x3dd4c752	0.1038958
251	0xbdd044eb	-0.10169395
252	0xbd310260	-0.043215156
253	0xbdccc423	-0.099983476
254	0xbc8d9b78	-0.017286047
255	0xbdedf183	-0.1161833

bias f4 [8]
0	0xbd3d8e80	-0.046278477
1	0x3cba60c0	0.022751212
2	0x3e279115	0.16363938
3	0xbde468be	-0.111527905
4	0x3d4aeff4	0.049545243
5	0xbde54643	-0.11195042
6	0x3d1104d4	0.035404995
7	0xbd1495a0	-0.036275506

weight f4 [8, 8, 3, 3]
0	0x3dc0a255	0.094059624
1	0x3d04877e	0.032355778
2	0xbdd5ed71	-0.10445679
3	0x3d3858be	0.045006506
4	0x3c24c928	0.010057725
5	0xbbe07030	-0.0068493113
6	0x3d9aacbd	0.075524785
7	0xbc591968	-0.013250686
8	0x3ca2d38c	0.019876264
9	0xbd2caa0e	-0.042154364
10	0xbd997e72	-0.07494821
11	0xbdb24756	-0.087050125
12	0xbd769858	-0.06020388
13	0x3ce80f24	0.028327532
14	0xbc88bb9c	-0.016691022
15	0xbd2d2e26	-0.04228034
16	0x3de6097f	0.1123228
17	0xb9e62200	-0.0004389435
18	0x3d6010b6	0.054703437
19	0xbd2a5b36	-0.04159089
20	0xbc21a148	-0.009865113
21	0xbcc0cb50	-0.023534447
22	0xbddd0306	-0.10791592
23	0xbd1f111e	-0.038834684
24	0xbc80bc10	-0.015714675
25	0x3d8204c9	0.06348569
26	0x3d4d3a96	0.0501047
27	0xbda709f4	-0.08156195
28	0xbd5445ec	-0.051824495
29	0xbd97338a	-0.07382877
30	0x3ce87374	0.028375365
31	0xbd0306da	-0.031988956
32	0xbd3bfb58	-0.045893997
33	0xbde2903c	-0.11062667
34	0xbc86ff24	-0.016479082
35	0xbd76d812	-0.060264654
36	0xbddc5238	-0.107578695
37	0x3dc6d103	0.097078346
38	0x3d4dcd16	0.050244413
39	0x3dcabb65	0.09899024
40	0xbdb87954	-0.090075165
41	0x3b92b7c0	0.004477471
42	0x3d558b66	0.052134894
43	0x3da6f551	0.08152259
44	0xbdd98096	-0.10620229
45	0x3dbf7fe5	0.09350566
46	0x3d77d82a	0.060508884
47	0x3d93fd5b	0.07226058
48	0x3d06d252	0.03291542
49	0xbc7acfb8	-0.015308313
50	0x3d373db6	0.044736587
51	0x3dd53e15	0.10412232
52	0x3c56e898	0.013116978
53	0xbd1c2062	-0.03811682
54	0xbdcbd484	-0.099526435
55	0x3d9843e1	0.07434822
56	0x3d025186	0.031816028
57	0xbda09d0f	-0.078424565
58	0x3d8da055	0.069153465
59	0x3dca0ef1	0.09866131
60	0x3dd6a99f	0.104815714
61	0x3d539e9e	0.05166494
62	0xbd6e00e7	-0.05810633
63	0xbdaf23c2	-0.08551742
64	0xbd3f8f24	-0.04676737
65	0xbc15fab8	-0.009154014
66	0xbca3b98c	-0.019985937
67	0x3c95870c	0.018252872
68	0x3dcd463d	0.100231625
69	0xbc77cfa0	-0.015125185
70	0xbd569d6a	-0.052396215
71	0x3d1f2eda	0.03886304
72	0x3c80b674	0.015712
73	0x3d8b34e7	0.067972
74	0x3da35ccd	0.07976685
75	0x3dde786b	0.10862812
76	0xbde1ce61	-0.11025692
77	0x3d590892	0.05298669
78	0x3d44ce6e	0.04804843
79	0x3d8c456d	0.068491794
80	0x3b6f2fe0	0.0036497042
81	0xbda273f4	-0.079322726
82	0x3dcff2a1	0.101537
83	0xbde10a73	-0.10988321
84	0xbdbe0c3b	-0.092796765
85	0x3cb36994	0.02190093
86	0x3d1a6c02	0.03770066
87	0xbdd04fcc	-0.1017147
88	0xbdd75810	-0.105148435
89	0x3d8b8f3d	0.0681443
90	0xbcc54a28	-0.024083212
91	0x3dedfe6b	0.11620792
92	0x3daeeb3b	0.085409604
93	0x3d1b7af2	0.037959047
94	0xbcdd03ac	-0.02697929
95	0x3d09482a	0.033516087
96	0x3d8a6cc7	0.06759029
97	0xbdc206a2	-0.09473921
98	0x3b9a0440	0.0047002137
99	0x3c7884d8	0.015168391
100	0x3d3046ba	0.0430362
101	0xbdaffd40	-0.085932255
102	0x3ced808c	0.02899196
103	0xbd7b2c89	-0.06132177
104	0xbd892f45	-0.06698469
105	0xbda39ca7	-0.079888634
106	0x3cd355c4	0.025797732
107	0x3da61663	0.08109739
108	0xbcb3e7c0	-0.021961093
109	0xbd6a92b1	-0.057268802
110	0x3bab0a10	0.0052197054
111	0x3d88cc59	0.06679601
112	0xbd3f82a6	-0.046755455
113	0xbdddfa81	-0.108387955
114	0xbdeb1e6f	-0.11480414
115	0xbddb02c7	-0.10693889
116	0xbd857456	-0.0651633
117	0x3de9c8c7	0.11415248
118	0x3d178c42	0.036998995
119	0x3d37825e	0.044802062
120	0x3d650356	0.055911385
121	0xbdbb8eb7	-0.0915808
122	0xbd5eff40	-0.054442644
123	0xbcb3838c	-0.021913312
124	0xbd292346	-0.041293405
125	0xbdcff7a7	-0.10154658
126	0xbd085cdc	-0.033291683
127	0x3d55d7a6	0.05220761
128	0xbd00078c	-0.031257197
129	0xbd3d19de	-0.046167247
130	0xbd5cfe92	-0.053953715
131	0x3d39fdde	0.045408122
132	0x3c433358	0.011914097
133	0xbd24e4e0	-0.040257335
134	0xbda6ad6a	-0.08138545
135	0xbc37a148	-0.011207886
136	0x3dcbb73b	0.09947058
137	0xbda6b5ea	-0.08140166
138	0xbd198d56	-0.037488304
139	0x3d811821	0.0630343
140	0xbca88d84	-0.020575292
141	0xbde371c0	-0.111056805
142	0xbd93dcbe	-0.072198376
143	0x3c8ca7f4	0.01716993
144	0x3bf0aed0	0.007345058
145	0x3d44ab5a	0.048014976
146	0xbcf81e50	-0.030287892
147	0x3c7baf38	0.0153616
148	0x3cfd2654	0.030902065
149	0x3cb62fbc	0.022239558
150	0x3de9fa2d	0.1142467
151	0x3d82478b	0.06361302
152	0xbd832988	-0.06404406
153	0x3dd80ad3	0.105489396
154	0xbdb95564	-0.0904949
155	0xbcc203e4	-0.023683496
156	0xbd85385c	-0.0650489
157	0xbce1fb90	-0.027585775
158	0xbda93a0c	-0.08263025
159	0x3c854b8c	0.016271375
160	0x3df035c5	0.11729006
161	0xbc98e68c	-0.01866462
162	0xbc905388	-0.017617956
163	0xbdbd54bd	-0.09244678
164	0xbdd4687f	-0.103714935
165	0x3c634a68	0.01387272
166	0xbdc5b196	-0.096530125
167	0xbd1b86a6	-0.037970208
168	0x3dd83d09	0.105585165
169	0xbde58250	-0.11206496
170	0x3db7353b	0.089457
171	0x3d074882	0.033028133
172	0xbdebd4c1	-0.11515189
173	0x3d6581c2	0.05603195
174	0xbacfc9c0	-0.0015852973
175	0xbd8dfd26	-0.0693305
176	0x3d0fc01a	0.03509531
177	0x3dc35279	0.09537215
178	0x3d851c8f	0.06499588
179	0x3ddded7d	0.10836313
180	0x3d5ff056	0.05467256
181	0xbd26f1c6	-0.040757917
182	0x3d9c336f	0.07626998
183	0x3ca92fcc	0.020652674
184	0x3cba420c	0.022736572
185	0x3dd37dd5	0.10326735
186	0x3d245732	0.04012222
187	0xbb8a1840	-0.0042143166
188	0x3d35cfe2	0.044387706
189	0xbd8d9377	-0.06912892
190	0x3dca2759	0.09870786
191	0x3de91897	0.11381643
192	0xbd5b0202	-0.05346871
193	0xbd323a54	-0.043512657
194	0x3a0a8400	0.0005283952
195	0x3ca05b9c	0.019574933
196	0x3dc5e953	0.09663644
197	0xbdae8a61	-0.085224874
198	0xbd963109	-0.073335715
199	0xbd543eb4	-0.05181761
200	0xbd137c96	-0.036007486
201	0x3d20784e	0.03917723
202	0xbd78c3b7	-0.060733523
203	0x3d983e8f	0.07433807
204	0xbdd03433	-0.10166206
205	0x3db8f70d	0.09031496
206	0xbd049910	-0.032372534
207	0x3afbec00	0.0019220114
208	0x3d84a997	0.06477659
209	0x3d7d839e	0.061893098
210	0xbd6113f8	-0.054950684
211	0xbcebff34	-0.028808214
212	0xbdeafe71	-0.11474312
213	0x3dd3ea2d	0.103474
214	0x3dab55c1	0.08365966
215	0x3d0801ce	0.033204846
216	0xbd49ddfc	-0.049283966
217	0xbaffd800	-0.0019519329
218	0xbbfdaa70	-0.007741265
219	0xbd4c93bc	-0.049945578
220	0x3d59e60a	0.053197898
221	0x3d56ed26	0.052472256
222	0x3d25c8ba	0.04047463
223	0xbd125182	-0.035722263
224	0x3d05fb8e	0.032710604
225	0x3c225b48	0.009909458
226	0x3c47ab18	0.012186788
227	0xbd6efca6	-0.058346413
228	0x3d23c956	0.03998693
229	0xbd891840	-0.066940784
230	0x3da838ab	0.082139336
231	0x3d6789de	0.056527965
232	0x3ca216b4	0.019786216
233	0x3da7f977	0.082018785
234	0xbd9b1941	-0.07573176
235	0xbd537f60	-0.051635146
236	0x3db542af	0.088506095
237	0x3d5f913e	0.054581873
238	0x3d36c9da	0.044626094
239	0xbd24d468	-0.04024163
240	0xbda8775b	-0.0822589
241	0xbc321ff8	-0.01087188
242	0xba6eb280	-0.0009105578
243	0x3d1abab2	0.037775703
244	0x3d415e22	0.047208913
245	0x3c1922d8	0.009346686
246	0x3cb80734	0.022464372
247	0xbdd0f3f0	-0.102027774
248	0x3da0c4b1	0.07850016
249	0xbcaa1078	-0.020759806
250	0xbdab2d66	-0.083582684
251	0x3db57b6d	0.08861432
252	0x3deb0235	0.1147503
253	0xbdcfa0b0	-0.101380706
254	0xbde74728	-0.11292869
255	0xbc891588	-0.0167339

bias f4 [8]
0	0xbcee3c8c	-0.029081605
1	0xbcf812bc	-0.03028237
2	0x3dca1599	0.09867401
3	0x3dc8a415	0.09796921
4	0x3d5eccc2	0.05439449
5	0xbbe8fd30	-0.0071102604
6	0x3d8bb2c3	0.068212055
7	0x3d8e7dd1	0.06957591

weight f4 [8, 8, 3, 3]
0	0x3d8ec925	0.06971959
1	0xbd87751f	-0.06614136
2	0xbd98fed6	-0.07470481
3	0xbd6d9616	-0.05800446
4	0x3d9f98c5	0.0779281
5	0x3d872045	0.06597952
6	0x3dcaacdf	0.09896254
7	0x3c2d7a58	0.010588251
8	0x3dbc2fd3	0.09188809
9	0xbd9490f4	-0.0725421
10	0x3d194d6e	0.03742736
11	0x3c960614	0.018313445
12	0x3d6a81d2	0.057252713
13	0x3de76ac5	0.112996615
14	0x3dbb1a91	0.091359265
15	0x3d83937f	0.06424617
16	0x3d72a8ba	0.05924294
17	0xbd6947cf	-0.056953248
18	0xbd75e3c4	-0.060031667
19	0xbbdeac60	-0.006795451
20	0xbdd6e52a	-0.10492928
21	0xbc9b42cc	-0.01895275
22	0x3c26bc78	0.01017677
23	0xbda1053c	-0.078623265
24	0x3daf4961	0.08558918
25	0xbd3c1598	-0.04591903
26	0xbd8a4476	-0.06751339
27	0x3dd5d3ef	0.10440814
28	0x3d41ca1e	0.047311895
29	0xbdba05f3	-0.09083166
30	0xbdb549b4	-0.088519484
31	0x3d5dae9e	0.054121606
32	0x3d92e8dd	0.071733214
33	0x3d2f4cf6	0.042798005
34	0x3bdb19d0	0.0066864267
35	0x3d94588d	0.07243452
36	0xbab62580	-0.0013896674
37	0x3da5e945	0.08101133
38	0x3defa0dd	0.11700604
39	0x3dba1b71	0.09087265
40	0x3d81030f	0.062994115
41	0x3ddeb143	0.10873654
42	0x3deaa113	0.11456504
43	0x3caf520c	0.021401428
44	0x3dc5325b	0.09628745
45	0x3d07686e	0.033058576
46	0x3ba7bb80	0.0051187873
47	0x3d544e4a	0.051832475
48	0x3dc4340f	0.09580242
49	0x3dcf3411	0.10117353
50	0x3dc4a4fb	0.0960178
51	0xbd16d7b0	-0.03682679
52	0x3c062908	0.008188494
53	0x3d900da7	0.07033854
54	0x3d8a0d85	0.0674086
55	0x3d9826f1	0.074293025
56	0xbdb0d3aa	-0.08634122
57	0x3c9bcc14	0.01901821
58	0xbd786b14	-0.060648993
59	0x3daa6b17	0.08321207
60	0x3dc51ee1	0.0962503
61	0x3de64a0b	0.11244591
62	0x3dbc040d	0.0918046
63	0x3dcccb4f	0.099997155
64	0xbd0e83f0	-0.034793794
65	0xbd7b755e	-0.061391227
66	0xbcc128c4	-0.023579009
67	0x3c7f5ac8	0.015585609
68	0xbd8aede3	-0.067836545
69	0xbd87ef64	-0.06637457
70	0x3dcbe571	0.09955872
71	0xbd15d884	-0.03658344
72	0x3d7307a6	0.059333466
73	0x3b523e20	0.0032080486
74	0x3d9cba03	0.076526664
75	0xbde5431c	-0.11194441
76	0x3d3f3a36	0.046686374
77	0xbda20d87	-0.079127364
78	0xbcee34e4	-0.029077955
79	0xbd71053d	-0.058842886
80	0xbd2fa9aa	-0.042886414
81	0x3ded825b	0.11597129
82	0xbc8cc4fc	-0.017183773
83	0xbdb8a90d	-0.09016619
84	0xbc1cd1d0	-0.009571508
85	0x3dd01201	0.10159684
86	0x3cd955ac	0.02653011
87	0xba3a4080	-0.0007104948
88	0x3ce3fdcc	0.02783098
89	0xbdc02bfc	-0.09383389
90	0xbd988200	-0.074466705
91	0xbd7b6fdf	-0.061385985
92	0xbd90134a	-0.07034929
93	0xbdc5eb24	-0.0966399
94	0xbcae1b5c	-0.02125328
95	0xbcffe644	-0.031237729
96	0xbca1ce7c	-0.01975178
97	0xbcaf09b4	-0.021366931
98	0xbdaf15e6	-0.08549099
99	0xbdcd22ac	-0.10016379
100	0xbd1a3a1a	-0.037653066
101	0xbcaf44ac	-0.02139505
102	0x3d9f8e9d	0.07790873
103	0xbd421712	-0.047385283
104	0x3d3f19c2	0.046655424
105	0xbdd8bc4e	-0.10582791
106	0x3d4e905e	0.050430648
107	0x3d6436de	0.055716388
108	0xbdd297b3	-0.102828406
109	0xbdb9c74e	-0.090712175
110	0x3c1a3418	0.009411834
111	0xbc4e4cc0	-0.012591541
112	0x3de220df	0.11041426
113	0x3dabe665	0.08393554
114	0x3d1914de	0.037373416
115	0x3cda9634	0.02668295
116	0xbcb0fcf4	-0.021604992
117	0x3da5b201	0.08090592
118	0x3d3fc55e	0.046819083
119	0xbb37a400	-0.0028021336
120	0xbdc63f51	-0.096800454
121	0x3cdc5cf4	0.026899792
122	0xbd6d634a	-0.057956018
123	0xbdc3f26e	-0.09567724
124	0x3ce6f74c	0.028194092
125	0xbc62dd48	-0.013846703
126	0x3d493d72	0.049130864
127	0xbdae4a0a	-0.085102156
128	0xbda23ef2	-0.07922162
129	0xbc278928	-0.010225572
130	0x3d43a842	0.047767885
131	0x3d859f95	0.065245785
132	0xbdce963c	-0.10087249
133	0xbdd9c24f	-0.106327645
134	0x3d4212c6	0.047381185
135	0x3d8ffdff	0.07030868
136	0x3c25e038	0.010124259
137	0x3da466ad	0.08027396
138	0xbdf09959	-0.11747999
139	0x3db5fd63	0.0888622
140	0x3dc9f2d9	0.09860773
141	0xbbba7070	-0.005689673
142	0xbd6f652e	-0.0584461
143	0xbc88b2f4	-0.016686894
144	0xbdc40ef1	-0.09573162
145	0xbcf55320	-0.029946864
146	0xbb836400	-0.0040097237
147	0x3c824a74	0.015904643
148	0x3d46eb4a	0.048564233
149	0xbda4e6ca	-0.08051832
150	0xbde984bf	-0.114022724
151	0x3d89dd27	0.067316346
152	0xbcfe8f58	-0.031074211
153	0xbd2c3bf4	-0.042049363
154	0x3ded8ed9	0.11599512
155	0x3d8be30b	0.068304144
156	0xbd3aaf50	-0.045577347
157	0x3dad1735	0.08451692
158	0x3c686168	0.01418338
159	0x3dbcaf23	0.09213092
160	0x3d9a3dad	0.07531295
161	0xbc372eb8	-0.011180572
162	0x3cee045c	0.029054813
163	0x3d63638a	0.05551485
164	0x3da2597f	0.07927226
165	0xbd161bc6	-0.03664758
166	0xbc036f60	-0.008022159
167	0xbdd5af70	-0.10433853
168	0xbdb30e8b	-0.08743008
169	0x3d2a8136	0.04162713
170	0xbc7ecb10	-0.015551344
171	0x3bd52e60	0.0065057725
172	0x3cc30454	0.023805775
173	0x3c9426d4	0.018084921
174	0xbd83308c	-0.06405744
175	0x3d012ae6	0.03153505
176	0x3dcffc7b	0.10155579
177	0x3cfff55c	0.031244926
178	0x3ced737c	0.028985731
179	0x3dc9f19f	0.09860539
180	0xbd04b1e2	-0.032396205
181	0xbcd95a00	-0.026532173
182	0xbd1e78cc	-0.03868942
183	0x3d04a072	0.032379575
184	0x3db309b9	0.08742089
185	0x3dd3ca29	0.10341293
186	0xbddab433	-0.106789015
187	0x3d52611a	0.051362135
188	0xbd7514ec	-0.059834406
189	0x3dabdbef	0.083915584
190	0x3d9a0761	0.07520939
191	0x3d29adf6	0.041425668
192	0x3d810825	0.063003816
193	0x3d29a3e6	0.04141607
194	0xbdf1391a	-0.117784694
195	0x3cf7ce2c	0.030249678
196	0xbd8b0c6d	-0.067894794
197	0x3d6e024e	0.058107667
198	0xbc7c6e40	-0.015407145
199	0x3d0f1b9e	0.034938447
200	0xbb1fb7c0	-0.0024370998
201	0xbd67cb6e	-0.05659049
202	0x3de83a17	0.11339205
203	0xbbca7ab0	-0.0061791763
204	0xbd25e354	-0.0405
205	0x3c8453cc	0.016153239
206	0xbde796ed	-0.11308084
207	0x3cbe51c4	0.023232348
208	0xbd391fc8	-0.045196325
209	0x3d0c0896	0.034187876
210	0x3dd6b6c9	0.10484082
211	0x3de19b03	0.11015894
212	0x3d6d4eda	0.057936527
213	0xbd634bdd	-0.05549227
214	0xbda59771	-0.08085526
215	0xbdee075b	-0.11622497
216	0x3d3459a2	0.044030793
217	0x3dd84f97	0.105620556
218	0x3d24c882	0.04023028
219	0x3d7359fa	0.05941198
220	0x3dc36b59	0.09541959
221	0xbceac498	-0.028658196
222	0x3db429d5	0.08797041
223	0x3d7c1426	0.061542653
224	0xbd221b4e	-0.03957682
225	0xbdb71f22	-0.08941485
226	0x3da41e5f	0.08013605
227	0x3dcfa3e3	0.10138681
228	0xbd8184e2	-0.063241735
229	0xbdcb156a	-0.09916194
230	0xbd80e7e8	-0.062942326
231	0xbbb19bf0	-0.0054202005
232	0x3d7098aa	0.05873934
233	0xbd5fcffe	-0.054641716
234	0x3d45395e	0.048150413
235	0x3d8c0695	0.06837193
236	0xbd1f2296	-0.038851343
237	0xbd16f8c0	-0.03685832
238	0x3dd94bdd	0.10610173
239	0xbd9d9df8	-0.07696146
240	0x3dcc4533	0.09974136
241	0xbd244148	-0.04010132
242	0xbdd8ab3d	-0.10579536
243	0x3db04ca9	0.08608372
244	0xbdeb1105	-0.114778556
245	0xbd4031ac	-0.04692237
246	0xbdc6fc81	-0.0971613
247	0xbdebeb27	-0.11519461
248	0xbd8f8e6c	-0.07009587
249	0xbd053efa	-0.032530762
250	0x3ccd7b7c	0.025083296
251	0xbddd88d0	-0.108171105
252	0xbdbddaf8	-0.092702806
253	0xbdcb505b	-0.09927436
254	0xbc3c5f28	-0.011497296
255	0x3c0d1328	0.008610524

bias f4 [8]
0	0x3c919a44	0.017773755
1	0xbdd8be3a	-0.10583158
2	0x3dc35047	0.09536796
3	0x3dbf97f1	0.093551524
4	0xbd97c104	-0.07409862
5	0x3db2e539	0.08735127
6	0x3d167f8e	0.03674274
7	0xbc145568	-0.009053566

weight f4 [128, 128]
0	0xbd1cc33a	-0.03827212
1	0xbd868026	-0.06567411
2	0x3d6f6fda	0.05845628
3	0xbcf394da	-0.029734064
4	0xbcf09150	-0.029366165
5	0xbd80cf30	-0.06289518
6	0x3d62696a	0.055276312
7	0x3c5e30a8	0.013561405
8	0xbc15fb60	-0.009154171
9	0xbdaec7b5	-0.08534185
10	0x3d7a1916	0.06105908
11	0x3d3f980a	0.046775855
12	0xbc03a418	-0.0080347285
13	0xbcfc3af0	-0.030789822
14	0x3da82533	0.0821022
15	0x3d3c36ca	0.04595069
16	0x3d90f441	0.07077838
17	0x3d14bfde	0.03631579
18	0xbd9578d4	-0.07298437
19	0xbccebfb0	-0.025237888
20	0x3d9fa763	0.07795598
21	0x3cbeb614	0.023280181
22	0xbd981721	-0.074262865
23	0xbd558275	-0.052126367
24	0xbd99155c	-0.07474777
25	0xbc64abf8	-0.013957016
26	0xbd58fbf4	-0.052974656
27	0x3db242b1	0.087041266
28	0xbd8f9b92	-0.070120946
29	0xbd3da1d2	-0.046296902
30	0xbd271823	-0.040794503
31	0x3d11c778	0.03559062
32	0x3d7e6b66	0.062114142
33	0xbd1ae2c2	-0.03781391
34	0xbd5179c3	-0.05114151
35	0x3d39d792	0.0453716
36	0xbd7fda68	-0.062464148
37	0xbd959bf9	-0.0730514
38	0xbc9a60d0	-0.018844992
39	0xbd896d20	-0.06710267
40	0x3d49815e	0.04919564
41	0xbd4bc185	-0.0497451
42	0x3d9d1f37	0.076719694
43	0x3db25807	0.08708196
44	0x3da37cc5	0.07982782
45	0xbcd9d2d0	-0.026589781
46	0x3d902423	0.070381425
47	0x3daec9bd	0.08534572
48	0x3d2afdca	0.04174594
49	0xbad49f00	-0.0016221702
50	0xbc82c000	-0.015960693
51	0x3d15072a	0.036383785
52	0x3d8bee55	0.068325676
53	0xbd858bc0	-0.06520796
54	0x3bd775b0	0.0065753087
55	0xbd2d1d71	-0.042264406
56	0xbc179668	-0.009252168
57	0x3d51b61a	0.051199056
58	0xbd479337	-0.04872438
59	0x3d6aff8a	0.057372607
60	0x3d5053d6	0.050861202
61	0xbd4546f8	-0.048163384
62	0xbc11bb58	-0.008894764
63	0x3bafa090	0.0053597167
64	0xbb093340	-0.0020935088
65	0xbd4aae75	-0.04948278
66	0xbb3f87e0	-0.0029225275
67	0xbcb831ec	-0.022484742
68	0x3ba86190	0.0051385835
69	0xbb997690	-0.004683323
70	0xbd696db1	-0.056989376
71	0x3ca5595c	0.020184211
72	0x3da55651	0.08073104
73	0x3c657890	0.014005795
74	0x3d7b812e	0.061402492
75	0xbb448620	-0.0029987171
76	0x3d4e66d2	0.050391026
77	0x3d950d6b	0.0727795
78	0xbd9d3a2e	-0.076771125
79	0x3d8023c7	0.06256824
80	0xbd023265	-0.03178634
81	0x3bcb6e00	0.0062081814
82	0xbd643cf0	-0.055722177
83	0xbd52acf5	-0.051434476
84	0x3d5c37f6	0.053764306
85	0xbda2bd38	-0.07946247
86	0xbc06ed68	-0.008235313
87	0xbcdeb0bc	-0.027183883
88	0xbd77a52c	-0.060460255
89	0xbd9313bd	-0.07181499
90	0xbbc766c0	-0.006085247
91	0xbcb36e6c	-0.02190324
92	0xbc667580	-0.0140661
93	0xbd220017	-0.039550867
94	0xbcdce11e	-0.026962813
95	0xbd5d672c	-0.05405347
96	0x3d6b18d2	0.057396717
97	0xbd69da82	-0.05709315
98	0x3c248708	0.01004196
99	0x3d8e7181	0.06955243
100	0xbd55e6fa	-0.05222223
101	0x3d822829	0.06355316
102	0xbd0cc057	-0.034363117
103	0xbd9528bc	-0.0728316
104	0xbd8f21ac	-0.06988844
105	0x3d453fb6	0.048156463
106	0x3d9e9f75	0.07745258
107	0x3cdb89d8	0.026799127
108	0x3d88a483	0.06672003
109	0xbcdda114	-0.027054347
110	0xbd8b30e4	-0.067964345
111	0xbd258264	-0.040407553
112	0xbd115094	-0.035477236
113	0xbdb21d15	-0.08696953
114	0x3d4c697a	0.049905278
115	0x3c9faf90	0.019492894
116	0x3d9b10a1	0.07571531
117	0x3ca39144	0.019966729
118	0x3b9320b0	0.0044899806
119	0xbcc14888	-0.023594156
120	0xbd6eb425	-0.058277268
121	0x3c27eac8	0.010248847
122	0x3d29b2ea	0.04143039
123	0xbcfe09d8	-0.031010553
124	0x3d8f23c1	0.069892414
125	0x3c9c9a7c	0.019116633
126	0xbc222b40	-0.009898007
127	0xbd98b8fd	-0.07457159
128	0x3c3c8cc0	0.011508167
129	0x3ccb8c44	0.024847157
130	0xbc986e1c	-0.018607192
131	0xbd4f291b	-0.05057631
132	0x3d4a6c42	0.04941965
133	0x3cfdda60	0.030987918
134	0x3d9b5e5b	0.07586356
135	0x3d9b62bb	0.07587191
136	0xbd004881	-0.031319145
137	0xbdae4cb8	-0.08510727
138	0xbd2edd0d	-0.04269128
139	0xbd516a92	-0.051127024
140	0xbd98a9ff	-0.07454299
141	0x3d933959	0.071886726
142	0x3c7ca148	0.015419312
143	0x3d853259	0.06503744
144	0x3b9985f0	0.004685156
145	0x3d177c6a	0.036983885
146	0xbcf0c55a	-0.02939098
147	0xbc93dc64	-0.018049426
148	0x3d12b474	0.035816625
149	0xbc1a9040	-0.009433806
150	0xbd0270e0	-0.031845927
151	0xbcf0c72e	-0.029391851
152	0xbdacd1e6	-0.084384724
153	0x3d8d75a3	0.06907203
154	0xbd0ce2a2	-0.03439582
155	0x3d6ef3e6	0.05833807
156	0x3daae13f	0.083437435
157	0x3d2d9dbe	0.042386763
158	0xbd42ad5f	-0.04752862
159	0x3d5cc7e6	0.053901576
160	0x3ce2c6cc	0.027682684
161	0x3db2c8b3	0.087296866
162	0x3db3d4a3	0.087807916
163	0xbcfdbd1a	-0.03097396
164	0x3da2d521	0.07950807
165	0x3d8999c5	0.06718782
166	0x3d13024c	0.035890862
167	0xbc64d5f0	-0.013967022
168	0x3be1d7b0	0.006892167
169	0x3d9306cf	0.07179033
170	0x3d6e6bf6	0.05820843
171	0x3d8410e9	0.06448538
172	0xbccc3e54	-0.024932064
173	0x3c41d448	0.011830397
174	0x3d895b21	0.067068346
175	0x3d324e6a	0.043531813
176	0xbd20b12c	-0.039231464
177	0xbd68552e	-0.05672186
178	0x3d1ab196	0.037767015
179	0x3c4245c0	0.01185745
180	0xbd39c64a	-0.04535512
181	0xbdb09b04	-0.08623317
182	0xbd3b4371	-0.045718614
183	0x3c124780	0.00892818
184	0xbbb92480	-0.005650103
185	0x3d15d478	0.03657958
186	0xbc7af620	-0.01531747
187	0x3db0cf6f	0.08633315
188	0xbd05fd4f	-0.032712277
189	0x3bfe58b0	0.007762037
190	0x3d830cbd	0.06398914
191	0xbd4c5811	-0.049888674
192	0x3da04969	0.07826502
193	0x3d7a6542	0.061131723
194	0xbcf36108	-0.029709354
195	0xbda846b6	-0.08216612
196	0xbd9f40ca	-0.077760294
197	0x3c727a00	0.014799595
198	0xbd609fd0	-0.05483991
199	0xbdb32a9a	-0.0874836
200	0xbd3153ca	-0.043292798
201	0xbd4306fc	-0.047614083
202	0x3cdfb69c	0.027308755
203	0x3d4cc442	0.049991854
204	0xbd96cd51	-0.0736338
205	0x3d93b3c1	0.0721202
206	0xbd6fb4bc	-0.05852197
207	0x3daa755d	0.083231665
208	0x3d489e56	0.048979126
209	0x3b1f4b40	0.0024306327
210	0x3d39a4c6	0.045323156
211	0xbc9021c4	-0.017594226
212	0xbda23c2d	-0.07921634
213	0x3d7fdd3a	0.062466837
214	0xbd44d504	-0.04805471
215	0xbbd55ce0	-0.0065113157
216	0xbcf98be4	-0.030462213
217	0xbd8f32cc	-0.069921106
218	0xbcf05978	-0.029339537
219	0xbd0e320e	-0.034715705
220	0xbd914c8e	-0.0709468
221	0x3c0a3a60	0.008436769
222	0xbd3f489d	-0.04670011
223	0xbdb20746	-0.086927935
224	0xbc2f35c8	-0.010693975
225	0xbd97353f	-0.07383203
226	0xbda95709	-0.08268554
227	0xbdb1368c	-0.08652982
228	0xbb070d40	-0.0020607263
229	0xbd8b1021	-0.06790186
230	0x3c8d9ba0	0.017286122
231	0xbd69b4bc	-0.057057127
232	0x3bd360f0	0.006450765
233	0x3d8a739d	0.06760333
234	0x3d14272a	0.036170162
235	0x3d8e16bf	0.06937932
236	0xbd244c20	-0.04011166
237	0x3d04637e	0.032321446
238	0xbd828e75	-0.06374828
239	0xbd87c349	-0.066290446
240	0xbd57b956	-0.052666984
241	0xba146300	-0.0005660504
242	0xbda01695	-0.07816807
243	0xbd84e3ec	-0.06488785
244	0xbd7efbae	-0.06225174
245	0x3b24c260	0.002514027
246	0x3d54b572	0.051930852
247	0xbcb57348	-0.022149697
248	0xbdb35d8f	-0.08758079
249	0x3d2ab40e	0.04167562
250	0x3d7e3cf2	0.06206984
251	0xbd90017a	-0.07031532
252	0xbc0e5db0	-0.008689329
253	0xbd3d16df	-0.04616439
254	0xbd9eca08	-0.07753378
255	0xbd29c9aa	-0.041452087

bias f4 [128]
0	0xbb50db80	-0.0031869113
1	0x3d5d204a	0.05398587
2	0xbd98f4b9	-0.07468552
3	0xbd59dcdc	-0.053189144
4	0xbd2fccf6	-0.042920075
5	0xbd11862d	-0.03552835
6	0xbc027eb0	-0.007964775
7	0x3cd1a2f4	0.025590397
8	0x3d9c0605	0.07618336
9	0x3d8387e9	0.06422407
10	0xbd8e807a	-0.06958099
11	0xbd6bcd4c	-0.057568833
12	0x3b9d4660	0.004799649
13	0x3d5f42b2	0.054506965
14	0xbb86dea0	-0.0041158944
15	0xbd464b2f	-0.048411544
16	0x3d1b73d2	0.03795225
17	0xbcdf4124	-0.027252741
18	0x3a68d080	0.00088811666
19	0xbd27f2b3	-0.04100294
20	0x3bc6d020	0.006067291
21	0xbd07f4a8	-0.033192307
22	0xbd975b49	-0.07390458
23	0x3d111db8	0.035428733
24	0xbdb346d1	-0.087537415
25	0xbcbde314	-0.023179568
26	0xbd1c21a7	-0.03811803
27	0xbd60ef57	-0.054915752
28	0x3d8c7243	0.06857731
29	0xbcf41f50	-0.029800087
30	0x3c93a6d0	0.018023878
31	0xbd62dc2e	-0.05538576
32	0x3d8d868d	0.06910429
33	0x3d3b7996	0.04577025
34	0xbaf13840	-0.0018403605
35	0x3db40389	0.08789737
36	0xbd72f3f4	-0.059314683
37	0xbd8aad79	-0.067713685
38	0x3d48667a	0.048925854
39	0xbd9e2cb8	-0.07723373
40	0x3dae390d	0.08506975
41	0x3d6d103e	0.057876818
42	0x3d5739d2	0.052545376
43	0x3d84e31b	0.064886294
44	0x3d97e947	0.07417541
45	0xbc90e1e0	-0.01768583
46	0xbc767418	-0.015042327
47	0x3c478578	0.0121778175
48	0x3d80ff1f	0.062986605
49	0x3d6d90da	0.05799947
50	0x3d85a9a9	0.06526501
51	0x3d8319bf	0.06401395
52	0x3d5dc1d2	0.05413992
53	0xbcbc55dc	-0.02299016
54	0x3cd3fc60	0.025877178
55	0xbcc004a0	-0.023439705
56	0xbc4adae8	-0.012381293
57	0x3c945e0c	0.018111251
58	0x3d65c6f2	0.056097932
59	0x3c916f90	0.017753392
60	0xbd09eb47	-0.033671644
61	0x3cfef924	0.031124659
62	0x3d630d1e	0.05543243
63	0x3d95e60d	0.07319269
64	0x3d99301b	0.074798785
65	0xbd6e81d8	-0.058229297
66	0x3d2f8ae2	0.04285706
67	0x3c4e2d80	0.01258409
68	0xbd6bf2d4	-0.057604626
69	0xbc37a210	-0.011208072
70	0x3cc02cb4	0.023458816
71	0xbcfdc52c	-0.030977808
72	0x3d251c92	0.04031045
73	0xbd1db840	-0.038505793
74	0x3da6f3b9	0.08151955
75	0xbca441c8	-0.020050898
76	0x3cc43f5c	0.023955993
77	0xbd2b606e	-0.04184001
78	0xbd7e4a48	-0.06208256
79	0xbd9b1d2d	-0.07573924
80	0x3da9cf57	0.082915
81	0xbda277f1	-0.07933033
82	0x3d8bf6b7	0.068341665
83	0x3c5f28e0	0.013620585
84	0x3d89dfd1	0.06732143
85	0xbc656218	-0.014000438
86	0xbd8abe59	-0.06774587
87	0x3cca35f0	0.024683923
88	0x3d8e2fc9	0.06942708
89	0xbdafd9e0	-0.08586478
90	0x3d860033	0.06543007
91	0x3d8d8ba5	0.06911401
92	0x3d9970af	0.07492196
93	0x3c1fa408	0.009743698
94	0x3c891e3c	0.01673805
95	0xbd1ef5d7	-0.03880867
96	0xb9be2e00	-0.00036273897
97	0xbdb0fe26	-0.08642225
98	0xbdb34731	-0.08753813
99	0x3c5dfff0	0.01354979
100	0xbc734a18	-0.014849208
101	0x3d06d9b6	0.03292247
102	0xbcace05c	-0.021103077
103	0xbd8dd3f9	-0.06925196
104	0x3daff1a5	0.08591012
105	0x3d95ba09	0.07310874
106	0x3c722a88	0.014780648
107	0xbbea97c0	-0.0071592033
108	0xbcc58a0c	-0.024113677
109	0x3d543226	0.051805638
110	0xbd6dd63a	-0.05806563
111	0x3d7684fa	0.06018541
112	0x3cb16ccc	0.021658324
113	0x3cac9058	0.021064922
114	0xbd7f08d6	-0.062264286
115	0xbd2b847b	-0.04187439
116	0x3d9dab03	0.076986335
117	0xbd551f82	-0.052032
118	0xbd3d711b	-0.046250444
119	0x3d72e09a	0.059296228
120	0x3daaac05	0.08333591
121	0x3d9b89e9	0.07594664
122	0xbda4d58f	-0.080485456
123	0x3cd8ef3c	0.026481263
124	0x3d6f14f2	0.058369584
125	0x3da1ed17	0.079065494
126	0xbc240078	-0.010009877
127	0xbd42e6d0	-0.0475834

weight f4 [32, 128]
0	0xbb99cc80	-0.0046935678
1	0xbda9a96e	-0.08284269
2	0xbb7fa280	-0.003900677
3	0x3d6db016	0.058029257
4	0x3d78ce2a	0.06074349
5	0x3d55e89e	0.052223794
6	0x3d8fc3c9	0.07019765
7	0x3d1fc33a	0.039004542
8	0xbc711eb8	-0.014716797
9	0xbd219304	-0.039446846
10	0x3d5c23ce	0.053745084
11	0xbd202eb4	-0.03910704
12	0x3dae0a29	0.08498032
13	0xbc922cf4	-0.017843701
14	0x3a9f9e00	0.0012177825
15	0xbcb8e30c	-0.022569202
16	0xbbb17000	-0.005414963
17	0x3d5dcc86	0.054150127
18	0xbcec06da	-0.02881186
19	0x3bd75790	0.0065717176
20	0xbd3a4e57	-0.045484867
21	0xbda4a544	-0.080393344
22	0x3cc84774	0.024448134
23	0x3c422350	0.0118492395
24	0xbc036ee0	-0.00802204
25	0xbd4054ba	-0.0469558
26	0xbd105a95	-0.035242636
27	0x3d25d786	0.040488742
28	0x3d4f99fa	0.050683953
29	0xbd974d8d	-0.073878385
30	0xbc4c8b98	-0.012484454
31	0x3d8d5fb5	0.0690302
32	0xbd8ac4b2	-0.06775798
33	0xbb3019a0	-0.0026870742
34	0xbd9efe27	-0.077633195
35	0xbd9ed552	-0.07755531
36	0x3c3df028	0.011592902
37	0xbd17076d	-0.036872316
38	0x3da1d9c9	0.07902867
39	0x3d10a4c8	0.035313398
40	0xbd2afb99	-0.04174385
41	0x3d8205e7	0.06348782
42	0x3d8316f7	0.064008646
43	0xbd771e7e	-0.060331814
44	0x3ca965bc	0.020678394
45	0xbd9fef93	-0.07809367
46	0xbda3d3fd	-0.07999418
47	0xbd1ec20b	-0.038759273
48	0xbdace312	-0.08441748
49	0xba305a80	-0.0006727353
50	0x3d0b5852	0.034019776
51	0x3ce5e874	0.028064944
52	0xbce5dd9a	-0.02805977
53	0xbd8dba96	-0.06920354
54	0xbd4de067	-0.050262835
55	0x3d94c477	0.07264035
56	0x3d4c04d2	0.049809285
57	0x3d8ca2e3	0.06867006
58	0x3d946b0f	0.07246982
59	0xbd768208	-0.0601826
60	0x3cfb61dc	0.030686311
61	0xbd31b4da	-0.043385364
62	0x3c8454b8	0.016153678
63	0x3ba0ec80	0.0049110055
64	0xbd878109	-0.066164084
65	0xbdb11295	-0.08646122
66	0x3bb9ef40	0.005674273
67	0xbb3b4ea0	-0.00285808
68	0xbd739b26	-0.059474133
69	0xbcf1d3ba	-0.029519904
70	0x3d8d4d97	0.06899565
71	0xbd49ac1e	-0.04923641
72	0x3c66b348	0.01408083
73	0x3d75a6a2	0.059973367
74	0xbd122c50	-0.03568679
75	0xbd7e0b10	-0.06202227
76	0x3daef469	0.08542711
77	0x3daabc31	0.08336676
78	0xbda9d146	-0.08291869
79	0xbcd6ef3a	-0.026237119
80	0x3d98f917	0.07469385
81	0xbd9a3875	-0.075302996
82	0xbc5a0838	-0.013307624
83	0xbc307460	-0.010769933
84	0xbda58b2c	-0.080831856
85	0xbaf03dc0	-0.001832895
86	0xbd4aa64d	-0.049475003
87	0xbd902083	-0.07037451
88	0xbca561dc	-0.020188265
89	0xbd778d92	-0.060437746
90	0x3cb0c5e4	0.021578737
91	0xbc8891cc	-0.016671084
92	0x3ced2698	0.028949067
93	0x3cbec34c	0.023286484
94	0x3b3a4480	0.0028422177
95	0xbdaa57d5	-0.08317534
96	0xbd0f5b49	-0.034999166
97	0xbd2342c6	-0.039858602
98	0xbb32ddc0	-0.0027292818
99	0xbcc96354	-0.024583496
100	0xbd6b5cd0	-0.05746156
101	0xbd95eb08	-0.07320219
102	0xbda25ec0	-0.079282284
103	0xbda37fb3	-0.07983341
104	0xbd8738d2	-0.066026345
105	0xbcaf9404	-0.021432884
106	0xbb491500	-0.0030682683
107	0x3d87676d	0.06611524
108	0xbcd0fe98	-0.025512025
109	0x3af972c0	0.001903139
110	0xbd585ad3	-0.05282099
111	0xbd8eacf3	-0.06966581
112	0xbd9821b6	-0.07428305
113	0xbd7e8c58	-0.06214556
114	0xbc469ba0	-0.012122065
115	0xbca54d68	-0.020178512
116	0xbd281a52	-0.041040726
117	0x3c410d50	0.011782959
118	0xbcf94c46	-0.030431878
119	0xbd756c7e	-0.05991792
120	0xbd7c78d2	-0.06163866
121	0x3d3a024a	0.04541234
122	0x3da1defd	0.0790386
123	0xbd98cd09	-0.07460982
124	0xbc7623b0	-0.015023157
125	0x3d75adb6	0.059980117
126	0x3c5222e8	0.012825705
127	0xbd260c85	-0.040539283
128	0x3d34a8d6	0.044106327
129	0x3ccae814	0.024768867
130	0xbd2b3004	-0.04179384
131	0xbcf56c68	-0.029958919
132	0xbd81861f	-0.0632441
133	0x3d0c03ce	0.034183316
134	0x39c8c600	0.00038294494
135	0x3ce6db04	0.028180607
136	0x3d8eba63	0.06969144
137	0x3d6750ae	0.056473427
138	0x3da704a9	0.08155186
139	0x3cb5af6c	0.022178374
140	0x3ca41d30	0.020033449
141	0x3d9bfa63	0.07616117
142	0xbd4614a6	-0.048359536
143	0xbc967ec0	-0.018370986
144	0xbc5e56f8	-0.01357054
145	0x3d933b0d	0.071889974
146	0x3ae57f80	0.0017509311
147	0x3d86c5ad	0.065806724
148	0x3d1dba2e	0.038507633
149	0xbc2ccd00	-0.010546923
150	0xbd4ecf24	-0.050490513
151	0xbd0d3ed8	-0.03448376
152	0x3c6dad90	0.014506713
153	0xbbb40e10	-0.0054948404
154	0xbd9660b4	-0.073426634
155	0x3d1744c2	0.036930807
156	0xbcf58ff0	-0.029975861
157	0x3d0d6116	0.034516416
158	0x3cc197c0	0.02363193
159	0x3a9a5c00	0.0011776686
160	0xbc2f5170	-0.010700569
161	0xbd8423ab	-0.064521156
162	0x3daa8943	0.08326962
163	0xbd47685e	-0.048683517
164	0xbd388bc8	-0.04505518
165	0x3d862841	0.065506466
166	0x3cb4ea8c	0.022084497
167	0xbd958d72	-0.07302369
168	0x3d8e439d	0.0694649
169	0xbd6e6515	-0.058201868
170	0x3d7780f6	0.06042572
171	0xbd08b895	-0.033379156
172	0xbd7f7d66	-0.06237545
173	0xbd0af986	-0.03392937
174	0xbcc6f174	-0.024285056
175	0xbd96c41a	-0.07361622
176	0xbc25d0f0	-0.010120615
177	0x3da83987	0.082140975
178	0xbd99abab	-0.07503446
179	0xbd0c60ca	-0.034271993
180	0x3c5b8080	0.013397336
181	0xbd800607	-0.062511496
182	0x3d82224b	0.06354197
183	0xbd7e11ec	-0.06202881
184	0xbdb0a3ea	-0.08625014
185	0xbd3c23f8	-0.04593274
186	0xbd611276	-0.054949246
187	0xbd99e000	-0.07513428
188	0x3d66fcaa	0.056393303
189	0xbd4edd78	-0.050504178
190	0xbdafb99c	-0.08580324
191	0x3d4c2b0a	0.049845733
192	0x3d968ba3	0.07350852
193	0x3c349dd0	0.011023954
194	0xbd96bbfd	-0.07360075
195	0x3d3fa10a	0.04678444
196	0xbd9a53fc	-0.0753555
197	0x3d3c7b36	0.04601594
198	0xbc64e940	-0.013971627
199	0x3d601912	0.05471141
200	0x3cc83e48	0.02444376
201	0x3cdf99dc	0.027295046
202	0xbd379f99	-0.04482994
203	0x3d41e90e	0.0473414
204	0x3d543282	0.05180598
205	0xbdb479c2	-0.08812286
206	0xbd70c00e	-0.058776908
207	0xbcefb0de	-0.029259142
208	0x3d97e6bf	0.07417058
209	0x3d89f5ab	0.067363106
210	0x3d1b9dee	0.03799241
211	0xbd9f376c	-0.07774243
212	0xbc06c2f0	-0.008225188
213	0xbd92fe22	-0.07177378
214	0x3dae26dd	0.08503506
215	0x3d5ff8a6	0.05468049
216	0x3d78e776	0.060767613
217	0x3b67a660	0.003534697
218	0x3daab0dd	0.08334515
219	0xbc286918	-0.010278963
220	0xbcf9385e	-0.030422386
221	0xbda56ee5	-0.08077792
222	0xba334400	-0.0006838441
223	0x3d2193be	0.03944754
224	0xbda8f0cf	-0.082490556
225	0xbccf8d94	-0.025336064
226	0xbc479bc8	-0.012183137
227	0xbbec9c90	-0.007220812
228	0xbd9481d0	-0.07251322
229	0xbd8b3c15	-0.06798569
230	0xbd888978	-0.06666845
231	0x3d165ba6	0.036708497
232	0xbc11ec70	-0.008906469
233	0x3b2714c0	0.0025494546
234	0xbd7b8026	-0.06140151
235	0x3c5745e0	0.013139218
236	0xbcfc5f48	-0.030807152
237	0xbdac35c4	-0.084086925
238	0xbb8b42f0	-0.004249923
239	0xbccf6b78	-0.0253198
240	0x3d536586	0.051610492
241	0x3d8dbda1	0.069209345
242	0x3d63231a	0.055453397
243	0x3cfb76a0	0.030696213
244	0x3ce09094	0.02741269
245	0x3b09fb80	0.0021054447
246	0x3d492a8e	0.04911285
247	0x3c450d08	0.012027033
248	0x3c94e6d8	0.018176481
249	0xbdacd3b8	-0.0843882
250	0x3c4f2600	0.012643337
251	0x3d51a5be	0.051183455
252	0x3c191c50	0.009345129
253	0x3c62b180	0.013836265
254	0x3db44a07	0.08803182
255	0x3d7afbd2	0.06127531

bias f4 [32]
0	0x3d2837e2	0.04106892
1	0xbd9a7a09	-0.075428076
2	0xbd027699	-0.031851385
3	0xbda876d0	-0.08225787
4	0x3cdd7ebc	0.02703797
5	0x3c8abd94	0.016936101
6	0x3db3387d	0.08751009
7	0xbc791dd0	-0.015204862
8	0x3d8ac467	0.06775742
9	0x3d06d730	0.032920063
10	0xbc94daf0	-0.018170804
11	0x3d78c85a	0.060737945
12	0xbd71c612	-0.059026785
13	0x3d9aee1f	0.07564949
14	0xbd4f1b00	-0.05056286
15	0xbbae77a0	-0.005324319
16	0x3d5b998e	0.053613238
17	0x3be6a2d0	0.0070384517
18	0x3d894205	0.06702045
19	0xbbe5d6e0	-0.0070141405
20	0x3da632c7	0.08115154
21	0xbd220c08	-0.039562255
22	0xbcd7fe8e	-0.026366498
23	0xbc081c28	-0.008307494
24	0x3d26e28e	0.040743403
25	0xbd98a6c6	-0.074536845
26	0xbd28c697	-0.041205015
27	0x3ca74974	0.020420767
28	0x3d943249	0.07236154
29	0xbd817296	-0.06320684
30	0x3d8e1afd	0.06938741
31	0x3c9dfbc4	0.01928509
