MOEmodels/rowModel_1.pt (torch, 95275 bytes, 12 tensors)

weight f4 [4, 1, 3, 3]
0.07730174 -0.04979384 0.2253789 -0.020298243 0.1833441 0.114650995 -0.18821745 0.24801818
-0.17558388 -0.1515923 0.115971446 -0.15144424 0.12613198 -0.21988416 -0.18234472 -0.15373056
-0.28494403 0.23588076 0.10005486 0.25125924 0.18989196 -0.2159122 0.13741091 -0.22358887
-0.21961924 0.25173715 -0.2429868 0.14129785 -0.32204407 -0.055749148 -0.26174963 -0.26418304
-0.15596175 0.25763306 0.10317853 -0.099215
00000000: 6050 9e3d a0f4 4bbd bac9 663e 8048 a6bc
00000010: 8ebe 3b3e 24ce ea3d 13bc 40be 7af8 7d3e
00000020: 43cc 33be 033b 1bbe 7082 ed3d 3314 1bbe
00000030: be28 013e 5029 61be 93b8 3abe 8b6b 1dbe
00000040: 2fe4 91be ba8a 713e 90e9 cc3d 0da5 803e
00000050: 0a73 423e 1618 5dbe 72b5 0c3e 7bf4 64be
00000060: dee3 60be b1e3 803e 88d1 78be 62b0 103e
00000070: f6e2 a4be 3859 64bd 0c04 86be 0043 87be
00000080: 70b4 1fbe 7be8 833e 444f d33d 3c31 cbbd

bias f4 [4]
0.17542818 -0.26699173 -0.10982704 -0.1822474
00000000: 72a3 333e 24b3 88be 00ed e0bd 109f 3abe

weight f4 [8, 4, 3, 3]
0.063736156 -0.05049354 0.105943576 -0.03401643 0.14675172 0.0754938 0.09720014 0.14970173
0.018621385 0.037543103 -0.0571364 -0.07003379 -0.04162246 -0.07937356 -0.086360216 -0.029757306
-0.060378656 -0.15372372 -0.042789124 -0.07146301 -0.056229077 -0.015447557 -0.10918133 0.111782745
-0.03069152 0.12532194 -0.1616504 -0.088493966 -0.056838572 -0.063918814 0.032145754 0.07967579
-0.13243398 -0.12724939 0.05354832 -0.021570042 -0.11799072 0.11959039 0.09974374 -0.14986472
0.032387257 -0.03164698 -0.040908277 -0.03230621 0.092209384 -0.11644499 0.020349488 0.1046191
0.12465815 0.14457692 -0.076234385 -0.04447131 -0.068458974 0.09525634 0.067587554 -0.15789776
-0.16177109 0.021438912 0.091677144 0.0636912 -0.15281157 -0.113466166 -0.1132974 0.09805514
-0.06557576 -0.108273946 -0.00010626018 0.120130435 0.13658328 -0.09762798 -0.04384792 0.15085723
-0.054614663 0.061608016 0.024312854 -0.1362054 0.06596656 0.008672535 0.12379034 -0.03955932
-0.1107322 0.05853732 -0.06498073 0.14684333 -0.12013577 0.15453209 -0.13411152 0.0586835
-0.0037880987 -0.011708334 -0.13796592 0.0029951185 0.11142306 -0.019830212 0.16550554 0.16307141
0.06993608 -0.095078826 -0.0775743 0.045579538 0.13481756 -0.11767571 0.10646196 0.086532876
-0.14011279 -0.015424192 -0.05225019 -0.16406511 0.05395013 0.09300025 0.08658604 -0.006122485
0.10414593 -0.015672565 0.015350565 0.09066315 -0.06574474 -0.15201055 -0.16139174 0.089156404
0.12344818 -0.10028069 -0.12944648 -0.0009889454 -0.07933307 0.15719868 0.03949727 0.09354265
0.062840864 -0.067464694 0.014892116 0.14651428 -0.116225526 0.0087304115 -0.09620126 0.06830464
-0.11539982 0.104803994 -0.030730188 0.031889483 0.028225526 -0.14310378 -0.1532573 0.11374529
-0.14765243 -0.013078451 -0.1042577 0.07917112 0.017844021 0.11347453 0.16355814 -0.05942434
-0.032785043 0.07132821 0.052090406 -0.061387323 0.04481435 -0.011576131 -0.123124346 -0.16141741
-0.15812564 0.1342666 -0.10089396 0.07780206 0.043355748 -0.057616852 -0.017253458 0.07922731
0.028068602 0.0843638 0.024800912 -0.08336278 -0.14452843 0.011151686 -0.06460788 0.1266699
0.076359525 -0.095068775 0.04960616 -0.056619868 -0.06330204 0.06722742 -0.02538912 -0.12437326
-0.058177173 -0.050376043 0.15588208 0.05754429 0.030525327 -0.02476801 0.04288347 -0.103389084
-0.10683851 0.103186145 -0.10652151 -0.08843361 0.0037069172 -0.08021033 0.09278776 -0.07297176
-0.08010646 0.15151419 -0.079139255 -0.10238191 -0.14586577 -0.08125137 -0.1218894 0.14075233
0.052178666 -0.02534537 0.16102584 -0.13281886 0.13645844 -0.13361457 0.023202613 -0.11285597
-0.08146773 -0.021941245 0.061628148 0.15592103 0.16220845 -0.0063036233 -0.12035142 0.121362105
-0.019844875 0.1350017 0.12519495 -0.04664032 0.13742407 0.03766267 -0.16479819 0.07138693
0.014876142 0.15024804 0.14858492 -0.12133052 0.13838337 0.002036646 -0.03311269 0.027277187
0.03178908 0.13413136 -0.14125445 -0.01399146 -0.03835547 0.10853024 0.07979798 -0.040623665
0.071846664 -0.13951676 0.009143829 -0.011558831 -0.018076122 0.016478494 -0.15811126 -0.1662403
00000000: 1a88 823d 50d2 4ebd f2f8 d83d d054 0bbd
00000010: 1546 163e 7e9c 9a3d de10 c73d 694b 193e
00000020: e08b 983c ccc6 193d dc07 6abd e06d 8fbd
00000030: 507c 2abd 9b8e a2bd a0dd b0bd 98c5 f3bc
00000040: 9c4f 77bd c069 1dbe a643 2fbd 335b 92bd
00000050: 7650 66bd c017 7dbc 769a dfbd 5aee e43d
00000060: c86c fbbc 6554 003e af87 25be 533c b5bd
00000070: 90cf 68bd dee7 82bd 44ab 033d 102d a33d
00000080: c69c 07be aa4d 02be 7c55 5b3d a8b3 b0bc
00000090: 1ea5 f1bd ceeb f43d 7246 cc3d 2376 19be
000000a0: 80a8 043d 44a0 01bd 708f 27bd 8453 04bd
000000b0: 46d8 bc3d b67a eebd f8b3 a63c 8a42 d63d
000000c0: c64c ff3d f90b 143e c620 9cbd 8c27 36bd
000000d0: 3834 8cbd c215 c33d 586b 8a3d f3af 21be
000000e0: 52a7 25be a8a0 af3c 3ac1 bb3d 8870 823d
000000f0: a37a 1cbe f360 e8bd 7808 e8bd 22d1 c83d
00000100: 964c 86bd bbbe ddbd 00d8 deb8 f206 f63d
00000110: 7ddc 0b3e 2ef1 c7bd e099 33bd 517a 1a3e
00000120: a0b3 5fbd b058 7c3d c02b c73c 6e79 0bbe
00000130: 7a19 873d 4017 0e3c ca85 fd3d f408 22bd
00000140: 90c7 e2bd d4c4 6f3d 9e14 85bd 195e 163e
00000150: be09 f6bd a93d 1e3e 8854 09be 1c5e 703d
00000160: c041 78bb 50d4 3fbc f046 0dbe c049 443b
00000170: c631 e43d f872 a2bc 497a 293e 31fc 263e
00000180: a63a 8f3d b0b8 c2bd 46df 9ebd 9cb1 3a3d
00000190: 9d0d 0a3e f6ff f0bd ba08 da3d 2638 b13d
000001a0: ba79 0fbe c0b5 7cbc 4c04 56bd af00 28be
000001b0: d0fa 5c3d ea76 be3d 0654 b13d 209f c8bb
000001c0: 764a d53d c063 80bc f080 7b3c 9aad b93d
000001d0: 2ea5 86bd a7a8 1bbe e043 25be a297 b63d
000001e0: 66d2 fc3d f65f cdbd 9e8d 04be 809f 81ba
000001f0: 6079 a2bd b1f8 203e e4c7 213d 4a93 bf3d
00000200: b6b2 803d ee2a 8abd 10fe 733c d707 163e
00000210: a607 eebd 000a 0f3c 2b05 c5bd 4ee3 8b3d
00000220: be56 ecbd 7aa3 d63d e0bd fbbc 8c9e 023d
00000230: 3839 e73c cc89 12be 7bef 1cbe 4af3 e83d
00000240: 3332 17be 0047 56bc 1085 d5bd 7824 a23d
00000250: a02d 923c 5665 e83d c97b 273e f066 73bd
00000260: 9c49 06bd 8614 923d c05c 553d 4671 7bbd
00000270: 408f 373d d0a9 3dbc 9e28 fcbd 9b4a 25be
00000280: b0eb 21be 2f7d 093e 7ea1 cebd b056 9f3d
00000290: cc95 313d a6ff 6bbd 2057 8dbc ee41 a23d
000002a0: 20f0 e53c eec6 ac3d 482b cb3c 1bba aabd
000002b0: 43ff 13be 90b5 363c 2351 84bd c1b5 013e
000002c0: 6262 9c3d 6bb3 c2bd d42f 4b3d 3cea 67bd
000002d0: 80a4 81bd 88ae 893d d8fc cfbc 68b7 febd
000002e0: 304b 6ebd 1c57 4ebd 8d9f 1f3e 90b3 6b3d
000002f0: 4010 fa3c 48e6 cabc 94a6 2f3d a8bd d3bd
00000300: 26ce dabd 4253 d33d f327 dabd ae1c b5bd
00000310: c0ef 723b 5045 a4bd 8207 be3d 3872 95bd
00000320: db0e a4bd 8926 1b3e c313 a2bd 9bad d1bd
00000330: d65d 15be 1e67 a6bd 26a1 f9bd 6121 103e
00000340: 4cb9 553d 18a1 cfbc f5e3 243e ab01 08be
00000350: c3bb 0b3e 42d2 08be 6813 be3c 0821 e7bd
00000360: 8ed8 a6bd 20be b3bc cc6d 7c3d c3a9 1f3e
00000370: f919 263e a08e cebb ce7a f6bd b28c f83d
00000380: b891 a2bc e33d 0a3e 1b33 003e ec09 3fbd
00000390: e5b8 0c3e 2c44 1a3d dbc0 28be 5033 923d
000003a0: 10bb 733c 9fda 193e a526 183e 237c f8bd
000003b0: 5fb4 0d3e 4079 053b 2ca1 07bd 6874 df3c
000003c0: 4435 023d bb59 093e 02a5 10be 703c 65bc
000003d0: a01a 1dbd 1a45 de3d 206d a33d 0065 26bd
000003e0: 5824 933d 7bdd 0ebe 00d0 153c 4061 3dbc
000003f0: 6014 94bc e8fd 863c ebe7 21be e63a 2abe

bias f4 [8]
0.11827685 -0.037186548 0.12555398 0.0708458 -0.06056623 0.03376949 -0.035359964 -0.11371603
00000000: 223b f23d ec50 18bd 3991 003e 9a17 913d
00000010: 4c14 78bd e051 0a3d 9cd5 10bd f3e3 e8bd

weight f4 [8, 8, 3, 3]
0.09096771 0.0019885898 -0.09507226 -0.111506246 -0.038058013 0.01335191 -0.07769745 -0.04687307
-0.036461323 -0.03107848 0.06352123 -0.06180588 0.038815103 0.095817186 0.03081014 -0.070577934
0.0981374 0.012290247 -0.09179363 0.020348407 -0.08879842 -0.10591483 0.032624386 0.095340304
0.05462707 -0.0154132545 0.07154844 0.06335155 0.080457695 -0.04148496 0.03422775 0.028114058
-0.022710621 0.06576022 0.057153277 0.0024196059 -0.09413713 -0.05797893 -0.031609282 0.018395714
0.11433654 -0.000767678 0.01871065 0.07707452 -0.042972982 -0.07993157 -0.117058024 -0.09946109
-0.099728465 -0.006522067 0.065648384 0.03871555 -0.0068360046 0.06823764 -0.096245155 0.08944578
-0.06694986 -0.033593044 -0.03621143 0.008700974 -0.08017695 -0.015608899 0.049811773 0.10880401
0.095095344 -0.02998016 -0.07553804 -0.050859883 0.028291307 0.097263835 0.063113846 -0.06155387
0.03181701 -0.06883903 -0.018836342 -0.06256521 0.06488789 -0.09838588 0.035388805 0.059922166
-0.08737375 0.020365782 0.11685053 -0.009283885 -0.026077636 -0.08864723 -0.06430647 0.07479007
-0.035257943 0.012990646 -0.022773348 0.06266732 -0.075094625 -0.01471518 0.08757321 0.0922297
0.11738361 0.013774939 -0.0748283 0.056975655 0.11576278 -0.086818054 -0.07772195 -0.03196664
-0.039120734 0.039397337 0.060712628 -0.11423457 0.102316044 -0.076700635 -0.0701219 0.10955759
0.09605483 -0.05341631 -0.0992337 -0.012751348 -0.031804107 -0.10283627 -0.07819408 0.033765145
0.0052111074 0.019700564 0.0081935 0.030644797 -0.07896034 0.0911218 -0.11644303 -0.10909072
0.09577494 0.013839178 -0.041620396 0.07076695 0.00955864 -0.10342831 0.046531446 0.0684854
-0.018872067 0.013629876 0.013311245 0.06216144 -0.10280575 0.06165301 -0.05778798 -0.0047806725
-0.10712254 -0.0305847 -0.10603228 -0.0058598146 -0.07955961 -0.010638371 -0.065468445 0.03621248
0.091702916 0.063703395 0.0057414696 -0.03261114 0.089396365 -0.092963725 0.056391217 0.092474945
-0.038745977 -0.035872124 -0.109726086 -0.10604686 -0.098976195 -0.060138144 -0.043898612 0.10451505
-0.056732792 0.07564426 0.067290194 0.10001234 -0.10581103 0.07237547 0.024686135 0.11488282
0.10434032 -0.032873012 0.0040291697 0.006214693 -0.11492108 0.066698216 -0.06980345 0.11374361
-0.0010467991 0.09513218 0.04570686 -0.064040005 -0.10576847 0.038676552 -0.04320631 -0.06086241
-0.0951216 0.03915488 0.061880074 -0.044630647 -0.01725062 0.045565642 0.08952173 -0.024651103
-0.04459422 0.08032221 0.011401825 0.09122416 0.077070676 -0.033547416 0.015461795 -0.108793095
0.098359026 0.026174612 -0.028914407 0.089687906 -0.066275924 -0.04715798 -0.05845807 -0.07723787
-0.10163825 0.07333734 0.034281813 -0.06872556 0.09719961 -0.034310006 -0.0669734 -0.004974477
0.062459342 0.10701337 -0.012853101 0.095522754 -0.033157 -0.07822655 0.07194743 -0.06680186
0.07478642 0.03819891 0.08045205 0.085000835 -0.07435929 0.07638427 -0.07663442 0.016512044
-0.029078245 -0.048940763 0.030550964 -0.012877911 -0.037230656 -0.08475195 0.08389925 0.077824004
-0.08753419 -0.0953809 -0.08551784 -0.04596617 -0.09407715 0.030681051 -0.091937914 0.00991071
00000000: 474d ba3d 0053 023b 3fb5 c2bd 635d e4bd
00000010: b8e2 1bbd f8c1 5a3c d71f 9fbd fafd 3fbd
00000020: 7858 15bd 4c98 febc 6b17 823d 2a28 7dbd
00000030: 96fc 1e3d cd3b c43d 8c65 fc3c 2a8b 90bd
00000040: 43fc c83d 085d 493c 4cfe bbbd b4b1 a63c
00000050: f2db b5bd e0e9 d8bd 26a1 053d c741 c33d
00000060: a2c0 5f3d e087 7cbc fd87 923d 75be 813d
00000070: 01c7 a43d 22ec 29bd 6632 0c3d 744f e63c
00000080: a00b babc 4bad 863d 8e19 6a3d 4092 1e3b
00000090: f8ca c0bd 517b 6dbd bc78 01bd 9cb2 963c
000000a0: 4729 ea3d 003e 49ba 1447 993c 3fd9 9d3d
000000b0: 7004 30bd 2ab3 a3bd 1ebc efbd 42b2 cbbd
000000c0: 703e ccbd 10b7 d5bb a972 863d 3294 1e3d
000000d0: 9000 e0bb 2dc0 8b3d 2e1c c5bd 592f b73d
000000e0: 021d 89bd dc98 09bd 7052 14bd 888e 0e3c
000000f0: d033 a4bd 78bc 7fbc 6e07 4c3d a3d4 de3d
00000100: 59c1 c23d f498 f5bc b0b3 9abd 7452 50bd
00000110: 2cc3 e73c 4332 c73d d541 813d e91f 7cbd
00000120: 8e52 023d 7afb 8cbd ac4e 9abc 3022 80bd
00000130: f1e3 843d 897e c9bd daf3 103d f270 753d
00000140: 02f1 b2bd 24d6 a63c 554f ef3d 701b 18bc
00000150: c4a0 d5bc ae8c b5bd 1cb3 83bd 892b 993d
00000160: a26a 10bd b8d6 543c 2c8f babc b957 803d
00000170: 36cb 99bd f017 71bc 9559 b33d ede2 bc3d
00000180: d166 f03d 48b0 613c 943f 99bd 4e5f 693d
00000190: 0915 ed3d aacd b1bd b02c 9fbd 74ef 02bd
000001a0: 103d 20bd 1a5f 213d cead 783d d0f3 e9bd
000001b0: 138b d13d 3915 9dbd 129c 8fbd bb5f e03d
000001c0: 65b8 c43d 10cb 5abd 0a3b cbbd 08eb 50bc
000001d0: 0645 02bd d39b d2bd 3824 a0bd 524d 0a3d
000001e0: f0c1 aa3b 1463 a13c 083e 063c cc0a fb3c
000001f0: f5b5 a1bd 119e ba3d af79 eebd f56a dfbd
00000200: a725 c43d b8bd 623c 267a 2abd 43ee 903d
00000210: d89b 1c3c 39d2 d3bd c297 3e3d 1342 8c3d
00000220: 9899 9abc d84f 5f3c 6817 5a3c fe9c 7e3d
00000230: d28b d2bd de87 7c3d 17b3 6cbd 30a7 9cbb
00000240: 1063 dbbd c48c fabc 7427 d9bd b003 c0bb
00000250: 26f0 a2bd 904c 2ebc 5214 86bd 8a53 143d
00000260: bdce bb3d ed76 823d f022 bc3b 4293 05bd
00000270: 7115 b73d c463 bebd 7afa 663d 8163 bd3d
00000280: 1ab4 1ebd a6ee 12bd 12b8 e0bd 192f d9bd
00000290: 08b4 cabd 6a53 76bd 08cf 33bd fd0b d63d
000002a0: a560 68bd 61eb 9a3d 71cf 893d 45d3 cc3d
000002b0: 74b3 d8bd 9739 943d 943a ca3c af47 eb3d
000002c0: 61b0 d53d daa5 06bd 2007 843b a0a4 cb3b
000002d0: be5b ebbd 1399 883d 1cf5 8ebd 69f2 e83d
000002e0: c034 89ba a9d4 c23d 1e37 3b3d 6827 83bd
000002f0: 249d d8bd 4e6b 1e3d 1af9 30bd dd4a 79bd
00000300: 1dcf c2bd de60 203d f675 7d3d a0ce 36bd
00000310: 2c51 8dbc 0aa3 3a3d 2b57 b73d 1cf1 c9bc
00000320: 6ea8 36bd f97f a43d b8ce 3a3c bbd3 ba3d
00000330: 3bd7 9d3d 0469 09bd 7853 7d3c eace debd
00000340: 7570 c93d 246c d63c e8dd ecbc 4bae b73d
00000350: acbb 87bd ba28 41bd bb71 6fbd e32e 9ebd
00000360: b727 d0bd e331 963d 166b 0c3d fdbf 8cbd
00000370: 9710 c73d a688 0cbd 5a29 89bd f000 a3bb
00000380: 5ed5 7f3d d329 db3d d095 52bc 6fa1 c33d
00000390: a2cf 07bd 3e35 a0bd 2d59 933d 6acf 88bd
000003a0: 9f29 993d 7676 1c3d 0bc4 a43d eb14 ae3d
000003b0: af49 98bd 5b6f 9c3d 82f2 9cbd 4444 873c
000003c0: 8035 eebc 1c76 48bd 0446 fa3c e0fd 52bc
000003d0: 2c7f 18bd 6e92 adbd 5fd3 ab3d 3162 9f3d
000003e0: 2045 b3bd 1057 c3bd fa23 afbd 0647 3cbd
000003f0: 85ab c0bd d456 fb3c f249 bcbd 8860 223c

bias f4 [8]
-0.045575522 -0.05396138 -0.05509565 -0.021066874 -0.04206109 -0.018584907 0.090880044 0.05127489
00000000: 66ad 3abd 9c06 5dbd faab 61bd 7094 acbc
00000010: 4048 2cbd 603f 98bc 511f ba3d 9e05 523d

weight f4 [8, 8, 3, 3]
0.012601681 0.0023905262 -0.09862225 -0.020698883 -0.019513652 -0.069135755 0.061491318 0.07845727
0.037190624 -0.006453134 0.002197817 0.026824526 0.10447388 0.112982236 0.09490282 -0.060095
-0.023632005 -0.09186972 0.043945543 0.041687302 -0.005763091 0.07402355 0.09761181 0.09506526
0.07336859 -0.10777986 0.07102079 -0.048944026 0.07407301 0.024265938 -0.115376085 0.006761536
-0.11277145 0.04435525 -0.021835648 0.10780018 0.06300477 0.11649015 -0.08298831 0.024986021
0.07976953 -0.045958683 0.011392079 0.0026841909 -0.09040119 -0.07951281 -0.06974501 -0.026159145
0.05179199 0.07681639 0.08881023 -0.060684256 -0.0908657 0.03164286 -0.023118176 -0.11443483
0.006269358 0.06777654 -0.058112312 -0.06360822 -0.052620202 -0.055148236 0.051220365 -0.011688687
0.10063469 -0.0049582273 -0.103384264 -0.0067455024 -0.08303313 -0.0024863556 0.07736736 0.07686371
0.05760636 -0.009915903 0.098887585 -0.06314103 0.062680505 -0.057818454 -0.027854174 0.027242668
-0.062764555 0.003333591 0.10911635 -0.10322567 0.02111151 0.08855631 -0.08279745 -0.06963648
-0.0059698448 0.023716457 -0.112069815 0.10144437 -0.012807079 -0.019513346 0.06437261 -0.037994318
-0.041200846 0.068517946 -0.0824597 0.10791672 -0.029845238 -0.0058854595 -0.011960402 0.07896196
0.039464064 0.061652295 0.08361446 -0.10725156 -7.215887e-05 0.03226421 -0.09236617 0.09024537
0.012260266 0.08715973 -0.055586606 -0.028164431 -0.096381865 -0.092942625 0.10117058 -0.10103666
-0.006624855 -0.03328844 -0.028662205 -0.041115217 0.07782302 -0.06016078 -0.0072993413 -0.08429158
0.03360533 0.014748596 -0.024489217 -0.011761174 0.10940667 -0.07984909 -0.08115793 0.058681034
-0.000981696 0.0055604726 0.048443206 -0.053573966 0.05737322 -0.023379922 0.1145247 0.022322945
-0.10316087 -0.089272514 -0.0076644197 -0.06082269 -0.032535776 0.020520084 0.051596932 0.059406154
0.03228546 0.0654748 -0.044671588 -0.012182072 -0.014444567 0.07049199 0.07446005 -0.07607863
-0.037058726 -0.044276766 -0.059979223 0.003784299 0.041305773 -0.08731425 0.052537702 -0.0107021555
0.10349969 0.089397945 0.0025420338 0.016772814 0.04737089 -0.06766176 -0.018919721 -0.036774784
0.062034346 -0.06223644 -0.02602274 0.013394795 -0.093650326 -0.036315255 -0.026559621 0.043195732
-0.07248071 -0.07093388 -0.10054704 -0.07089867 -0.052812077 -0.063589126 0.06710977 0.0671879
0.02301728 -0.047052488 0.060631596 -0.06353351 -0.037291646 -0.049921513 -0.0426865 -0.10630784
0.0033684596 0.03701728 0.03993284 0.0051888973 0.11150264 -0.0034151003 0.031675316 0.028642721
0.0795564 0.09982442 0.023092858 0.026364513 0.040728696 0.06714619 -0.07349223 -0.017925858
-0.07715446 -0.021456115 -0.051753506 0.092373185 -0.084697984 -0.058915325 -0.015465714 0.0034983307
-0.08618393 0.0046612844 0.10953704 0.070751466 -0.09940868 -0.07177295 0.015123881 0.057116546
-0.10836386 -0.09790078 -0.060957324 -0.10379823 -0.07042195 0.030666552 0.1168802 0.045637615
-0.028183863 -0.117059246 0.0754342 -0.050799698 0.07486787 0.030933835 -0.027106412 -0.10870292
0.10354743 -0.036732398 0.10936891 -0.08697339 -0.045667842 0.090203054 0.021190815 0.06891803
00000000: 4877 4e3c 60aa 1c3b 76fa c9bd b490 a9bc
00000010: 18db 9fbc 0c97 8dbd 52de 7b3d 35ae a03d
00000020: 3255 183d d074 d3bb 4009 103b 1cbf db3c
00000030: 67f6 d53d 3b63 e73d 695c c23d 2d26 76bd
00000040: e897 c1bc 3126 bcbd 3e00 343d 4ec0 2a3d
00000050: 50d8 bcbb a999 973d b3e8 c73d 93b1 c23d
00000060: 4542 963d b0bb dcbd 5973 913d 8879 48bd
00000070: 97b3 973d 5cc9 c63c 4c4a ecbd e08f dd3b
00000080: b8f4 e6bd daad 353d ace0 b2bc 57c6 dc3d
00000090: a508 813d 6392 ee3d c6f5 a9bd 7caf cc3c
000000a0: 355e a33d 2c3f 3cbd d8a5 3a3c 40e9 2f3b
000000b0: 4224 b9bd 9dd7 a2bd 79d6 8ebd b44b d6bc
000000c0: d623 543d e951 9d3d 23e2 b53d 0e90 78bd
000000d0: cc17 babd f29b 013d 5462 bdbc cf5c eabd
000000e0: 306f cd3b 6dce 8a3d 2d07 6ebd 0745 82bd
000000f0: 4888 57bd 1ee3 61bd 72cc 513d e881 3fbc
00000100: 8f19 ce3d a078 a2bb 21bb d3bd 6009 ddbb
00000110: 460d aabd 20f2 22bb c772 9e3d b96a 9d3d
00000120: a6f4 6b3d 5076 22bc 9385 ca3d 1650 81bd
00000130: a35e 803d 0bd3 6cbd 702e e4bc 042c df3c
00000140: b48a 80bd 6078 5a3b 6578 df3d fb67 d3bd
00000150: 0cf2 ac3c 035d b53d b691 a9bd 929d 8ebd
00000160: b09e c3bb 0449 c23c dc84 e5bd 11c2 cf3d
00000170: c8d4 51bc 74da 9fbc c9d5 833d ee9f 1bbd
00000180: 38c2 28bd 2353 8c3d a2e0 a8bd 7103 dd3d
00000190: 007e f4bc d0da c0bb 90f5 43bc cfb6 a13d
000001a0: 12a5 213d 1e87 7c3d 0f3e ab3d b5a6 dbbd
000001b0: 0054 97b8 7a27 043d 792a bdbd 91d2 b83d
000001c0: 48df 483c cd80 b23d c8ae 63bd 18b9 e6bc
000001d0: db63 c5bd b458 bebd 8532 cf3d 4fec cebd
000001e0: 5015 d9bb 7659 08bd 00cd eabc 6e68 28bd
000001f0: ad61 9f3d 266b 76bd 502f efbb 10a1 acbd
00000200: bea5 093d 18a4 713c 9c9d c8bc f0b1 40bc
00000210: 9b10 e03d eb87 a3bd 2136 a6bd 865b 703d
00000220: 40ac 80ba a034 b63b 626c 463d 6070 5bbd
00000230: 2e00 6b3d 4087 bfbc ed8b ea3d 9cde b63c
00000240: 0246 d3bd 82d4 b6bd d025 fbbb 3721 79bd
00000250: 3c44 05bd bc19 a83c 4e57 533d de53 733d
00000260: c23d 043d a717 863d 8ef9 36bd 5097 47bc
00000270: e8a8 6cbc 1b5e 903d 837e 983d 1dcf 9bbd
00000280: e4ca 17bd 8e5b 35bd c6ac 75bd 0002 783b
00000290: 3e30 293d d0d1 b2bd c631 573d 1858 2fbc
000002a0: a5f7 d33d 4516 b73d 4098 263b 2467 893c
000002b0: fa07 423d 4092 8abd 88fd 9abc 28a1 16bd
000002c0: ba17 7e3d a3eb 7ebd a42d d5bc d875 5b3c
000002d0: becb bfbd 4ebf 14bd 9093 d9bc 02ee 303d
000002e0: c470 94bd c845 91bd 9beb cdbd 5233 91bd
000002f0: 7a51 58bd 043b 82bd d970 893d cf99 893d
00000300: bc8e bc3c 1cba 40bd d658 783d db1d 82bd
00000310: 20bf 18bd 807a 4cbd 0ad8 2ebd edb7 d9bd
00000320: 60c1 5c3b 6e9f 173d 9e90 233d a007 aa3b
00000330: 7f5b e43d e0cf 5fbb fabd 013d 24a4 ea3c
00000340: 77ee a23d bf70 cc3d 3c2d bd3c 64fa d73c
00000350: 22d3 263d f183 893d 1883 96bd 40d9 92bc
00000360: 2803 9ebd bcc4 afbc 7cfb 53bd 272e bd3d
00000370: 2376 adbd 3251 71bd e863 7dbc 4044 653b
00000380: 3381 b0bd b0bd 983b f554 e03d 25e6 903d
00000390: c796 cbbd b2fd 92bd 28ca 773c 0af3 693d
000003a0: dfed ddbd 3480 c8bd 63ae 79bd 2b94 d4bd
000003b0: 6239 90bd 6c38 fb3c e35e ef3d 82ee 3a3d
000003c0: d8e1 e6bc c2bc efbd 3f7d 9a3d 5813 50bd
000003d0: 5354 993d f468 fd3c 440e debc a39f debd
000003e0: ad10 d43d b674 16bd cffc df3d 1b1f b2bd
000003f0: 340e 3bbd 61bc b83d 5c98 ad3c e524 8d3d

bias f4 [8]
-0.0929534 0.09275911 -0.068777815 -0.00649219 -0.08557517 0.07304331 0.07842297 -0.06339226
00000000: 5a5e bebd 7df8 bd3d 62db 8cbd 70bc d4bb
00000010: 0942 afbd bb97 953d 399c a03d cdd3 81bd

weight f4 [128, 128]
0.06178797 -0.00086744875 -0.03578575 -0.024633117 -0.07674414 0.08119746 0.025789723 0.030775987
-0.022011414 0.0113371685 0.019414395 0.046846785 -0.030935459 -0.06379897 -0.07870977 -0.036713466
-0.06704811 -0.02142439 -0.06269947 0.07382957 0.07025155 -0.011588141 0.07539869 -0.027475089
0.07152849 0.076408796 -0.0070686266 -0.04574997 -0.01082132 0.067952074 -0.06326579 -0.07319595
-0.0010999069 -0.0749734 -0.008607142 0.0048235506 0.0013960302 -0.08213018 -0.017417066 0.00625021
-0.06372079 -0.07532002 -0.0604626 -0.067373425 -0.07126659 -0.0708547 -0.0417601 -0.08481084
-0.006065272 -0.045299895 -0.085245624 -0.008645877 0.01940266 0.065357454 -0.007447906 -0.07597719
-0.048841465 -0.014354445 -0.029834267 0.027477235 -0.04263459 0.012249917 0.008415051 -0.06156702
0.020361573 0.08048963 0.052117355 0.08074089 0.021401346 0.056321867 0.018880725 0.008027285
0.029065773 0.019723661 -0.022470199 0.030685067 0.07841074 -0.06350038 -0.0112486705 -0.05299026
-0.023441382 -0.04908641 0.008703165 0.0026194379 -0.036651794 0.084657244 0.024069928 -0.036117435
0.07961226 0.03632401 0.053195693 -0.06465119 0.00025936216 0.04910452 -0.04677473 -0.046814747
-0.018105306 -0.06625518 0.04021602 0.061428107 -0.004368216 -0.084131144 -0.07878609 0.05489815
-0.06357893 0.055202357 0.07320129 0.006672688 -0.06534459 -0.07669746 -0.07458145 -0.08307232
-0.059517726 0.010464095 -0.007963344 -0.02819173 -0.012000695 -0.0676118 -0.051288392 0.021883309
-0.04931848 -0.028862014 -0.031290736 0.04980541 -0.051870663 -0.03378559 0.06959797 -0.028664589
-0.06271021 0.025574192 0.08737933 0.00810314 0.054022677 0.06171722 0.080053695 0.07142628
0.042036302 0.08537183 -0.026552629 -0.055969454 -0.02989341 -0.038633224 -0.045980282 -0.022089206
-0.03568917 0.008955717 -0.05984272 -0.014484122 0.0039688647 -0.05096597 -0.0036822855 -0.04768507
-0.054731328 0.019570418 -0.08172085 0.064129405 0.04626461 -0.03196932 -0.020900264 -0.053885955
-0.025033735 -0.028001238 0.06948594 0.018990472 -0.032318562 0.06071768 -0.053097166 0.060651965
-0.077947326 -0.0408881 -0.06686663 0.053413652 -0.0087924 -0.04399915 -0.042338554 0.03902767
0.054532535 -0.05790801 0.06867657 -0.016825303 0.043394543 -0.06390358 0.043205313 0.04647342
-0.08245695 -0.028795969 0.035285316 -0.006154008 -0.05305186 0.007749401 -0.04322233 0.01376234
-0.028179362 -0.02383338 -0.06187095 -0.04505318 0.038688444 0.011691101 -0.07584435 0.008987963
0.047520347 0.06636854 0.020879619 -0.03364683 0.04202821 0.05207648 0.087130524 0.06968237
0.035600968 -0.03432728 0.022894494 -0.020635739 0.008542821 0.06763851 0.033450343 0.01834122
0.010163985 0.030317105 0.08510665 -0.059714288 0.0840626 -0.0016055703 -0.054947026 0.0082135275
0.04525154 0.049583055 0.06636148 -0.0131979585 -0.08508611 -0.008908495 -0.0700411 -0.0029308945
0.082547255 -0.062257946 0.058942087 -0.0049485117 -0.07233642 0.021321967 -0.06900062 0.08252063
0.04931026 -0.053894155 -0.0883164 0.0054917336 0.06069576 -0.0014801249 0.07648013 -0.07748757
0.064456396 0.016855113 -0.049226537 0.07895174 0.040015362 -0.027547296 0.0014747083 -0.056526225
00000000: 6215 7d3d 8065 63ba 1494 12bd 64cb c9bc
00000010: 082c 9dbd db4a a63d f844 d33c ec1d fc3c
00000020: 4851 b4bc 88bf 393c f00a 9f3c 6ae2 3f3d
00000030: 5c6c fdbc 09a9 82bd 9732 a1bd dc60 16bd
00000040: 8550 89bd 3482 afbc 9468 80bd f533 973d
00000050: 0be0 8f3d 30dc 3dbc a16a 9a3d 7013 e1bc
00000060: 877d 923d 377c 9c3d f09f e7bb 5264 3bbd
00000070: e84b 31bc 752a 8b3d 7f91 81bd c2e7 95bd
00000080: c02a 90ba a78b 99bd f804 0dbc e00e 9e3b
00000090: 00fb b63a de33 a8bd 3cae 8ebc 90ce cc3b
000000a0: 0c80 82bd 6241 9abd a2a7 77bd 14fb 89bd
000000b0: 38f4 91bd 451c 91bd a30c 2bbd 4eb1 adbd
000000c0: 30bf c6bb 628c 39bd 4295 aebd 70a7 0dbc
000000d0: 54f2 9e3c 21da 853d 900d f4bb ee99 9bbd
000000e0: fd0d 48bd e82e 6bbc fe66 f4bc f017 e13c
000000f0: 9ca1 2ebd e0b3 483c 48df 093c b32d 7cbd
00000100: 50cd a63c bfd7 a43d 0279 553d 7b5b a53d
00000110: e051 af3c c2b1 663d c0ab 9a3c e084 033c
00000120: 581b ee3c 8493 a13c 6c13 b8bc 405f fb3c
00000130: cf95 a03d 7d0c 82bd 584c 38bc 510c 59bd
00000140: 2408 c0bc d50e 49bd b897 0e3c e0aa 2b3b
00000150: 3120 16bd c760 ad3d 4c2e c53c e0ef 13bd
00000160: c10b a33d 7cc8 143d bae3 593d d867 84bd
00000170: 00fb 8739 d221 493d dc96 3fbd d2c0 3fbd
00000180: 9451 94bc ccb0 87bd 8eb9 243d 0a9c 7b3d
00000190: 4023 8fbb f34c acbd 9a5a a1bd e2dc 603d
000001a0: ac35 82bd de1b 623d 8fea 953d 90a6 da3b
000001b0: 62d3 85bd 8f13 9dbd 29be 98bd d221 aabd
000001c0: dcc8 73bd 9871 2b3c b078 02bc 58f2 e6bc
000001d0: 909e 44bc 0e78 8abd c713 52bd a044 b33c
000001e0: 2d02 4abd 0870 ecbc b72a 00bd c200 4c3d
000001f0: 5576 54bd c262 0abd 6189 8e3d 00d2 eabc
00000200: 366e 80bd f880 d13c eff3 b23d 08c3 043c
00000210: e246 5d3d 32cb 7c3d 31f3 a33d f147 923d
00000220: 422e 2c3d 6dd7 ae3d e684 d9bc 3a40 65bd
00000230: 06e3 f4bc df3d 1ebd d255 3cbd 6cf4 b4bc
00000240: cf2e 12bd 00bb 123c a41d 75bd d04e 6dbc
00000250: 400d 823b b1c1 50bd 8052 71bb 6c51 43bd
00000260: f52d 60bd 2452 a03c 435d a7bd 4756 833d
00000270: f67f 3d3d 43f2 02bd 0837 abbc 85b7 5cbd
00000280: 8c13 cdbc da62 e5bc a54e 8e3d e891 9b3c
00000290: 7860 04bd 1ab3 783d 6a7c 59bd 326e 783d
000002a0: d9a2 9fbd 487a 27bd 5ff1 88bd 46c8 5a3d
000002b0: 000e 10bc 7438 34bd 316b 2dbd 7adb 1f3d
000002c0: 825d 5f3d f330 6dbd 4da6 8c3d 38d5 89bc
000002d0: 7abe 313d e1df 82bd 0ef8 303d ea5a 3e3d
000002e0: 30df a8bd 86e5 ebbc 5687 103d 90a7 c9bb
000002f0: e84c 59bd b0ee fd3b e609 31bd 707b 613c
00000300: 68d8 e6bc 383e c3bc 656c 7dbd af89 38bd
00000310: c677 1e3d 088c 3f3c 4854 9bbd 4042 133c
00000320: b2a4 423d 3bec 873d bc0b ab3c 42d1 09bd
00000330: c625 2c3d 264e 553d 7d71 b23d a1b5 8e3d
00000340: 52d2 113d c39a 0cbd 3c8d bb3c 480c a9bc
00000350: 30f7 0b3c 0f86 8a3d 3a03 093d 5440 963c
00000360: d886 263c 945b f83c 654c ae3d f896 74bd
00000370: 0329 ac3d 0072 d2ba 2210 61bd 0892 063c
00000380: ae59 393d 9a17 4b3d 87e8 873d 403c 58bc
00000390: a041 aebd f0f4 11bc b571 8fbd 4014 40bb
000003a0: 890e a93d 3002 7fbd 426d 713d 2027 a2bb
000003b0: 1e25 94bd 68ab ae3c 3250 8dbd 9300 a93d
000003c0: 8ef9 493d 1ec0 5cbd 3bdf b4bd 00f4 b33b
000003d0: 1e9c 783d c000 c2ba 9da1 9c3d ceb1 9ebd
000003e0: b701 843d bc13 8a3c c4a1 49bd 73b1 a13d
000003f0: 26e7 233d deaa e1bc 004b c13a 0b88 67bd

bias f4 [128]
0.06266118 -0.08212268 0.08416756 0.06366042 -0.06556027 -0.07891399 -0.058650795 0.06147691
0.007191889 -0.04971992 -0.074965395 0.042086728 0.008437537 -0.050354198 0.057453655 -0.00310044
0.007095009 0.082760505 -0.030282352 0.05184845 0.024709053 -0.06069005 0.014090247 -0.015536889
-0.06260805 -0.047160152 -0.059220314 -0.07586147 -0.0064997897 0.053662203 0.045487083 -0.0004326403
0.0179338 0.082446255 -0.032232918 -0.08667297 0.07715855 0.07773086 -0.07703745 0.01088848
0.05429917 0.01697442 -0.06972799 -0.04494132 -0.04016345 0.007860489 -0.014819451 0.036090493
0.08190965 -0.002797328 0.060918592 -0.051186576 0.041153066 0.023244672 0.013641946 -0.035658225
0.014253274 -0.037672233 0.017742157 -0.031922475 -0.035719655 -0.039713785 0.06271661 0.029382557
-0.042984284 0.017827138 0.030660167 0.083069645 -0.042118706 -0.059807356 0.052041195 0.03593044
0.025866859 0.07054799 0.017461903 0.03642095 -0.04555811 0.026717193 0.08699421 -0.0027137399
0.075901724 -0.04795933 -0.065898806 0.0646014 0.083707 -0.08401359 0.08142435 -0.043696955
-0.039243173 0.03175234 -0.013782248 -0.06190536 -0.0091507435 -0.005963251 -0.0097999945 0.016312465
0.0019528642 0.029679738 -0.04570615 -0.019646578 0.0037537664 -0.016109116 0.07706948 -0.011651158
0.0458078 0.072988264 0.044600286 -0.001804404 0.08044279 -0.036444526 0.058850534 0.061876886
0.080937915 -0.01040747 -0.043840572 0.06234411 -0.066212445 -0.00033020973 0.036281474 -0.07160023
-0.056006964 0.066985 -0.0028046742 0.0584184 -0.038611677 -0.049885567 -0.041852526 -0.021904372
00000000: 8154 803d f02f a8bd 0b60 ac3d 6560 823d
00000010: 7644 86bd a89d a1bd d13b 70bd 36cf 7b3d
00000020: f0a9 eb3b 1da7 4bbd 7587 99bd 2263 2c3d
00000030: 983d 0a3c 3440 4ebd 8654 6b3d c030 4bbb
00000040: 407d e83b 577e a93d b212 f8bc 0a5f 543d
00000050: a46a ca3c 2196 78bd c8da 663c 708e 7ebc
00000060: a638 80bd 012b 41bd 0091 72bd 425d 9bbd
00000070: 30fc d4bb e6cc 5b3d aa50 3a3d 00d4 e2b9
00000080: e8e9 923c 95d9 a83d aa06 04bd 9981 b1bd
00000090: 4d05 9e3d 5b31 9f3d d0c5 9dbd 9865 323c
000000a0: ce68 5e3d f00d 8b3c 8ccd 8ebd 6414 38bd
000000b0: 6e82 24bd 48c9 003c 48cd 72bc a0d3 133d
000000c0: 3fc0 a73d 6053 37bb c685 793d 04a9 51bd
000000d0: 1e90 283d 9c6b be3c 7882 5f3c 5c0e 12bd
000000e0: 9086 693c 334e 1abd 0058 913c 24c1 02bd
000000f0: c64e 12bd ecaa 22bd 9171 803d b0b3 f03c
00000100: 4a10 30bd 380a 923c 082b fb3c 6b20 aa3d
00000110: aa84 2cbd 8ff8 74bd 2629 553d cc2b 133d
00000120: bce6 d33c 777b 903d 440c 8f3c 222e 153d
00000130: 249b 3abd 04de da3c 052a b23d 00d9 31bb
00000140: 5d72 9b3d 0171 44bd f4f5 86bd bd4d 843d
00000150: 936e ab3d 510f acbd cfc1 a63d 94fb 32bd
00000160: 73bd 20bd be0e 023d f0ce 61bc 7a90 7dbd
00000170: 00ed 15bc 6067 c3bb 2890 20bc b8a1 853c
00000180: 40f7 ff3a ec22 f33c 5f36 3bbd dcf1 a0bc
00000190: c001 763b 44f7 83bc 9bd6 9d3d 80e4 3ebc
000001a0: f6a0 3b3d df7a 953d caae 363d c081 ecba
000001b0: 31bf a43d db46 15bd 420d 713d 9e72 7d3d
000001c0: c7c2 a53d 1884 2abc 2c92 33bd 8a5c 7f3d
000001d0: 649a 87bd 0020 adb9 e29b 143d 24a3 92bd
000001e0: 8f67 65bd 6f2f 893d a0ce 37bb 2248 6f3d
000001f0: 4727 1ebd cf54 4cbd 8e6d 2bbd cc70 b3bc

weight f4 [32, 128]
-0.049982894 0.049086668 0.06625768 -0.022948831 -0.026210513 0.0675619 0.054924585 0.079736434
0.024296097 -0.036518063 0.01847317 -0.058413506 -0.009844355 0.07186855 0.021480411 0.021360658
0.0552829 -0.04578553 0.08021083 -0.01913526 0.043184258 0.021897994 -0.0076148957 -0.029689189
0.004018873 0.07082037 -0.036512796 0.053175025 -0.08175802 -0.022836834 -0.020933434 0.07405684
-0.057915352 0.020084709 0.0358383 -0.062176555 0.07903164 -0.02134034 0.07984275 -0.06888726
-0.05960347 -0.08104646 -0.0044279993 0.016282395 -0.001320377 0.007878087 -0.044369355 0.039868243
-0.055879883 -0.07810168 -0.05166624 0.00702516 0.0032195896 0.020710036 -0.051177043 -0.03761762
-0.045616914 0.059863545 0.0016706809 0.03225533 0.033141784 0.001920566 0.087092884 -0.0798457
-0.062163934 0.06320169 -0.063717194 0.035458714 -0.08468065 0.027699225 -0.042250328 -0.05549252
0.022679918 0.024960205 0.05330012 -0.0034429058 0.049248867 -0.0586886 -0.041220535 -0.06027344
-0.060837828 -0.016813472 -0.08188496 -0.01954443 0.04511445 -0.03574549 0.07357036 0.08538834
0.008484401 -0.066542454 -0.04176622 -0.024834111 0.044202514 0.055442594 -0.043394543 -0.04161367
0.07092584 -0.040618498 -0.05984141 -0.066865645 0.0009052828 0.030180275 0.059761994 0.031370446
0.010019295 0.08595342 -0.06145199 -0.0016882792 -0.07503698 0.06243249 -0.032858633 -0.037837155
-0.0056325495 -0.03941646 -0.044855088 0.025975809 -0.07654821 0.08216966 0.058009125 0.06211566
-0.0134508535 -0.03410976 0.03990554 -0.008987859 0.050708435 -0.026108518 -0.00907097 -0.05828768
-0.07784678 0.013770431 0.046187334 0.010444663 -0.06549082 -0.051503353 0.0049711466 -0.042293075
0.020777076 0.04928557 0.07000197 0.07223698 -0.04832881 -0.02537217 -0.086487874 0.021682687
-0.0075408593 0.0352642 -0.013990603 -0.07923795 -0.012397066 0.071879916 0.032657757 -0.008349225
-0.006666243 0.00051289797 0.033456907 0.05925957 -0.009088695 0.002994828 0.048112653 0.07658286
0.07467986 -0.035897218 -0.011291057 0.0036089644 -0.014097169 0.06902354 -0.060948957 0.03502634
-0.07914967 -0.010285191 0.06974388 -0.07781097 -0.013290241 -0.073020786 -0.016547523 0.06690373
-0.056433775 0.08789452 0.06956919 0.047493227 -0.044720925 0.0483234 -0.041879743 0.081812136
0.045031466 -0.032505568 -0.035526283 0.07377585 0.07237875 -0.048346236 0.055267073 0.01570949
0.0055122375 0.07332795 -0.06100826 -0.072668575 -0.018412918 0.026491612 -0.01680401 -0.020336889
-0.07004058 -0.06229083 -0.06505589 0.04728309 -0.037990253 -0.02753497 0.08760061 -0.00934495
-0.0012141839 0.045579977 0.073398255 0.08398173 -0.07599029 0.07600457 0.067502625 0.047314115
0.061982952 0.06523041 -0.0033526272 0.037012346 0.009819478 -0.03560136 0.05261483 0.020948552
0.06577244 -0.07784992 -0.050410032 -0.035033397 0.011618555 -0.05442475 0.035990983 0.04993277
-0.08266557 -0.03944496 0.04055304 0.06851754 -0.079093456 0.078574486 0.0008134991 0.050328307
-0.003595233 0.07967571 0.06540824 0.070177995 0.011477418 0.044939213 0.04159791 -0.013555795
-0.05954981 0.017800607 -0.024275817 -0.039937217 0.006276138 0.0767281 0.079063855 0.08343669
00000000: ddba 4cbd 1a0f 493d 1bb2 873d 30ff bbbc
00000010: 6eb7 d6bc e55d 8a3d 9af8 603d db4c a33d
00000020: 9c08 c73c f793 15bd 0c55 973c 0043 6fbd
00000030: 384a 21bc d12f 933d b0f7 af3c 8cfc ae3c
00000040: 5270 623d 9c89 3bbd 9345 a43d 8cc1 9cbc
00000050: fae1 303d 6c63 b33c 6086 f9bb be36 f3bc
00000060: c0b0 833b 450a 913d 718e 15bd 0ece 593d
00000070: c070 a7bd 5014 bbbc 987c abbc 1dab 973d
00000080: a638 6dbd b088 a43c 2ecb 123d d8ac 7ebd
00000090: 57db a13d f0d1 aebc 9984 a33d c414 8dbd
000000a0: c522 74bd b0fb a5bd c018 91bb a862 853c
000000b0: 8010 adba 1813 013c a4bc 35bd e24c 233d
000000c0: 4ee2 64bd c6f3 9fbd fb9f 53bd 5033 e63b
000000d0: c0ff 523b 18a8 a93c 059f 51bd ef14 1abd
000000e0: cdd8 3abd 7a33 753d c0fa da3a 2a1e 043d
000000f0: aebf 073d 80bb fb3a c15d b23d 2486 a3bd
00000100: 9c9f 7ebd e36f 813d 297e 82bd 283d 113d
00000110: 0c6d adbd 7ce9 e23c ae0e 2dbd 204c 63bd
00000120: 3ccb b93c 5879 cc3c 3a51 5a3d 60a2 61bb
00000130: 2eb9 493d 7563 70bd ddd6 28bd 48e1 76bd
00000140: 1631 79bd 68bc 89bc 4db3 a7bd a41b a0bc
00000150: eec9 383d dd69 12bd 0fac 963d 15e0 ae3d
00000160: 2802 0b3c 6947 88bd 0e13 2bbd e870 cbbc
00000170: b20d 353d c617 633d 7abe 31bd 1873 2abd
00000180: 9141 913d 955f 26bd 441c 75bd dbf0 88bd
00000190: 8050 6d3a a03c f73c fec8 743d 4c7e 003d
000001a0: f827 243c 5908 b03d 15b5 7bbd 4049 ddba
000001b0: fdac 99bd 36b9 7f3d c696 06bd 22fb 1abd
000001c0: 4091 b8bb 2773 21bd f8b9 37bd 38cb d43c
000001d0: 4fc5 9cbd 9148 a83d fa9a 6d3d fe6c 7e3d
000001e0: f860 5cbc adb6 0bbd fe73 233d d041 13bc
000001f0: a6b3 4f3d 88e1 d5bc 689e 14bc 10bf 6ebd
00000200: 226e 9fbd 609d 613c ee2e 3d3d 1820 2b3c
00000210: 0d20 86bd 2ef5 52bd 00e5 a23b 813b 2dbd
00000220: b034 aa3c aadf 493d 315d 8f3d fbf0 933d
00000230: 6ef4 45bd 4cd9 cfbc 8e20 b1bd e49f b13c
00000240: 5019 f7bb 3271 103d d838 65bc 8247 a2bd
00000250: 101d 4bbc c735 933d 24c4 053d 30cb 08bc
00000260: 8070 dabb 0074 063a 1c0a 093d 2aba 723d
00000270: c0e8 14bc e044 443b c611 453d 79d7 9c3d
00000280: c1f1 983d f608 13bd 20fe 38bc 6084 6c3b
00000290: d0f7 66bc 375c 8d3d 9da5 79bd c877 0f3d
000002a0: 3919 a2bd 3883 28bc e1d5 8e3d 5c5b 9fbd
000002b0: 50bf 59bc ec8b 95bd ac8e 87bc d304 893d
000002c0: 1a27 67bd 0b02 b43d 4b7a 8e3d 4288 423d
000002d0: 4a2d 37bd c2ee 453d 188a 2bbd 1f8d a73d
000002e0: ea72 383d 8f24 05bd 0284 11bd cb17 973d
000002f0: 4f3b 943d b406 46bd ba5f 623d 30b1 803c
00000300: 00a0 b43b f72c 963d cce3 79bd 43d3 94bd
00000310: b0d6 96bc f004 d93c 90a8 89bc 8c99 a6bc
00000320: 7071 8fbd ab24 7fbd 063c 85bd eaab 413d
00000330: ab9b 1bbd 0491 e1bc f367 b33d 901b 19bc
00000340: 4025 9fba 12b2 3a3d d351 963d 9dfe ab3d
00000350: cca0 9bbd 49a8 9b3d d13e 8a3d 72cc 413d
00000360: d6e1 7d3d 8597 853d c0b7 5bbb 429a 173d
00000370: e0e1 203c bbd2 11bd a682 573d 4c9c ab3c
00000380: b3b3 863d c76f 9fbd c07a 4ebd 2e7f 0fbd
00000390: c05b 3e3c 7dec 5ebd 486b 133d 4e86 4c3d
000003a0: 914c a9bd 0a91 21bd f21a 263d ed52 8c3d
000003b0: c0fb a1bd a9eb a03d 0041 553a 0e25 4e3d
000003c0: 009e 6bbb 052d a33d c1f4 853d 7bb9 8f3d
000003d0: c80b 3c3c 2e12 383d 9262 2a3d 2019 5ebc
000003e0: 80ea 73bd 94d2 913c 14de c6bc 3595 23bd
000003f0: 10a8 cd3b 9f23 9d3d 3bec a13d dbe0 aa3d

bias f4 [32]
-0.042199753 -0.05602258 -0.036871284 -0.08162559 -0.08424217 0.018509462 -0.03935093 -0.0047114715
0.015672505 0.04797507 0.021599956 0.05644276 0.07842984 0.08536021 0.071471445 0.05888384
-0.013650365 -0.061580822 0.008098751 -0.0026234388 0.012244143 -0.088014305 0.04210522 0.04021337
-0.031736627 0.033271573 0.051946618 -0.079811856 0.086477526 -0.07282019 -0.02019734 -0.0336559
00000000: a6d9 2cbd ef77 65bd 5806 17bd 512b a7bd
00000010: 2987 acbd 28a1 973c 712e 21bd b062 9abb
00000020: a063 803c 8281 443d 64f2 b03c 8630 673d
00000030: d39f a03d 55d1 ae3d 9f5f 923d 2e30 713d
00000040: c8a5 5fbc 2c3c 7cbd a0b0 043c 00ee 2bbb
00000050: a89b 483c d840 b4bd 8676 2c3d c6b6 243d
00000060: 44fe 01bd c647 083d fac5 543d 6674 a3bd
00000070: 211b b13d c022 95bd e474 a5bc c5da 09bd
