MOEmodels/rowModel_0.pt (torch, 95275 bytes, 12 tensors)

weight f4 [4, 1, 3, 3]
00000000: 402e f1bb 569d 07be 9c85 98bd 1012 01be
00000010: f3bc 943e 6062 2fbe 0b50 983e 7263 0f3e
00000020: 40f7 b73d 2ad1 393e c868 52be ad9d 873e
00000030: d27c 3a3e 14cd cb3d 6aac 92be 08b1 45bd
00000040: a2d7 7a3e c2e9 5b3e b05f 883d 8008 e03d
00000050: 4428 97bd 0ed6 20be 6016 1fbd f038 96bd
00000060: c0fb 833b e010 2bbd 1fd9 95be 98d1 13be
00000070: e8eb 19bd ce6c 91be 1740 90be d51d 8c3e
00000080: 3c21 ef3d fe56 353e da0f 8fbe 52db 87be
-0.0073602498 -0.13243613 -0.07447359 -0.12604547 0.29050407 -0.17127371 0.29748568 0.14002779
0.08982706 0.18146196 -0.20547783 0.26487485 0.18211678 0.09951225 -0.28647166 -0.048264533
0.2449632 0.2147589 0.06658876 0.10939121 -0.07380727 -0.15706655 -0.038839698 -0.07335079
0.0040278137 -0.04176414 -0.29267213 -0.14435422 -0.037578493 -0.28403324 -0.28173897 0.2736651
0.11676261 0.17708966 -0.2794178 -0.26534516

bias f4 [4]
00000000: dee9 a9be 5002 99bd 9882 343d 408f aabe
-0.3318624 -0.07471144 0.044069856 -0.33312416

weight f4 [8, 4, 3, 3]
00000000: 2ef0 9cbd fc19 6f3d fa5f 02be e658 e3bd
00000010: 03b9 fabd 4cd0 153d 60e0 4abd e780 0abe
00000020: 885e a1bd ad39 143e 16e6 c33d 18a4 1dbe
00000030: 4065 9c3c d81a 913c 4268 15be 4f42 2abe
00000040: 426c d93d 8066 b83a 8384 bbbd 3353 d2bd
00000050: 58c7 8dbc 3861 f03c 6302 07be 18fd 0abe
00000060: 0ef5 853d 40cf d8bd 4eab aabd 2a5c c83d
00000070: 4097 77bb 8357 29be bbe9 e1bd d690 ae3d
00000080: da6b bf3d 00f3 0c3d 802a fabc 8fa2 21be
00000090: 5bc0 0cbe 7feb 103e ee2c f13d 30f5 713d
000000a0: 56c7 3bbd f827 debc 7e46 21be 0ebf 9c3d
000000b0: 942f 743d 3e50 e63d b228 d93d a074 dcbd
000000c0: 60f9 db3b 0ab4 d13d f23d ab3d 8168 163e
000000d0: 93b5 0d3e f6a1 d03d f30b 02be 4c22 12bd
000000e0: b9ee 023e 5b6d 213e 3cc7 6abd 78d5 b6bc
000000f0: 1cf1 3bbd 940b 4e3d 590e 1a3e 30c3 7fbd
00000100: 78ef abbc 4739 09be 004b adbc 2e25 e43d
00000110: b3f1 08be e702 18be 20ba a23b bc05 433d
00000120: fa51 c33d 4daf 133e 9bbf bcbd 9097 5abc
00000130: 40e4 fdbd f000 743d 0026 193d 3781 043e
00000140: 5efc 28be 807c 46bd e06b 433d 266a debd
00000150: fe8e c6bd d4fb 28be 82e8 c43d 80ba 1dbe
00000160: e030 33bd 5e83 a73d e834 aa3c 581e c6bd
00000170: a0f1 03be de5c babd 009c 2b3a 63b1 0dbe
00000180: 7041 3e3c bb64 94bd 34f9 15be 2620 f0bd
00000190: 14ed 19bd 7e3b df3d 12c2 1cbe c930 193e
000001a0: 58c6 943c 605d 553d a56e 1f3e 806d 49bc
000001b0: e40d 243d a097 4e3d 3325 e1bd 70d7 6abd
000001c0: caa7 b73d 82e2 e73d 1073 1bbd 9317 143e
000001d0: b2db 803d 202c eabc bb51 a5bd e61d aebd
000001e0: bc7e 4fbd 561c 9b3d 2a6d 1fbe 70b3 4cbd
000001f0: 27ca 25be bc87 71bd 5abf a53d 80d5 31bc
00000200: 2e9c c2bd 9eec dabd a484 0cbe 70b8 1c3c
00000210: 404a fc3c bc38 07bd c2e7 853d 009e 973b
00000220: 2a13 aa3d 2c70 223d dd87 273e 1819 a43c
00000230: 12b3 a13d 6088 afbd f32d c2bd 4090 623d
00000240: 5634 f5bd 16b0 d83d 7455 413d 5064 58bc
00000250: 1ac8 c43d 2b86 ebbd b0d1 adbd a6a6 6bbd
00000260: 0b4d 06be 2691 f8bd b69e ca3d 4052 02be
00000270: 79ed 113e 406d 713c cc0c 10be 1d19 0f3e
00000280: 118d 1f3e 3a39 933d d400 0abd 5ae3 cd3d
00000290: 3e47 c33d 99fd 0e3e be5b f13d 306e c6bd
000002a0: 59dc 0b3e 0e7b a1bd eb46 aebd 1307 2abe
000002b0: 5086 293c a4a7 253d 8000 483d 90a6 54bd
000002c0: d4e6 5e3d 7399 f1bd 5df0 063e 4ab1 07be
000002d0: a6fc 47bd de0a a1bd 462b a53d e0b0 a93b
000002e0: ecf3 2c3d 0858 993d 587f e4bc a081 89bb
000002f0: 2c23 343d 0eeb 0bbe d8b3 e6bd f02e 33bc
00000300: 7e44 af3d e650 7bbd d09f 65bc 0f40 143e
00000310: d07e 0cbd d8db 823d 5c00 043d a3e8 1b3e
00000320: a668 89bd f8da a93d c042 5fbc 13e4 80bd
00000330: 921e d13d b817 8d3c e08b bb3b 14d8 623d
00000340: c465 243d 2026 d0bd 4481 083d 8080 7ebc
00000350: a39c c5bd 1e89 943d 73ac f8bd 7cd1 68bd
00000360: 32fc af3d 30c6 97bd 8893 e6bd bc61 703d
00000370: c366 f4bd 148f 7f3d d7a4 213e c0a6 18be
00000380: 51c9 293e 32ee b03d e095 73bd c244 18be
00000390: 00a3 9a3d 64c7 733d e04b 97bc c105 0c3e
000003a0: f5d7 0d3e bed5 9a3d 20bc 863d 6425 493d
000003b0: ee10 8cbd 6656 2cbd ea2d b83d e052 02be
000003c0: b0c6 b3bd 06b6 95bd dad6 0bbe 2a07 903d
000003d0: c260 29be 51e6 223e c4b8 11bd c056 fdbc
000003e0: c2a3 df3d 0007 11be 3ca4 3a3d 7ad1 dc3d
000003f0: 3883 883c 457b 223e 40d4 f4bc fe34 cabd
-0.07662998 0.05837439 -0.12731925 -0.111009404 -0.122423194 0.0365756 -0.049530387 -0.13525735
-0.078793585 0.14475127 0.0956537 -0.15394628 0.019091249 0.017712995 -0.14590552 -0.16626857
0.10616352 0.0014068633 -0.09156134 -0.10269775 -0.017306969 0.029343233 -0.13184504 -0.1357311
0.06540881 -0.10586405 -0.08333455 0.09783204 -0.003777936 -0.1653729 -0.11030909 0.08523719
0.09346743 0.03441143 -0.030537844 -0.15784667 -0.13745253 0.14152335 0.11776148 0.05907172
-0.0458444 -0.027118668 -0.15749547 0.07653628 0.059615687 0.11245774 0.10603465 -0.10764432
0.0067130774 0.10239418 0.083614245 0.14688303 0.13838796 0.101871416 -0.12699871 -0.03567724
0.12786378 0.15764372 -0.05731891 -0.022318587 -0.045884237 0.05030401 0.15044536 -0.062442005
-0.020988211 -0.13400756 -0.021153927 0.11139904 -0.13373451 -0.14844857 0.0049660355 0.04761289
0.0953712 0.1442234 -0.09216233 -0.013341799 -0.12397051 0.059571207 0.037389755 0.12939917
-0.1650252 -0.048458576 0.0477103 -0.1086009 -0.09695242 -0.16502315 0.0961466 -0.15403175
-0.043747783 0.08179353 0.02077718 -0.09673756 -0.12885141 -0.09099744 0.0006546378 -0.13837199
0.011612281 -0.07245775 -0.14645845 -0.11724882 -0.03757961 0.10900019 -0.15308407 0.14960016
0.018160984 0.052091002 0.15569551 -0.012294173 0.04005231 0.05043757 -0.10993423 -0.057334363
0.0896755 0.113225 -0.03795153 0.14462118 0.062919036 -0.028585494 -0.080722295 -0.085017964
-0.050657973 0.07573764 -0.15568987 -0.049975812 -0.16190396 -0.058967337 0.08093138 -0.010854125
-0.09502445 -0.106896624 -0.13722473 0.009565458 0.030797124 -0.03301309 0.06538345 0.0046269894
0.083044365 0.039657757 0.16360421 0.020031497 0.07895483 -0.08570933 -0.0948142 0.05531335
-0.11972873 0.10580461 0.047200635 -0.01320751 0.09608479 -0.115002 -0.0848726 -0.057531975
-0.13115327 -0.1213706 0.09893553 -0.12726688 0.14250745 0.01473552 -0.14067382 0.13974424
0.15581156 0.071886495 -0.033692196 0.100531295 0.09535073 0.13963927 0.117850766 -0.09688985
0.13658275 -0.07884799 -0.0850962 -0.16604261 0.010346964 0.040443078 0.0488286 -0.05191666
0.054419354 -0.11796846 0.13177629 -0.13251224 -0.04882493 -0.07863401 0.080648944 0.005178556
0.04222481 0.07487494 -0.027892753 -0.0041963607 0.043978855 -0.13663885 -0.11264771 -0.010936484
0.08557986 -0.061356448 -0.014015153 0.14477561 -0.034300625 0.06389588 0.032226905 0.15225463
-0.06709413 0.08293718 -0.013626754 -0.06293502 0.10210909 0.017223224 0.0057234615 0.05538185
0.040136114 -0.10163522 0.033326402 -0.0155335665 -0.09649017 0.072527155 -0.12142267 -0.056840405
0.08593024 -0.07410848 -0.11258608 0.058686957 -0.11933663 0.06239231 0.15785538 -0.1490736
0.16580702 0.08639182 -0.059469104 -0.14869979 0.07550621 0.059516326 -0.018468797 0.1367407
0.13851912 0.07560299 0.06578851 0.049107924 -0.068391666 -0.042074583 0.089931324 -0.12726927
-0.08778131 -0.07310109 -0.13656178 0.070326164 -0.16540816 0.15908171 -0.035576597 -0.030925155
0.10919906 -0.14162827 0.045566782 0.10782142 0.016664132 0.15867336 -0.029886365 -0.09873389

bias f4 [8]
00000000: f6f3 36bd 287e 963c e00f d13b 8071 b7bc
00000010: e03c fdbd 7142 273e aee5 93bd c088 61bc
-0.044666253 0.018370703 0.0063800663 -0.022392988 -0.123651266 0.16333939 -0.07221542 -0.013765514

weight f4 [8, 8, 3, 3]
00000000: bf92 9e3d b27c 0ebd 259f a53d 26f0 7b3d
00000010: e146 e73d 2385 dd3d d60e 113d 4863 85bd
00000020: 0bdb b33d db42 b93d 520f 2e3d aeae 50bd
00000030: 8889 b7bc d613 2c3d e60d 753d 5bb0 a13d
00000040: 7276 053d 8218 39bd 6acd 4e3d 24ec cb3c
00000050: 68be 0e3c 81da e6bd 1d66 d8bd 8e2e 763d
00000060: 3b20 ea3d 6600 d7bd 6ad1 48bd 58c8 afbd
00000070: a641 0dbd 59e4 a03d 7ce5 9cbc 348c 31bd
00000080: c8ad 2cbd 0a2e 91bd 8231 563d a4b7 ee3c
00000090: 5ae8 1a3d dbad 90bd 727c 0abd ee11 143d
000000a0: 40d3 563b f83d 6f3c 04f0 7fbd bd58 a2bd
000000b0: 4304 c8bd 60e3 5bbb 4d60 873d ddea d93d
000000c0: 1b99 e43d 9243 073d 4651 7a3d e5b1 b93d
000000d0: 852a 6ebd 0ada 6dbd 7b50 7bbd 5d2a e43d
000000e0: 9416 c93c 009f ecb9 fe77 cbbd 3ef4 0b3d
000000f0: 28fb 50bd a8fc 5e3c e421 d8bc 765f 623d
00000100: bb94 b6bd 8b74 a63d 1901 8fbd 80c6 22bc
00000110: 6963 a5bd 9517 72bd a9b8 e23d 8062 21bd
00000120: 08d2 593c a09f a3bc 68fb 3cbd a82c 84bd
00000130: fe00 c5bd 829a 86bd 5021 f2bb 85f5 e23d
00000140: 7042 a03b d940 a63d 42bf 323d 95b8 9a3d
00000150: ccac fd3c d4aa b8bc aeb3 3d3d f072 abbd
00000160: d8a1 38bc 66cc 553d 6430 dc3c 90a1 0ebd
00000170: 20bd 86bd 88b1 543c 5611 9abd 9858 b1bd
00000180: 5229 aabd c030 1cbb b5f6 cb3d fe00 0e3d
00000190: fe74 4f3d b4aa eebc 0418 b23c 98fb 533c
000001a0: c376 cfbd 86a0 a1bd e619 7e3d b8e8 783c
000001b0: 7a0f 0f3d ed54 bd3d 099d e93d e47a d53c
000001c0: 0ca5 b03c 2678 423d 956f 903d 78e5 bebd
000001d0: 9018 56bc cc0d 10bd de90 233d ee18 413d
000001e0: db4a cc3d 22ca 593d 4138 d83d b5e2 62bd
000001f0: 3832 e8bd cdd7 903d 2276 89bd 8473 ddbc
00000200: e04c bcbd 7149 a03d 5463 9bbc f0f8 dabd
00000210: 3995 dcbd 2bac ab3d c5cc 8c3d da2f 7b3d
00000220: 0ea3 3c3d aa70 353d 22ba cbbd 972f d8bd
00000230: 88b4 40bc 9470 d23c 4faf c63d 04b4 6cbd
00000240: ae8c 33bd 6d8a d43d 4089 feba 2304 91bd
00000250: e5b6 c53d 4d52 a93d 43b5 d83d 02af 12bd
00000260: 13b5 c53d c89f 5dbc b652 423d 58eb 26bd
00000270: b5e5 c13d 0ea7 d8bd d66e b3bd cfdc 873d
00000280: ae26 713d 4971 b43d b5ce 9b3d 31f8 983d
00000290: 7e4d b4bd 6ef1 6e3d 7e7b 373d cfc2 da3d
000002a0: 0a3a 373d b171 d33d 89c2 a43d 4ae8 2c3d
000002b0: 773d a73d 464f 373d 94eb 97bd fbf5 82bd
000002c0: 20fd ccbb 83ad 973d 67b7 973d a02a 90bb
000002d0: 1c73 ccbd ec11 e3bc 6bc3 c13d 0e50 babd
000002e0: 4898 9bbd da7e 20bd 11ec db3d 5b3b b9bd
000002f0: 919a bebd 3713 8d3d 70d5 d6bc 0880 d7bc
00000300: 82fb 42bd 4187 a23d 421a 623d 2c0d 883c
00000310: ca28 babd d2b5 503d d89e 243c 4ab5 6b3d
00000320: 60da 31bb ce69 80bd 8faa 9fbd 3f1a bd3d
00000330: a586 a53d e44e efbd 8b35 a03d 7eb8 723d
00000340: 25e7 943d 5130 db3d 700b 2ebc 2126 c43d
00000350: 3324 86bd 4aa6 43bd 83c1 d1bd 6456 2abd
00000360: 88fb 61bd d529 de3d 41c4 af3d c5d4 813d
00000370: 367c 4dbd cafb 2ebd 20d3 1ebb e8b6 d2bd
00000380: 76c6 0e3d 20c3 c83b ecaf a4bc 6988 c33d
00000390: 92a0 3e3d 3139 a83d ebf0 e63d d9cd a83d
000003a0: a831 193c 8ea8 1a3d da67 303d b736 e93d
000003b0: c8f4 58bd 8494 f53c a6ac 56bd bd4b e0bd
000003c0: bfd9 e23d 18c4 f7bc ce5f 323d db53 a13d
000003d0: 8359 933d d881 4d3c 21e3 8fbd 90e2 08bc
000003e0: da78 3f3d 2734 8d3d 90ce b7bd d7eb 7dbd
000003f0: c6fa c0bd 902d 03bc 205c 86bd fa25 0e3d
0.07742833 -0.034786887 0.08086995 0.06150832 0.11292816 0.108164094 0.03541454 -0.06513077
0.087820135 0.09045955 0.04249508 -0.050947838 -0.022404447 0.042011105 0.059827708 0.07894965
0.03258366 -0.045189388 0.050488867 0.024892874 0.008712389 -0.11272145 -0.105663516 0.06010299
0.11431929 -0.10498123 -0.049027838 -0.085831344 -0.034486435 0.07856054 -0.019152395 -0.0433466
-0.04215792 -0.070888594 0.052293308 0.029140301 0.037819244 -0.0706441 -0.033810087 0.03614991
0.0032779723 0.014602177 -0.062484756 -0.07927082 -0.09766438 -0.0033552274 0.06610165 0.106405
0.11162015 0.033023424 0.061112665 0.09067134 -0.05814602 -0.058069266 -0.06135605 0.11140893
0.024546899 -0.00045131892 -0.09934996 0.034168474 -0.05102077 0.013610043 -0.026383348 0.05526682
-0.08915087 0.081276976 -0.06982631 -0.009935021 -0.080756016 -0.05910452 0.110703774 -0.039400578
0.013294704 -0.019973576 -0.046138197 -0.0645383 -0.0961933 -0.06572439 -0.007389225 0.110819854
0.0048907325 0.081178375 0.04363943 0.075547375 0.030966185 -0.022542395 0.046313934 -0.08371532
-0.011269055 0.052196883 0.026878543 -0.034822047 -0.065790415 0.01298178 -0.07522838 -0.08659476
-0.083086625 -0.0023832768 0.09959165 0.034668915 0.05064868 -0.029134132 0.021739967 0.012938403
-0.10130074 -0.078919455 0.062036417 0.015192203 0.03492687 0.09244714 0.11406905 0.026059575
0.021563075 0.047477864 0.070525326 -0.093211114 -0.01306738 -0.035169408 0.039933078 0.047142915
0.09975215 0.053171284 0.105576046 -0.055391986 -0.113377035 0.07072411 -0.06711985 -0.027032621
-0.0919435 0.07826508 -0.018968262 -0.10692012 -0.107706495 0.08382448 0.06874994 0.06132493
0.04605394 0.044296898 -0.099476114 -0.10555952 -0.011761792 0.025688447 0.09701406 -0.057788864
-0.043835334 0.10377965 -0.0019419566 -0.07080867 0.09654025 0.08267651 0.10581448 -0.03581143
0.09653678 -0.013526864 0.04744216 -0.040751785 0.09467641 -0.10578738 -0.08761375 0.06633913
0.05887478 0.0881067 0.076077856 0.07469214 -0.08803843 0.058335714 0.044795506 0.10681688
0.044733085 0.10324419 0.08044917 0.042213716 0.0816602 0.044753335 -0.0741798 -0.06394573
-0.006255761 0.074061416 0.07408028 -0.0043996125 -0.09982893 -0.027718507 0.09461101 -0.090973005
-0.07597405 -0.039183475 0.107383855 -0.09044524 -0.09306825 0.068884306 -0.026224822 -0.026306167
-0.047603138 0.07935954 0.055200823 0.016607843 -0.09089811 0.050954647 0.010047637 0.057545938
-0.0027138218 -0.06270181 -0.07796203 0.09233522 0.08082322 -0.11684969 0.078227125 0.059257977
0.0727065 0.10702575 -0.010622844 0.09577585 -0.06549873 -0.047766007 -0.102419876 -0.041586295
-0.05517152 0.108478226 0.08582354 0.06339411 -0.050167285 -0.042720594 -0.0024234727 -0.10288793
0.034857236 0.0061267763 -0.020103417 0.095475025 0.04653985 0.082140334 0.1127642 0.08242387
0.009350218 0.037758403 0.04306779 0.11387389 -0.052967817 0.029978044 -0.052410744 -0.10951946
0.11076688 -0.030244872 0.043548398 0.07877322 0.071948074 0.012543164 -0.07025743 -0.008354798
0.046746112 0.06894713 -0.089749455 -0.061992493 -0.09422831 -0.008006468 -0.0656054 0.034704186

bias f4 [8]
00000000: 10f7 e6bc 1a65 4f3d c108 923d 8099 4f3b
00000010: 2b90 de3d 7f14 c13d 403e d63b 50d0 57bd
-0.02819398 0.050633527 0.07130576 0.0031677186 0.108673416 0.094277374 0.0065381825 -0.052688897

weight f4 [8, 8, 3, 3]
00000000: 78b5 a8bd e091 efbd f201 363d 8ffa ee3d
00000010: 0448 b13c 8238 613d 3fb1 803d c032 cabc
00000020: 6dbe cf3d 0e7a 68bd 806c 6cba 3161 bd3d
00000030: ca7e c1bd 37ed b03d 10f5 02bc 552a a13d
00000040: 2179 d0bd f4c1 c1bc fadd 95bd 7e7f 693d
00000050: 56ce 033d 747a adbd 214c c33d 7b1b e43d
00000060: 91f0 d03d 8c34 d6bc ce94 b2bd 3c22 debc
00000070: 349d 8c3c c54f ee3d 8526 d23d 4c50 eabd
00000080: 2744 db3d 4fe2 d3bd b213 d1bd 04b0 c6bd
00000090: a6f3 61bd 9ad4 b3bd 930d c13d e85e 4b3c
000000a0: 28bc 33bc 4861 b3bd ae19 3e3d 4001 59bc
000000b0: 80bf 78bc 0c9f e0bc 1278 39bd 6c87 f63c
000000c0: 08de 51bd 5caf b7bc 1cdd c33c 32c9 07bd
000000d0: 24e6 963c 9e53 423d 69ee bb3d 81ae 893d
000000e0: bebb 2f3d 8f3e cb3d 5afa 743d 803a d03a
000000f0: 2e6d 443d b6e7 083d 3428 b0bc b678 6f3d
00000100: 44d6 fb3c 84f0 d83c 9361 8a3d 2420 c83c
00000110: 92dc 6cbd b95d e53d 7ae0 5e3d 14f3 9c3c
00000120: f15b e83d a773 e8bd 98c7 ccbd 137a a1bd
00000130: c1de cabd c5fc bc3d c965 c43d 60d7 a7bd
00000140: a1d3 943d 699f c4bd 2f67 86bd d202 40bd
00000150: f1ab da3d ba0d ebbd 7c0d 833c 957f 96bd
00000160: 5de2 813d cc96 efbd aa67 99bd 7fc4 ac3d
00000170: a9be d73d 4c73 ca3c 21fc eabd 5ca5 f03c
00000180: 5ced bd3c 5ead cbbd e80b 22bc 6be1 b03d
00000190: 6e36 053d 2054 babd ce4c a1bd 6fa7 863d
000001a0: ee0c a7bd 1276 683d 275b c03d 8087 2b3a
000001b0: f800 80bd 8c5b 1cbd 7009 4ebd ac9b da3c
000001c0: 12a0 6c3d b01c b0bd 89be e33d f43b c0bd
000001d0: 5c31 d4bd 68b3 e2bc 50b3 33bc 9021 b8bd
000001e0: 701e ab3b 7019 ac3b fdb1 e23d f60b 43bd
000001f0: 131d ef3d f84c 263c 6146 68bd 0a79 44bd
00000200: 14fb ef3c 4fd9 bb3d f3c4 bf3d 5c17 fd3c
00000210: 4096 c73b 07d1 b43d 15c8 c43d c269 21bd
00000220: 36be 0a3d 5f5d c4bd 5083 80bb 9213 2abd
00000230: 9012 b7bc a07f 07bb 2285 0b3d fea0 3abd
00000240: 653a 6cbd c291 60bd 3291 373d 3ab3 013d
00000250: 9084 d43b 5e02 613d de03 053d f31e d73d
00000260: d2fc 5b3d 7239 643d b60d 63bd 1db8 b63d
00000270: d45c 55bd 84af c23c 3aac 163d 42c9 56bd
00000280: 9c7c c2bd 08fb a0bc 0e32 10bd 15ad e23d
00000290: f605 463d 60fb 0c3b ff5e cabd 8055 c6ba
000002a0: bea0 5abd 3064 3cbd a422 f43c 33ce 97bd
000002b0: f3b6 d33d 4559 b83d fcd7 cebd 9731 dd3d
000002c0: 6efd c8bd ebac 8f3d 4cbb fdbc d2b2 373d
000002d0: 82ea 0f3d ff97 b63d 3965 e13d 5a2b d9bd
000002e0: f879 b5bc f5e2 b53d e8e9 aabc 7c81 a8bc
000002f0: 8c19 b6bd 2f70 eebd 4a09 253d df45 863d
00000300: 1361 63bd fe1d 0b3d a780 d93d 8ba1 df3d
00000310: e586 cd3d bfc0 b93d 4d9c ce3d ff0b 83bd
00000320: aad1 793d f52f c13d 4809 edbc b8b6 0cbc
00000330: ea1b 583d 2a16 123d 3196 a23d 1d47 873d
00000340: 1a93 b2bd 8793 c23d 0562 b7bd 0ddd d4bd
00000350: 49c1 bd3d 96a5 6a3d fec4 363d 12ea 7f3d
00000360: e682 cbbd 66df 5e3d d595 b43d 931c 85bd
00000370: 8063 093a b124 a03d c883 4abc 5481 51bd
00000380: a9d8 c93d 602f 9f3b faf9 3abd a263 a2bd
00000390: 4890 2c3c 3a32 1c3d 864e 2c3d a8b4 90bd
000003a0: a448 bcbc 4df6 84bd 704e fe3b 3865 473c
000003b0: ae4b 3a3d 5b2e b63d 4ae4 90bd 6444 953c
000003c0: 429d 293d b9a2 e13d 00f7 3d3b 2436 91bc
000003d0: ca95 c2bd f68b 193d 88ac 5dbd 043b a4bc
000003e0: 8176 d33d e700 aa3d 9bd6 ea3d a070 bebd
000003f0: 2b16 af3d 465e a9bd d14a 63bd cc1c 9bbd
-0.082377374 -0.11697745 0.04443545 0.11668884 0.021640785 0.05498553 0.06283807 -0.024682403
0.10143743 -0.056757025 -0.00090188533 0.092470534 -0.09448011 0.08638995 -0.007992998 0.07869402
-0.101793535 -0.023652054 -0.07317729 0.05700635 0.0321792 -0.08470622 0.09536005 0.11138054
0.102021344 -0.026148103 -0.087197885 -0.027115934 0.017164804 0.116363086 0.10261253 -0.11441097
0.107063584 -0.10345899 -0.10208835 -0.09701541 -0.055164002 -0.08780785 0.09426417 0.012412764
-0.010970153 -0.08758789 0.04641121 -0.013244927 -0.015182376 -0.02741959 -0.045280524 0.030093871
-0.051237136 -0.022422485 0.023909144 -0.03315086 0.018420286 0.047443025 0.091763325 0.06722737
0.042903654 0.099240415 0.059809066 0.0015886575 0.047955684 0.0334241 -0.021503545 0.05846473
0.030741818 0.026481874 0.06756892 0.024429388 -0.05782754 0.11199517 0.054413296 0.019158877
0.113456614 -0.11350184 -0.09999007 -0.07884612 -0.09905768 0.092278995 0.095897265 -0.081953764
0.072669275 -0.096007176 -0.065626495 -0.04687769 0.106773265 -0.114772275 0.01599764 -0.07348553
0.063420035 -0.11698684 -0.074904755 0.08435916 0.105344124 0.024713181 -0.11473871 0.029375724
0.02318447 -0.099451765 -0.009890534 0.08636745 0.03252261 -0.09098077 -0.078759775 0.06574904
-0.08156763 0.056753226 0.09392386 0.00065433234 -0.06250185 -0.038173243 -0.05030197 0.026685558
0.057769842 -0.08599222 0.11120326 -0.09386435 -0.10360977 -0.027673438 -0.010968044 -0.089907765
0.0052221343 0.005252056 0.11069105 -0.04761883 0.11675467 0.010150187 -0.056707744 -0.047966994
0.029294528 0.09172308 0.09363737 0.030894928 0.0060909092 0.08828931 0.09608475 -0.0394075
0.033872806 -0.095881216 -0.0039219037 -0.04152257 -0.022347718 -0.0020675436 0.034062512 -0.04556369
-0.057672877 -0.054826505 0.044816203 0.031665064 0.0064855292 0.0549339 0.03247439 0.1050395
0.053707905 0.055718847 -0.055432998 0.089218356 -0.05209048 0.023765333 0.03678534 -0.05243803
-0.094964236 -0.019650951 -0.035203986 0.11068169 0.04834553 0.0021512136 -0.098814 -0.0015131682
-0.053375952 -0.045993984 0.029801674 -0.07412376 0.10337629 0.09001402 -0.100997895 0.10800474
-0.09813963 0.07015403 -0.0309731 0.04484827 0.035135753 0.0891571 0.11005635 -0.10603972
-0.022152886 0.08881179 -0.020863488 -0.020569555 -0.088915914 -0.11642491 0.040292062 0.065562956
-0.0555125 0.03396415 0.106202416 0.10919484 0.10035495 0.090699665 0.10088406 -0.063987724
0.060990967 0.09432975 -0.02893509 -0.008588485 0.052760996 0.03566567 0.07938803 0.06605361
-0.08719464 0.09500795 -0.089542426 -0.103937246 0.09265382 0.05728682 0.04462146 0.062479086
-0.09937076 0.054412268 0.08817641 -0.06499591 0.0005240962 0.07819498 -0.012360521 -0.051148728
0.09855778 0.0048579425 -0.045648552 -0.0792916 0.010532446 0.038133837 0.042067073 -0.070657074
-0.022983856 -0.06492291 0.0077608153 0.0121701285 0.04548233 0.0889556 -0.07074793 0.018221088
0.04140974 0.11017365 0.0028986335 -0.017726012 -0.09501226 0.037486993 -0.054119617 -0.020047672
0.10325337 0.08300953 0.11466714 -0.09298825 0.0854915 -0.08269934 -0.055491272 -0.07573852

bias f4 [8]
00000000: d11f e73d 82ea 303d 4a0a 323d 9e06 1abd
00000010: 85b8 883d 6a34 2d3d ef60 ed3d f384 ecbd
0.112853654 0.043192394 0.043466844 -0.037603967 0.06675819 0.042286314 0.11590754 -0.115487956

weight f4 [128, 128]
00000000: 0019 f7ba aaea 6f3d 48ad a5bd d6a4 6a3d
00000010: 552a 913d 0eeb 533d 8ecc 383d ee2a 7dbd
00000020: 1e5a 033d dcd1 c63c e6da 98bd 0000 5c39
00000030: d4fd b4bd a61f 633d 5d1d 823d 726c 3c3d
00000040: 8089 fe3b 1854 ccbc 2e14 2e3d 25a1 abbd
00000050: 2678 7c3d 70f7 0bbc 68ee 3cbc 215b 993d
00000060: 9eea afbd b8b1 8cbd 6877 4d3c ade2 8dbd
00000070: a582 913d 7c41 bf3c e81b c53c 7cc6 a8bd
00000080: a618 213d f8e3 48bc 085d 333c a02a ea3b
00000090: 42b4 553d 00ec 0ebb 8059 10bd e6c1 6f3d
000000a0: b208 65bd e060 77bb 66ae 123d 0051 e53c
000000b0: f405 a3bc 11b6 6abd d84b 043d ad67 38bd
000000c0: d5b5 9b3d 20c9 32bc 50ec a6bc 6622 7f3d
000000d0: f093 72bc c003 e13b af7d 95bd 7605 5c3d
000000e0: 46a7 473d 40c7 97bb 46b1 1f3d 3a6e 7f3d
000000f0: 105a ce3b c05f 8f3c 90fe c13b 48c6 acbd
00000100: f805 1bbd 2ee0 603d 7e23 083d 809a 24ba
00000110: 4659 683d f88f 2bbd e81c 94bd e2b3 4b3d
00000120: 9f30 af3d ae0f 4b3d aab6 5d3d 2c8e e03c
00000130: 8156 73bd 43f0 913d 5e76 553d 5c8d afbc
00000140: 8dc1 19bd 3c13 80bc f0aa 6a3c 94ef f83c
00000150: 65ec a93d 24fb 9bbc fc31 22bd c2d3 6a3d
00000160: e874 f13c 4f39 8c3d 0086 e73c 6095 3abb
00000170: 8838 2dbc 9e87 0ebd 9d9a 873d d3e7 56bd
00000180: 40ff a3bc f85c 85bd 0a2a fbbc 2baa ad3d
00000190: 3a4b 3cbd 20a4 3fbc 68b9 a7bd d0a6 69bc
000001a0: aee4 14bd 98f7 7b3c c24e 573d dcb2 9bbc
000001b0: 202a 7f3b d933 823d 58bb de3c aad0 0fbd
000001c0: b0ee febc 4a80 3d3d 619a b33d 4a41 45bd
000001d0: 6c49 06bd e03d 083d 6829 a5bd fea7 483d
000001e0: f9e3 863d c704 73bd 9a8d 7d3d c0bb 563b
000001f0: dad7 353d deb6 b3bd ce9e adbd a44b 4ebd
00000200: 6343 56bd f918 45bd 32da 673d 9ea5 35bd
00000210: 0088 26ba e824 5fbc 9392 5ebd ee34 10bd
00000220: d0f9 a73c 4c3b 9bbd 8c1e afbd cffb 993d
00000230: 63aa 813d 80b3 f3bb 768d edbc f471 cf3c
00000240: b054 2ebc b25f 38bd 3c76 c6bc 9cab a83c
00000250: 6fa8 b33d d66a 573d c87c 14bc e02b 47bc
00000260: 75d8 a6bd e816 513c 30af 92bb a80c 143c
00000270: abe0 23bd 2972 98bd a6a9 6b3d 0014 a5b9
00000280: 50ee dc3c e0fb 21bb 9295 753d d446 adbd
00000290: 3381 2fbd c82c b63c 402b 503b 82d3 a5bd
000002a0: d05b f43c 82bc 673d 937b a43d 72fa 223d
000002b0: f6d4 053d 4f9b 953d 3a2a 39bd f572 80bd
000002c0: 3419 d9bc 2091 fc3b 64ba 9bbc 5ed1 343d
000002d0: 71d5 843d 9429 b8bc a292 713d 005a 1b39
000002e0: 4058 77bd 4b12 38bd 00cf 30bb 9076 b2bd
000002f0: ee6b 173d 0029 07bb 62e4 55bd 701c 36bc
00000300: f640 fdbc 85ed 8abd b2ca 603d 0030 de38
00000310: a08f 10bb f899 49bc f6f1 68bd a903 813d
00000320: 9eab a0bd 0ab9 1b3d 7499 a93c 93c1 1fbd
00000330: 6473 8ebd 02ad 3e3d fc96 88bc 7638 7e3d
00000340: b211 0ebd 678c 803d 6343 8c3d 2b10 a73d
00000350: 9181 46bd 6818 043c cca0 bf3c fe9e abbd
00000360: 9c09 df3c 6036 ca3b b470 e33c 7d00 93bd
00000370: dc63 92bd da24 b2bd 4643 233d 0425 87bc
00000380: cce4 c6bc c2ec 713d 5e5a 6d3d 116c 52bd
00000390: 5644 76bd 8872 aabd 8e0d 733d bb30 29bd
000003a0: d1e1 8a3d 6da4 63bd f992 08bd 4db4 823d
000003b0: ccc2 a8bd 3497 b0bd b2bc 03bd 4047 233c
000003c0: 36cb 543d 0295 393d 50b9 453c 12bd 203d
000003d0: 602e 38bd f83c 22bc bf8a 07bd 40ef a1ba
000003e0: 3ad8 9abd d07d 50bd c56b 08bd f421 76bd
000003f0: e221 6b3d f024 323c 2a67 81bd 30b5 083d
-0.0018852055 0.058573402 -0.080896914 0.057286106 0.07088152 0.051737837 0.045116954 -0.06180852
0.032068364 0.02426999 -0.074636266 0.00020980835 -0.088374764 0.055450104 0.06353257 0.04600186
0.007767856 -0.024942443 0.042499714 -0.08380345 0.06163802 -0.00854288 -0.01153145 0.074880846
-0.085896716 -0.06869835 0.012540676 -0.069280006 0.071049966 0.023346655 0.024061158 -0.08240983
0.039330147 -0.012261383 0.010947473 0.0071461946 0.05217386 -0.0021808147 -0.035241604 0.058534525
-0.055916496 -0.003774695 0.03581085 0.027992725 -0.0199003 -0.05730254 0.032298893 -0.045020748
0.07603041 -0.01091221 -0.020376354 0.062288664 -0.014805779 0.006866902 -0.07299363 0.053716145
0.04874351 -0.0046319067 0.03898742 0.06236098 0.0062973574 0.017501712 0.005920239 -0.08436257
-0.03784749 0.054901294 0.033236973 -0.0006279126 0.056725763 -0.041885346 -0.07232076 0.049732096
0.085541956 0.0495755 0.05412928 0.027411543 -0.05940867 0.071259044 0.052114837 -0.02142971
-0.0375381 -0.015634172 0.014322981 0.030387677 0.08297042 -0.019040652 -0.03959845 0.057330854
0.02947469 0.06846868 0.028262138 -0.0028470382 -0.01057256 -0.034797303 0.06621287 -0.05246718
-0.020019174 -0.06511873 -0.030659694 0.084797226 -0.04597018 -0.011696845 -0.0818966 -0.014260963
-0.0363509 0.015378855 0.052565344 -0.019006185 0.003893502 0.063575454 0.027188942 -0.035111107
-0.031119674 0.046264924 0.0876968 -0.048157968 -0.032784864 0.033262134 -0.08064538 0.048988335
0.06586451 -0.059330728 0.06190262 0.0032765716 0.044395305 -0.087751135 -0.08477555 -0.050365105
-0.05231036 -0.04811952 0.05660457 -0.044347398 -0.0006352663 -0.013619639 -0.054339003 -0.035206728
0.020504862 -0.07579669 -0.08550748 0.07518732 0.06331327 -0.0074371696 -0.028998118 0.025322892
-0.010640308 -0.045013137 -0.0242263 0.020589642 0.087723605 0.05259212 -0.009062953 -0.012156457
-0.08146755 0.012761809 -0.0044764504 0.009036221 -0.040009182 -0.07443649 0.057534836 -0.00031486154
0.026969105 -0.002471678 0.059957094 -0.08460775 -0.042847823 0.02223815 0.003176406 -0.080969825
0.029828936 0.05657626 0.080313824 0.039789625 0.0326738 0.073050134 -0.045206286 -0.06271926
-0.026501276 0.00770773 -0.019009776 0.04414498 0.06486023 -0.022480763 0.05897773 0.0001481548
-0.060386896 -0.04493932 -0.002697885 -0.0871402 0.036968164 -0.0020623803 -0.052219756 -0.0111151785
-0.030914765 -0.067835845 0.054880805 0.000105947256 -0.0022058263 -0.012304775 -0.056871377 0.06299526
-0.078452334 0.038018264 0.020703055 -0.039002966 -0.06955603 0.04655171 -0.016673557 0.062065564
-0.034684844 0.062767796 0.068487905 0.08157381 -0.048463408 0.0080624595 0.023392104 -0.08379935
0.027226262 0.006171033 0.027763702 -0.071778275 -0.07147953 -0.08698435 0.03985908 -0.016497143
-0.02427902 0.05906368 0.05794751 -0.05137259 -0.060123764 -0.08322626 0.0593391 -0.04130624
0.06781352 -0.05557673 -0.03334329 0.06382046 -0.082402796 -0.0862259 -0.032162376 0.009965718
0.05195161 0.04530812 0.012068108 0.03924281 -0.0449661 -0.009902231 -0.033091303 -0.0012354627
-0.07560773 -0.050901234 -0.033305902 -0.060090974 0.05740536 0.010873064 -0.06318505 0.03337592

bias f4 [128]
00000000: 3831 a7bd b4d6 ac3c 6798 a43d 5ab0 393d
00000010: 3be8 943d 2b29 50bd 7072 e13b 4c47 153d
00000020: 536c b03d 43cc 29bd 0740 78bd d20a 2b3d
00000030: 80bf f93a 549a 83bc fa50 54bd 0c66 d3bc
00000040: 1dc4 963d fe12 07bd 70f4 7b3c 400f 6f3c
00000050: d48b 8dbd 39f0 973d a39a 9d3d 2ebe 35bd
00000060: 1b31 b23d 2446 a6bd a062 443c 309a a03b
00000070: 1244 2a3d 26bb 8abd 6e73 673d d43c b23c
00000080: 7866 a83c d553 95bd 1d29 b23d 4a53 043d
00000090: 077e a83d b5d5 873d 1d16 5ebd e2b4 3b3d
000000a0: 0e6f 333d 561a 433d 3f9a 18bd d893 833c
000000b0: 609a 00bc 6e6b 553d 954b 9a3d f8b3 d83c
000000c0: 0053 b83c d12d 8f3d f313 62bd b017 c73c
000000d0: 00db 71bd a29a 343d 1440 64bd 8252 3d3d
000000e0: ca2f a3bd 3e28 153d e006 f13b 009b ebbb
000000f0: b0ea 8dbb 970f 37bd c808 573c 1bd6 84bd
00000100: 1c23 e43c 8149 a33d 31f8 14bd e79a afbd
00000110: e6e4 593d 4fb1 8e3d 1349 a73d c641 19bd
00000120: 867f 603d 4009 78bc b2a9 383d 003a 213b
00000130: 16f0 17bd 0040 ca3c f435 af3c 28ca 493c
00000140: cccb d3bc 1a22 173d 3823 d63c 3862 0d3d
00000150: 7381 9c3d 321e 493d a0b1 01bc 7527 823d
00000160: 28ef 2ebc 6e64 673d 5ce3 c43c c843 fa3c
00000170: 4db7 a2bd e6c1 05bd 0057 d7b9 98a9 bf3c
00000180: 30d8 90bc ac1a a6bd 846c 98bc b6fd f2bc
00000190: 2156 813d b298 0a3d 9d45 81bd 2eb3 123d
000001a0: 2680 a9bd 1bc3 b13d ca84 b0bd 008f 773a
000001b0: 8a4b 733d 1e94 2abd 0abe 2d3d 30eb afbb
000001c0: 9e61 3e3d ac35 81bd 4180 853d f4ce 2abd
000001d0: 5ee0 423d 69ab 1fbd ba69 4a3d f87b 79bd
000001e0: f8e9 b1bd f8ed eb3c f0f8 ad3c 005b 2aba
000001f0: a5e8 8a3d 9c1b 1ebd 2e12 1e3d 25f2 ad3d
-0.081636846 0.021098472 0.08036881 0.045334198 0.07270857 -0.05082051 0.006880097 0.036444947
0.08614411 -0.041454565 -0.060607936 0.041758366 0.0019054264 -0.0160648 -0.051835038 -0.025805496
0.073616244 -0.032977097 0.015378103 0.014591038 -0.06911436 0.07418866 0.0769551 -0.044370823
0.087007724 -0.08118847 0.011986405 0.004901193 0.041568823 -0.06773977 0.056506567 0.02175752
0.020556673 -0.0729138 0.08699248 0.032305993 0.08227163 0.06632558 -0.054220308 0.0458268
0.043807082 0.047632538 -0.037256476 0.016061708 -0.007849306 0.052104406 0.075339474 0.026453003
0.022500515 0.06991161 -0.055194806 0.024303287 -0.059046745 0.04409278 -0.055725172 0.046221264
-0.079680994 0.03641533 0.007355556 -0.0071901083 -0.0043309554 -0.044692602 0.013124652 -0.0648615
0.027848773 0.07973004 -0.036369506 -0.08574467 0.05319681 0.06967413 0.08168235 -0.037416242
0.054809116 -0.015138924 0.04508371 0.002460122 -0.0370942 0.02468872 0.021388032 0.012316264
-0.025854014 0.036897756 0.02613984 0.034517497 0.07641878 0.049101062 -0.007915884 0.06355182
-0.0106771365 0.05649226 0.024034195 0.030549899 -0.07945118 -0.03265562 -0.00041072816 0.023396298
-0.017681211 -0.08110556 -0.018606432 -0.029661994 0.06315256 0.033837028 -0.06312106 0.03581541
-0.082763955 0.086797915 -0.086190775 0.0009443611 0.05939821 -0.04164516 0.042417563 -0.0053686127
0.046479814 -0.06309065 0.06518603 -0.041701272 0.047577254 -0.03898183 0.049417235 -0.06090924
-0.08687204 0.028799996 0.021236867 -0.00064985454 0.06782655 -0.03860055 0.038591556 0.08493451

weight f4 [32, 128]
00000000: 9f2a 93bd ecdd 13bd e045 58bb 673c a3bd
00000010: 607c 33bb 1c5b df3c ccdb 96bd 0a8a 0d3d
00000020: 407a b2bb 2849 ab3c 8ca4 fd3c 01be 41bd
00000030: bbda 30bd 7c0d c9bc f645 96bd e8ee d83c
00000040: 4ff2 43bd f6e2 393d 10a7 d4bb f3e2 893d
00000050: 994d 963d 7a12 0d3d ac6a d13c 9a89 2d3d
00000060: 60bc c2bc 5842 0bbc 9160 06bd 277f af3d
00000070: 5b45 a43d d810 e7bc 0008 b238 f55c 973d
00000080: 3068 263c 4404 acbc 901b c3bc 7b51 a03d
00000090: fc81 9cbd e0de a03c 7721 8a3d e63d 103d
000000a0: b95d 6abd 14d5 d03c 4a76 7d3d 6852 34bd
000000b0: 452a 03bd feef 7c3d a317 aa3d b254 0c3d
000000c0: 214e 893d f913 1cbd 18eb 65bd 1e47 82bd
000000d0: 7273 5fbd da2b 8cbd 4272 383d c089 453b
000000e0: ccc1 27bd 787f 313c 5af7 1d3d 78a2 a33c
000000f0: f0d0 da3c 4c6c b03c 002e cfbc 0ef7 20bd
00000100: a453 eb3c 3eb8 193d 038e 873d 923d 4d3d
00000110: b659 b0bd 57ef b23d 5b78 a93d c821 913c
00000120: 0a29 013d 1747 823d 1803 dfbc 6bde ad3d
00000130: 00ac 5ebc ee4c 503d 3825 ff3c b809 a13c
00000140: 80cf ac3a 5274 1a3d eaf3 2c3d e0c8 113d
00000150: 2fb9 8cbd 902f 573c 8798 8e3d 2a7b 7dbd
00000160: 6211 f9bc 506a abbb f84d ea3c 7d78 06bd
00000170: d9d0 25bd 28ac 85bd 3584 a2bd dcb0 29bd
00000180: 3311 8d3d 1912 9d3d 00e8 943c 605f 7dbc
00000190: c04e fcba 11c3 803d 28fd 77bc 20e9 633b
000001a0: 20b0 c53c 06f6 80bd 34bd 2bbd 900b 493c
000001b0: 66d4 5d3d a814 12bc e00a 0cbb 0815 663c
000001c0: b812 db3c 0c6d dfbc 5815 673c 5926 a23d
000001d0: 1c63 80bd 6009 d5bb 603e febb 2f0b 873d
000001e0: 80cb 2c3b bc64 92bd ebf5 a5bd b0eb 7abd
000001f0: 74e6 11bd d4b9 aabc 6a2a 223d c8f6 a83c
00000200: 1391 55bd 4607 8dbd 9817 b5bc 2dc6 9d3d
00000210: 9a55 5a3d d660 ddbc 1519 883d b2fa 5abd
00000220: ccf4 62bd f27f 67bd 86e5 78bd a07b fe3b
00000230: e09c 713c 53d9 963d 9acf 0fbd 84fb ca3c
00000240: 9791 813d 50ab ca3c aeff 58bd 3bb0 b33d
00000250: d841 073d ebdf a8bd a020 bebb f7c6 97bd
00000260: 501b c9bb 80b4 92bd 165b 593d 8918 4dbd
00000270: 5648 4c3d 0edc 743d ab16 b23d 2bef a13d
00000280: 94e3 973c b4fb a6bd fbf6 98bd 40f8 d13b
00000290: a6c3 39bd 8001 c13b 10ed 0cbc f15a 61bd
000002a0: 5063 75bc ebac 18bd ecd6 ea3c a679 513d
000002b0: a8ce c53c b8c9 b5bc c240 2b3d 456a 4bbd
000002c0: 5eaf 503d b523 70bd 6836 47bc ec5e 90bd
000002d0: d0d4 703c 1e8e 413d a34e 963d cebb 8fbd
000002e0: a04f 3dbc 0076 ef3c 584e 073d ec35 8ebc
000002f0: 1a9a 733d dc4a ce3c dac0 073d f3b9 32bd
00000300: d16b 853d aa5d 2d3d 90a4 91bd b81e c63c
00000310: 5860 4f3c e080 b73b b184 40bd 1334 a7bd
00000320: acec b8bc fe03 0a3d 3b1a 8a3d 58ee ebbc
00000330: 9bde 9fbd c406 88bd 3a43 393d 4a32 1c3d
00000340: 893c a0bd 4f6f 843d d80a 14bd 9038 fcbb
00000350: 004b 01bb c0a2 543c a04c 91bc 7cbc 9bbc
00000360: d6f9 7c3d 3807 6f3c 6d33 80bd c6b1 3e3d
00000370: c0bc 0c3d c7d7 57bd 7f1d 82bd 4b7c 53bd
00000380: 4172 843d 5011 b53b f898 783c b091 82bd
00000390: 6f37 913d 01df 893d 8264 a1bd 14ec 5ebd
000003a0: 54af 09bd 40a8 8bbc bbd2 a03d 209c 70bd
000003b0: 5982 97bd 1c0d b2bd 2709 a2bd 7131 913d
000003c0: 1e89 98bd a6a1 163d 0ddc 01bd 3a37 a1bd
000003d0: 7651 4c3d 6224 52bd 95b2 4dbd 45dc 903d
000003e0: 67a1 843d aa36 6f3d c3ac ac3d f01b 683c
000003f0: e0b7 9dbb 2e3e 6d3d 5b9c b0bd 309f a3bd
-0.07185864 -0.036100313 -0.0033000633 -0.07970505 -0.0027387366 0.027265124 -0.07366142 0.034555472
-0.0054467022 0.020908907 0.030962251 -0.047300342 -0.043177348 -0.024542563 -0.07337563 0.026481107
-0.047838505 0.045382462 -0.006489642 0.0673274 0.07339019 0.03444145 0.02556356 0.042367555
-0.023771465 -0.008499704 -0.032806937 0.08569174 0.08021041 -0.028206274 8.4891915e-05 0.07390777
0.010156676 -0.020998128 -0.023816854 0.07828041 -0.0764198 0.019637525 0.06744664 0.03521528
-0.057218287 0.025492229 0.061880387 -0.0440239 -0.032022733 0.061752312 0.083052896 0.03426046
0.06704355 -0.038104985 -0.056132406 -0.06361221 -0.054553457 -0.068443015 0.04503084 0.003014192
-0.040956303 0.010833614 0.03856597 0.019974932 0.026710957 0.021536015 -0.02529049 -0.03929811
0.028726406 0.037529223 0.066188835 0.050107546 -0.08610861 0.08737057 0.08274909 0.017716303
0.03153328 0.063612156 -0.027223155 0.084896885 -0.013590813 0.050854616 0.031145677 0.019657955
0.0013184398 0.037708588 0.042224802 0.03559196 -0.068712585 0.013133898 0.06962686 -0.061885037
-0.030403797 -0.0052311793 0.028601632 -0.03282975 -0.040482376 -0.06526977 -0.07935373 -0.041428432
0.06888046 0.076694675 0.018177032 -0.015464634 -0.0019249544 0.06287206 -0.015136041 0.0034776405
0.024131835 -0.06296925 -0.041928485 0.012270823 0.054157637 -0.008916058 -0.0021368787 0.0140431
0.026742324 -0.027273677 0.01410421 0.079174705 -0.062689036 -0.0065013617 -0.0077589005 0.0659393
0.0026366413 -0.0714812 -0.08103546 -0.061259925 -0.035620168 -0.020840563 0.03959123 0.020625487
-0.052140307 -0.06886153 -0.022105977 0.07703815 0.053304292 -0.027023714 0.06645409 -0.053461738
-0.055409238 -0.056518503 -0.060765766 0.007766202 0.014746875 0.0736567 -0.035110094 0.024778135
0.06326597 0.024739891 -0.05297821 0.08773848 0.033021778 -0.08245834 -0.005802229 -0.074109964
-0.006137289 -0.07163334 0.053065382 -0.050072227 0.049873672 0.059780173 0.0869573 0.07906946
0.018541135 -0.08153477 -0.07468983 0.0064077675 -0.0453526 0.0058900714 -0.008601442 -0.05501837
-0.014977291 -0.037274282 0.028666936 0.051141404 0.024146393 -0.022190914 0.041809805 -0.049661893
0.050948493 -0.058627803 -0.012158968 -0.07049355 0.014699176 0.047254674 0.073392175 -0.07018243
-0.011554629 0.029231071 0.0330337 -0.017359696 0.059473135 0.02518218 0.033142902 -0.043634366
0.06514705 0.042325653 -0.07111466 0.02418457 0.0126572475 0.00560008 -0.047001544 -0.08164229
-0.022573791 0.033695213 0.06743284 -0.028800175 -0.078061305 -0.066419154 0.045230128 0.038133897
-0.07824046 0.06466543 -0.036143154 -0.0076971725 -0.0019728541 0.012978256 -0.017736733 -0.019010775
0.0617617 0.014589123 -0.06259809 0.046556257 0.034359694 -0.052696016 -0.06353282 -0.051632207
0.06467105 0.0055257455 0.015173189 -0.06375444 0.07090651 0.06731988 -0.078804985 -0.05442436
-0.03361447 -0.017048001 0.07852694 -0.058742642 -0.07397909 -0.08693907 -0.07911902 0.07089508
-0.07448028 0.036775254 -0.031703997 -0.07871862 0.049882375 -0.05130423 -0.050219137 0.07073263
0.064760976 0.05840174 0.08431389 0.014166817 -0.0048131794 0.057920627 -0.086235724 -0.07989347

bias f4 [32]
00000000: 7049 663c c09c 4a3c 46c7 7d3d 6c85 a83c
00000010: 9fa3 903d 49f1 23bd 50a2 a73b abd0 75bd
00000020: 60c6 4a3c 9888 ffbc f10c 803d fd29 1bbd
00000030: bcbd b2bc be9b a6bd 20f4 3bbb 2893 3fbc
00000040: 1086 a0bb ae51 9cbd a821 d23c 68d4 283c
00000050: f0ba dbbc 0873 85bd 5064 afbd 5250 1cbd
00000060: 4f7e 4ebd 9d49 8a3d daaf 3b3d a066 12bb
00000070: 00cf e739 34b0 abbd c618 253d 3df0 973d
0.014055595 0.012366474 0.06195762 0.020571433 0.07062458 -0.04002503 0.0051157847 -0.060013454
0.012376398 -0.031193063 0.062524684 -0.03788184 -0.021818988 -0.08135174 -0.0028679445 -0.0116928
-0.004898794 -0.07632767 0.025650814 0.010304548 -0.026822537 -0.06516081 -0.08564055 -0.038162537
-0.050413426 0.06752322 0.045822002 -0.0022339001 0.0004421398 -0.083832175 0.04030683 0.07418869
