MOEmodels/rowModel_3.pt (torch, 95275 bytes, 12 tensors)

weight f4 [4, 1, 3, 3]
-7.221103e-05 0.022017866 -0.115495056 -0.07431254 -0.22325186 -0.3160131 0.24164912 0.24274811
0.19171497 -0.116850615 0.2252554 -0.3312149 -0.16114521 0.22104028 -0.15812132 -0.23025958
0.2246311 0.10364449 -0.15250003 -0.04656765 -0.11536464 0.132117 -0.21099655 -0.11253302
-0.074831635 -0.18944578 0.1290184 0.3299497 0.2802677 -0.26442868 -0.20667724 0.24874952
-0.06096199 0.3041015 0.08971658 0.27447346
00000000: 0070 97b8 d05e b43c ac88 ecbd 2c31 98bd
00000010: 239c 64be 78cc a1be de72 773e f692 783e
00000020: ee50 443e 604f efbd 5aa9 663e 0095 a9be
00000030: 4003 25be 6258 623e 8eea 21be 2bc9 6bbe
00000040: b205 663e 9043 d43d f828 1cbe b8bd 3ebd
00000050: 4c44 ecbd ae49 073e 7b0f 58be b677 e6bd
00000060: 5441 99bd 13fe 41be 661d 043e 2bef a83e
00000070: 3f7f 8f3e 3263 87be 33a3 53be 32b8 7e3e
00000080: 48b3 79bd 31b3 9b3e 54bd b73d c987 8c3e

bias f4 [4]
0.30830297 -0.16954264 0.31640252 -0.17412922
00000000: e3d9 9d3e 969c 2dbe 83ff a13e ee4e 32be

weight f4 [8, 4, 3, 3]
-0.0070080757 0.10071404 0.060755834 0.08234565 -0.11339512 0.14060743 0.037017986 0.099649265
0.08000368 0.08314633 -0.023301005 -0.018609181 -0.103216276 0.03698753 -0.0050337464 0.064984575
-0.08748816 0.13618751 -0.15303218 0.113338724 -0.04103118 0.025555834 -0.019704178 -0.15573737
-0.08094162 -0.15663221 0.020086423 -0.14395732 -0.048962235 -0.13337979 0.04139918 -0.053821966
-0.07343714 0.1517046 -0.12376448 -0.069939435 0.05262369 -0.12697689 0.101922855 -0.07380091
0.036491096 -0.075092636 0.10906534 -0.14896588 0.13596113 0.07484658 -0.0055250674 0.027534232
0.11410518 0.15671737 0.07174297 0.12189336 0.014968514 -0.057934247 -0.04551079 -0.051284418
-0.070349276 0.082538486 -0.14245969 -0.1095628 -0.09815391 -0.13884729 -0.0051004738 0.028990373
0.15047438 0.083071396 -0.06875344 0.032718793 -0.020675465 0.041343883 -0.111169085 0.15223844
0.057320997 0.10186948 0.11704542 -0.12628315 -0.16308694 0.003959164 -0.08013837 -0.11950239
0.09106688 0.0036292225 0.054766968 -0.15836668 -0.117819056 0.062192753 -0.09889732 -0.0430073
0.08042665 -0.07065819 0.13658597 -0.07401228 0.059002936 -0.020497665 -0.08968856 -0.05265101
0.052203357 -0.1024794 0.12693007 0.0258172 0.07129453 -0.009820819 -0.030188099 0.16300322
-0.16538337 0.15903185 -0.12605338 -0.14049348 -0.08115803 0.08107561 0.11047001 0.100392416
0.0444725 -0.13763851 0.13723104 -0.0014169216 -0.008168176 -0.10109644 0.08559932 0.13016607
0.02396822 0.14021073 -0.014940873 0.12937735 0.1286243 0.032258436 -0.021830633 0.097629204
0.11490147 0.15388002 0.1430936 -0.02575773 0.08319527 -0.1604845 -0.14406274 0.114201024
0.005932823 -0.11928719 0.06972343 0.023911193 -0.10922575 -0.120236956 0.16030385 0.07598786
-0.016309246 0.021381006 -0.115805745 -0.0730502 -0.047191165 -0.07625896 -0.07513013 -0.14515242
0.15315141 -0.0762704 0.06543605 0.034868196 -0.02093549 0.04535401 -0.07605672 -0.13577734
0.015900552 -0.074013755 -0.013355747 0.02094151 -0.045520805 -0.114617154 0.012831733 0.020428538
-0.02073653 -0.14108585 0.11533184 0.033840835 -0.0030631572 0.12856074 0.03214027 -0.035265878
0.16059841 0.028260484 0.0017843992 -0.061835945 0.017336488 -0.05235994 -0.12389976 -0.008809984
-0.12870573 -0.09639474 -0.102434814 0.030019984 -0.0609568 -0.11248547 0.12670179 -0.09847438
0.04231508 0.14796625 -0.015925884 -0.11780882 0.09792103 0.016944095 -0.034143522 -0.055272266
0.0028635412 0.1600029 -0.063640855 0.09578882 -0.08648454 -0.10685168 -0.10820496 -0.046096846
0.004269302 0.12533481 0.11447336 -0.005061969 -0.018999591 0.12033476 -0.072249256 -0.012655258
0.07269703 0.10790856 -0.0822503 0.05119075 -0.055102095 0.13685541 0.050072208 0.10541575
-0.032535866 0.028318837 0.04897183 0.16227396 -0.014741287 0.1341341 0.050119415 0.06824912
-0.048552856 -0.06837394 -0.1358314 -0.09454181 -0.09434619 0.09949227 0.061282173 -0.10989921
-0.064450465 -0.024419978 -0.060287938 0.0016364604 0.09536733 0.019992515 -0.10547966 -0.021736383
-0.084465906 0.105224684 -0.034462273 -0.018845603 0.06873757 0.015285909 -0.15022634 0.083955154
00000000: 00a4 e5bb 2a43 ce3d 1cdb 783d d6a4 a83d
00000010: b33b e8bd 65fb 0f3e 2ca0 173d ea14 cc3d
00000020: f8d8 a33d a048 aa3d c0e1 bebc 4872 98bc
00000030: 0e63 d3bd 3c80 173d 20f2 a4bb a216 853d
00000040: fe2c b3bd bd74 0b3e 78b4 1cbe 221e e83d
00000050: 5010 28bd 785a d13c a86a a1bc 9e79 1fbe
00000060: b8c4 a5bd 3264 20be 488c a43c 8c69 13be
00000070: a08c 48bd b694 08be 3092 293d 6c74 5cbd
00000080: 3666 96bd 7358 1b3e 3b78 fdbd 683c 8fbd
00000090: f08b 573d 3b06 02be eebc d03d ee24 97bd
000000a0: b077 153d 2bca 99bd a65d df3d 838a 18be
000000b0: 6539 0b3e 2a49 993d a00b b5bb 788f e13c
000000c0: faaf e93d 857a 203e faed 923d 3aa3 f93d
000000d0: 803e 753c 764c 6dbd 8669 3abd 9c0f 52bd
000000e0: 4813 90bd f009 a93d f4e0 11be 7662 e0bd
000000f0: eb04 c9bd fc2d 0ebe e021 a7bb 387d ed3c
00000100: f515 1a3e 5621 aa3d 9bce 8cbd 2404 063d
00000110: 985f a9bc 3458 293d 9eac e3bd 65e4 1b3e
00000120: 6cc9 6a3d f2a0 d03d 82b5 ef3d 5f50 01be
00000130: 4300 27be e0bb 813b 961f a4bd abbd f4bd
00000140: 4681 ba3d 40d8 6d3b 5453 603d e02a 22be
00000150: 1e4b f1bd d4bd 7e3d ae8a cabd 6c28 30bd
00000160: bab6 a43d 3eb5 90bd 31dd 0b3e c093 97bd
00000170: 10ad 713d b8ea a7bc a3ae b7bd 96a8 57bd
00000180: 30d3 553d b8e0 d1bd f5f9 013e 987e d33c
00000190: de02 923d 80e7 20bc 084d f7bc 51ea 263e
000001a0: 425a 29be 3fd9 223e 2314 01be 86dd 0fbe
000001b0: 2e36 a6bd f80a a63d 1a3e e23d 8a9a cd3d
000001c0: cc28 363d 1cf1 0cbe 4b86 0c3e 00b8 b9ba
000001d0: d0d3 05bc a60b cfbd b24e af3d 414a 053e
000001e0: 0059 c43c 6793 0f3e 90ca 74bc 7f7b 043e
000001f0: 17b6 033e 6c21 043d 28d6 b2bc d2f1 c73d
00000200: 7651 eb3d b992 1d3e 2187 123e e001 d3bc
00000210: 4862 aa3d 0c56 24be 2f85 13be 3ae2 e93d
00000220: 2068 c23b d84c f4bd 28cb 8e3d 68e1 c33c
00000230: c0b1 dfbd cb3e f6bd b126 243e 869f 9b3d
00000240: f89a 85bc 3827 af3c 902b edbd 589b 95bd
00000250: 864b 41bd a82d 9cbd d3dd 99bd d6a2 14be
00000260: b9d3 1c3e a833 9cbd 5603 863d f4d1 0e3d
00000270: e880 abbc 20c5 393d a0c3 9bbd 3709 0bbe
00000280: e041 823c 8694 97bd 10d2 5abc 888d ab3c
00000290: 0674 3abd 66bc eabd 303c 523c c059 a73c
000002a0: a8df a9bc cf78 10be 1a33 ec3d b09c 0a3d
000002b0: 40bf 48bb 6da5 033e 84a5 033d f472 10bd
000002c0: e973 243e 8882 e73c 80e2 e93a b047 7dbd
000002d0: 4005 8e3c 6077 56bd 28bf fdbd c057 10bc
000002e0: 6fcb 03be 9b6a c5bd 58c9 d1bd 78ec f53c
000002f0: d6ad 79bd c85e e6bd 1dbe 013e f0ac c9bd
00000300: 9452 2d3d 7784 173e 0077 82bc c045 f1bd
00000310: d28a c83d 58ce 8a3c 14da 0bbd 2c65 62bd
00000320: 40aa 3b3b cdd7 233e 2356 82bd ee2c c43d
00000330: ce1e b1bd 0ed5 dabd 909a ddbd 0cd0 3cbd
00000340: 80e5 8b3b c557 003e 0271 ea3d e0de a5bb
00000350: 08a5 9bbc 1272 f63d 6bf7 93bd 0058 4fbc
00000360: 2ee2 943d 2aff dc3d d872 a8bd 64ad 513d
00000370: bcb2 61bd d323 0c3e 8418 4d3d 36e4 d73d
00000380: 5444 05bd e8fc e73c b096 483d 252b 263e
00000390: 7085 71bc 735a 093e 044a 4d3d 32c6 8b3d
000003a0: 5cdf 46bd a307 8cbd 6317 0bbe 239f c1bd
000003b0: 9338 c1bd 9ac2 cb3d 0403 7b3d d612 e1bd
000003c0: 9bfe 83bd 680c c8bc 7cf0 76bd 807e d63a
000003d0: f24f c33d 58c7 a33c b805 d8bd 8010 b2bc
000003e0: 76fc acbd 0a80 d73d 5028 0dbd 1862 9abc
000003f0: 48c6 8c3d c071 7a3c efd4 19be aef0 ab3d

bias f4 [8]
0.027877867 -0.08173536 -0.018122986 0.15891035 0.013315961 0.10888402 0.019303963 0.13085909
00000000: 2060 e43c de64 a7bd a876 94bc 65b9 223e
00000010: 302b 5a3c 96fe de3d 5823 9e3c edff 053e

weight f4 [8, 8, 3, 3]
-0.028469898 -0.0257032 0.015149228 -0.0225913 -0.08571443 -0.016704246 -0.01651173 0.027611993
0.012408264 -0.017797418 -0.07862942 0.10306334 0.0016041398 -0.05295846 0.06902101 -0.076081485
0.014157422 0.043506257 -0.084701635 -0.059113204 0.08745045 0.0029942393 0.004217297 -0.081961416
-0.011005878 0.06479993 0.11514018 0.06016647 -0.1042175 -0.11147539 -0.048572585 -0.089681976
0.020894878 0.017443664 0.044200726 0.0040237904 -0.03607043 -0.015193 0.09599642 0.04677651
-0.042660855 0.10823838 0.070382096 0.009720616 0.024317794 0.047148608 -0.03198144 0.10676762
-0.03170362 -0.10807362 0.032316305 -0.060222942 0.062819876 0.059599586 0.10545064 0.038814746
0.09645093 -0.010732375 0.030837573 0.05617211 0.1150522 -0.01931937 -0.059014075 -0.095291905
-0.11183329 0.02115921 -0.034986943 -0.07745683 -0.09856317 -0.011503026 -0.07430218 0.08931241
-0.04316277 -0.0007985532 -0.08546597 0.030284934 -0.07819659 -0.0039180145 -0.07629657 -0.045343436
-0.05902464 -0.077945724 0.07155902 0.068555035 -0.057351127 -0.059424613 -0.055614818 -0.038515843
-0.08305319 0.10397812 -0.012571983 -0.089248106 0.030576326 0.07234276 0.09517797 0.031218551
-0.053388737 0.09655594 0.05665175 -0.044153906 -0.039733 0.025236242 0.0022153333 0.0013387948
-0.036272958 0.100874044 -0.0853906 -0.03785345 -0.049971156 0.058007322 0.07103812 -0.016248353
0.0364222 0.06890566 -0.11651392 0.012035526 -0.095472366 -0.0673832 -0.036874138 -0.01566504
0.017891832 -0.10575664 0.018527545 0.019874237 0.11620357 -0.059253413 -0.0025623292 0.08776898
-0.09735602 -0.09175557 -0.100164875 0.10223637 -0.036020495 0.09332805 0.1001833 0.059595697
-0.012117349 0.001603432 0.038732924 0.09276838 0.046057336 0.03908632 0.023417555 -0.083745815
-0.010858953 0.08588656 -0.07734467 0.10249115 -0.07347162 -0.05333379 -0.10059445 -0.03946297
0.06517207 -0.050538093 -0.08124927 -0.021254644 -0.017967016 0.08320338 -0.05473905 -0.00890664
-0.07432553 -0.11034198 -0.101115994 -0.06454066 -0.09946972 -0.038974978 -0.104380086 -0.008205093
-0.08477259 0.06354078 0.06939151 0.045353048 0.015575029 0.08741868 0.09453527 -0.11241657
-0.011792868 0.024296366 0.010595791 -0.11336711 0.11663639 -0.09828846 0.0545417 0.0030102804
0.07656387 0.056222714 0.009430207 -0.009380817 -0.11355035 -0.031737253 0.0064612404 -0.07124893
0.056910954 -0.04472267 -0.09670617 -0.06739372 -0.014450341 0.022304513 0.0071617886 0.09780174
0.11442741 0.0596881 -0.017162733 -0.023149535 0.07787428 -0.116973594 0.042420305 -0.013455957
0.10801367 0.064081214 0.047319673 -0.09265545 -0.03636746 -0.1038961 -0.10178903 -0.037420273
0.09385023 0.09397655 0.020745315 -0.03028275 0.05259078 0.011304401 -0.0126135945 -0.04928627
-0.03382445 0.07685257 -0.054238454 -0.10302144 -0.084265575 0.116626225 -0.074701935 -0.05762348
0.107370876 0.050592117 0.07720848 -0.05938644 0.06886699 -0.041493267 -0.06766754 0.0005727932
0.063487835 -0.077267595 0.045994185 -0.041380547 0.042554 -0.016918689 -0.09528978 -0.10927748
0.087108426 -0.05117719 0.066750176 0.04120841 0.028116904 -0.08130775 -0.04261256 0.092177756
00000000: b439 e9bc 848f d2bc 7834 783c 6411 b9bc
00000010: 0c8b afbd 58d7 88bc 9c43 87bc 8c32 e23c
00000020: 084c 4b3c e4cb 91bc 7608 a1bd df12 d33d
00000030: 0042 d23a f8ea 58bd e35a 8d3d 9cd0 9bbd
00000040: 88f4 673c 9e33 323d 0d78 adbd b020 72bd
00000050: 3919 b33d 003b 443b 4031 8a3b 63db a7bd
00000060: 0052 34bc d3b5 843d 9dce eb3d 1e71 763d
00000070: fc6f d5bd 364d e4bd 0cf4 46bd 2fab b7bd
00000080: bc2b ab3c 04e6 8e3c d20b 353d 00da 833b
00000090: 96be 13bd 10ec 78bc c599 c43d ba98 3f3d
000000a0: 26bd 2ebd 15ac dd3d 7d24 903d 3843 1f3c
000000b0: 1c36 c73c e61e 413d f8fe 02bd fba8 da3d
000000c0: a8db 01bd b455 ddbd 1a5e 043d 55ac 76bd
000000d0: b5a7 803d b21e 743d 81f6 d73d 36fc 1e3d
000000e0: 1188 c53d d8d6 2fbc 149f fc3c ba14 663d
000000f0: 7da0 eb3d a843 9ebc beb8 71bd 6728 c3bd
00000100: da08 e5bd 1456 ad3c 784e 0fbd b0a1 9ebd
00000110: 7ddb c9bd 3077 3cbc be2b 98bd 6de9 b63d
00000120: 72cb 30bd 0056 51ba c808 afbd 1c18 f83c
00000130: 8925 a0bd b062 80bb 6041 9cbd 0aba 39bd
00000140: d2c3 71bd 02a2 9fbd 898d 923d 9566 8c3d
00000150: 04e9 6abd 3967 73bd 5dcc 63bd cac2 1dbd
00000160: ca17 aabd 7bf2 d43d b8fa 4dbc b6c7 b6bd
00000170: 347b fa3c 7128 943d abec c23d 0cbe ff3c
00000180: 26ae 5abd 1fbf c53d aa0b 683d bada 34bd
00000190: 12bf 22bd 3cbc ce3c 202f 113b 807a af3a
000001a0: f492 14bd 0d97 ce3d 44e1 aebd 380c 1bbd
000001b0: 8eae 4cbd 1699 6d3d 6f7c 913d 441b 85bc
000001c0: 722f 153d 691e 8d3d da9e eebd a830 453c
000001d0: 0487 c3bd 3400 8abd 5609 17bd f853 80bc
000001e0: e491 923c f096 d8bd 14c7 973c 4ccf a23c
000001f0: 23fc ed3d b5b3 72bd c0ec 27bb 39c0 b33d
00000200: 9862 c7bd 58ea bbbd 3e23 cdbd 4d61 d13d
00000210: 3a8a 13bd c722 bf3d e72c cd3d 9e1a 743d
00000220: d887 46bc 402a d23a 6aa6 1e3d 59fd bd3d
00000230: 9ea6 3c3d fa18 203d 2cd6 bf3c ed82 abbd
00000240: c0e9 31bc 4be5 af3d e266 9ebd e1e6 d13d
00000250: 4a78 96bd 8874 5abd 7704 cebd eca3 21bd
00000260: ef78 853d 0801 4fbd 0466 a6bd 381e aebc
00000270: 902f 93bc 8966 aa3d 0e36 60bd 28ed 11bc
00000280: fc37 98bd fafa e1bd e715 cfbd e52d 84bd
00000290: c8b6 cbbd 3aa4 1fbd 3ac5 d5bd a86e 06bc
000002a0: 409d adbd ab21 823d 231d 8e3d 1ec4 393d
000002b0: 682e 7f3c 9108 b33d b59b c13d a93a e6bd
000002c0: e036 41bc 2c09 c73c f899 2d3c 042d e8bd
000002d0: 0fdf ee3d 764b c9bd 1e67 5f3d 2048 453b
000002e0: 85cd 9c3d ca49 663d 2881 1a3c 00b2 19bc
000002f0: 168d e8bd ecfe 01bd d0b8 d33b f6ea 91bd
00000300: 761b 693d 1e2f 37bd e20d c6bd b805 8abd
00000310: 20c1 6cbc f4b7 b63c 70ad ea3b 474c c83d
00000320: eb58 ea3d 827b 743d dc98 8cbc 18a4 bdbc
00000330: 8d7c 9f3d da8f efbd eac0 2d3d 6076 5cbc
00000340: 4536 dd3d 033d 833d 46d2 413d 24c2 bdbd
00000350: 0cf6 14bd 7ac7 d4bd c476 d0bd 0046 19bd
00000360: 8d34 c03d c776 c03d 14f2 a93c 8813 f8bc
00000370: 6e69 573d 1836 393c 40a9 4ebc 66e0 49bd
00000380: 828b 0abd e164 9d3d 2429 5ebd e8fc d2bd
00000390: 6e93 acbd bbd9 ee3d 54fd 98bd 9906 6cbd
000003a0: 43e5 db3d ae39 4f3d 7b1f 9e3d 323f 73bd
000003b0: 230a 8d3d d8f4 29bd 4795 8abd 8027 163a
000003c0: e905 823d 793e 9ebd 6664 3c3d a67e 29bd
000003d0: 1a4d 2e3d 1099 8abc 4a27 c3bd dfcc dfbd
000003e0: e765 b23d 2c9f 51bd 51b4 883d 26ca 283d
000003f0: 6c55 e63c ad84 a6bd 828a 2ebd b1c7 bc3d

bias f4 [8]
0.11695217 0.039779164 0.11556714 0.1171282 -0.10194575 0.08220204 -0.051168732 0.05527053
00000000: 9f84 ef3d 7aef 223d 77ae ec3d e9e0 ef3d
00000010: efc8 d0bd 8b59 a83d 4e96 51bd 5a63 623d

weight f4 [8, 8, 3, 3]
-0.040930882 0.0041329786 -0.10536281 0.08927583 0.057867147 0.06662216 0.029398493 0.056307293
0.11700504 -0.030966312 -0.010182492 -0.071496114 0.034544773 0.047531597 -0.034829058 -0.1037216
0.04277403 -0.09861715 -0.11207725 0.10345175 -0.048151426 0.09029751 -0.095538124 0.06792856
0.111958615 -0.108532324 0.095603876 -0.091989934 -0.07020794 -0.03947328 -0.048445582 -0.058529485
-0.053036846 0.07417338 0.10268391 -0.10796935 0.060266264 0.026975863 0.094510175 -0.1168428
-0.040865414 -0.04750085 0.09527164 0.011855014 -0.0871485 0.04835186 -0.073574856 -0.07139631
0.09289018 0.04496979 -0.04827711 0.061030574 -0.11177236 0.1031437 -0.05078333 -0.09270496
-0.066421285 0.0836272 0.018541522 -0.11369066 -0.05168645 0.01415319 0.015061922 0.05651053
-0.061129086 -0.05046884 -0.057084113 -0.026184857 0.11265697 -0.016685948 -0.07891357 0.07080116
0.08686785 -0.028796397 -0.04723219 0.067908086 -0.09992456 0.09757947 -0.08174048 -0.018100202
-0.10730311 -0.0761002 0.05026243 0.06985054 -0.0013550892 0.033379547 0.07888069 -0.09730068
0.109556176 -0.024515182 -0.09390016 -0.011087231 0.0012269542 -0.08148715 0.0997738 0.11193273
-0.073132664 -0.0962615 0.086740606 0.11117298 0.072656624 -0.06388196 0.020474114 0.101135336
-0.013571203 0.047013156 -0.07745519 -0.04274258 0.108079605 0.10729077 -0.087185785 0.06967587
-0.10845809 0.0922826 -0.015266292 0.018882237 0.02667018 -0.11465598 -0.09081921 0.039500512
-0.012523681 -0.10669055 -0.013398327 -0.06337033 0.036422424 -0.04179848 0.06292457 0.094689794
0.047691025 0.04653064 0.07437032 0.078827135 -0.01889415 -0.10875911 0.059979342 0.035817318
-0.008682169 -0.11397698 0.00645867 -0.114841975 -0.0039680526 0.06555208 -0.06824614 -0.0691762
-0.020063668 -0.031289145 -0.057377454 0.03992421 -0.10256138 -0.047565795 -0.015771873 0.08529388
-0.09628797 0.100521676 0.101268254 -0.10531354 0.013725616 0.0346042 -0.07461436 -0.0230008
-0.025510788 -0.079833925 0.040758677 -0.10287294 0.063658394 -0.104510754 -0.095695645 0.0011359006
0.0735163 -0.08443867 0.11152422 0.1071625 -0.10943018 -0.08499858 -0.08011672 0.01157058
0.050398402 -0.078682534 -0.037522957 0.1147495 0.07360559 0.039346017 -0.11736322 -0.028471127
-0.10797525 0.09777241 0.053107835 0.0061154217 -0.0689263 0.07904213 0.09805756 -0.100738496
0.007500656 0.06921462 -0.053834885 -0.062006444 -0.073238 -0.026527874 0.107743494 0.016032256
0.10617725 -0.024984233 -0.07924039 -0.021832928 0.053347908 -0.057828512 0.044204302 -0.044994034
0.062413923 -0.019786932 -0.016943343 0.0010600239 -0.024858661 0.029316776 0.11720968 0.019281648
0.0015741885 -0.004658185 -0.06413879 -0.10533397 0.033651 -0.064828515 -0.03098569 -0.04958435
0.07036131 -0.07207802 0.01921045 -0.012559749 0.077290274 -0.052239798 -0.102302484 -0.090702645
0.1172084 -0.102126956 -0.03455901 -0.037848108 0.078808494 -0.057314347 -0.00800474 0.05130758
-0.054593742 0.08709673 -0.021567121 0.10692712 0.08473126 -0.06738074 -0.00041612983 0.020766504
0.07651948 -0.027019322 0.031278692 0.07206511 0.012551881 -0.009143382 0.0051495284 -0.10146868
00000000: 24a7 27bd f06d 873b 75c8 d7bd 3fd6 b63d
00000010: 1a06 6d3d 3371 883d 1cd5 f03c 7aa2 663d
00000020: 57a0 ef3d 10ad fdbc 78d4 26bc 8e6c 92bd
00000030: d27e 0d3d 7eb0 423d eaa8 0ebd fd6b d4bd
00000040: d233 2f3d caf7 c9bd c288 e5bd 83de d33d
00000050: 6e3a 45bd e7ed b83d 7ea9 c3bd 211e 8b3d
00000060: 8f4a e53d 3246 debd f7cb c33d 3865 bcbd
00000070: 2ec9 8fbd bcae 21bd e06e 46bd 9dbc 6fbd
00000080: 2a3d 59bd 37e8 973d f14b d23d 091f ddbd
00000090: c2d9 763d 7cfc dc3c 8d8e c13d 474b efbd
000000a0: 7e62 27bd 4090 42bd c71d c33d 883b 423c
000000b0: ea7a b2bd 9a0c 463d 6aae 96bd 3b38 92bd
000000c0: 353d be3d 3e32 383d 38be 45bd 32fb 793d
000000d0: e8e8 e4bd 013d d33d 2e02 50bd 19dc bdbd
000000e0: e207 88bd bd44 ab3d 64e4 973c a6d6 e8bd
000000f0: 2cb5 53bd c8e2 673c 48c6 763c 9677 673d
00000100: 7e62 7abd 6ab8 4ebd 08d1 69bd a081 d6bc
00000110: b3b8 e63d f8b0 88bc 709d a1bd 3300 913d
00000120: c5e7 b13d 6ce6 ebbc 8a76 41bd 6513 8b3d
00000130: 3fa5 ccbd bfd7 c73d 8e67 a7bd e046 94bc
00000140: bcc1 dbbd 6cda 9bbd fadf 4d3d cd0d 8f3d
00000150: 409d b1ba feb8 083d 338c a13d 9445 c7bd
00000160: fd5e e03d 10d4 c8bc ba4e c0bd 38a7 35bc
00000170: c0d1 a03a bce2 a6bd 3556 cc3d fd3c e53d
00000180: 94c6 95bd c024 c5bd 0fa5 b13d a9ae e33d
00000190: ffcc 943d 8cd4 82bd 54b9 a73c 0b20 cf3d
000001a0: c059 5ebc de90 403d d4a0 9ebd d812 2fbd
000001b0: d758 dd3d 43bb db3d 768e b2bd 39b2 8e3d
000001c0: 461f debd a9fe bc3d 781f 7abc ecae 9a3c
000001d0: 6c7b da3c c1d0 eabd 6cff b9bd 4acb 213d
000001e0: 2030 4dbc 9380 dabd a884 5bbc 4ec8 81bd
000001f0: ae2f 153d e234 2bbd 99de 803d b9ec c13d
00000200: aa57 433d ea96 3e3d 774f 983d 1f70 a13d
00000210: e8c7 9abc 19bd debd e6ac 753d 2eb5 123d
00000220: a83f 0ebc c36c e9bd 40a3 d33b 4532 ebbd
00000230: 7006 82bb 2b40 863d a2c4 8bbd 40ac 8dbd
00000240: 905c a4bc 0c29 00bd 9f04 6bbd 9287 233d
00000250: b30b d2bd 5ad4 42bd 0434 81bc 8fae ae3d
00000260: a132 c5bd 4fde cd3d bb65 cf3d a0ae d7bd
00000270: 68e1 603c 22bd 0d3d 6acf 98bd 2c6c bcbc
00000280: 00fc d0bc f87f a3bd 92f2 263d 0caf d2bd
00000290: 555f 823d bc09 d6bd 14fc c3bd 80e2 943a
000002a0: b78f 963d 2eee acbd cf66 e43d 0378 db3d
000002b0: ee1c e0bd bc13 aebd 3c14 a4bd 8892 3d3c
000002c0: 8e6e 4e3d 4f24 a1bd acb1 19bd c901 eb3d
000002d0: 87be 963d 4a29 213d 215c f0bd 483c e9bc
000002e0: 2122 ddbd e73c c83d 9a87 593d e063 c83b
000002f0: 3b29 8dbd d7e0 a13d 67d2 c83d fc4f cebd
00000300: 10c8 f53b 65c0 8d3d f881 5cbd 78fa 7dbd
00000310: cefd 95bd fc50 d9bc 9fa8 dc3d 1456 833c
00000320: 7573 d93d bcab ccbc c948 a2bd f8da b2bc
00000330: 5683 5a3d 97dd 6cbd 920f 353d aa4b 38bd
00000340: bea5 7f3d 3418 a2bc c4cc 8abc 80f0 8a3a
00000350: 64a4 cbbc bc29 f03c a10b f03d 8cf4 9d3c
00000360: 0055 ce3a b0a3 98bb 335b 83bd 56b9 d7bd
00000370: a2d5 093d d0c4 84bd b4d5 fdbc f618 4bbd
00000380: 9719 903d a49d 93bd 3c5f 9d3c 68c7 4dbc
00000390: 5d4a 9e3d 66f9 55bd f783 d1bd 4fc2 b9bd
000003a0: f50a f03d f027 d1bd c08d 0dbd 9e06 1bbd
000003b0: 5966 a13d 73c2 6abd 5026 03bc e627 523d
000003c0: b09d 5fbd c55f b23d 88ad b0bc 9bfc da3d
000003d0: 9587 ad3d eafe 89bd 002c dab9 841e aa3c
000003e0: 3fb6 9c3d a057 ddbc 161e 003d df96 933d
000003f0: 68a6 4d3c 20ce 15bc 60bd a83b d0ce cfbd

bias f4 [8]
-0.101737574 0.040585183 0.048107453 0.030518867 -0.02836778 -0.11120911 -0.030293457 0.057698347
00000000: ca5b d0bd a63c 263d 520c 453d b402 fa3c
00000010: 8c63 e8bc 9ac1 e3bd fc29 f8bc 1a55 6c3d

weight f4 [128, 128]
-0.0068156645 -0.035501882 0.07394875 0.06378355 0.07606902 0.06305077 -0.088074476 0.051641338
0.028351024 -0.08720551 0.010640554 0.02200383 0.051189132 0.06529953 0.08374778 0.020381667
0.0036910698 -0.0802777 0.029072337 0.068345256 0.082815535 -0.028159067 -0.06658219 0.047356315
-0.062162384 -0.037242807 -0.036504198 -0.053793877 0.009408623 -0.0268787 0.058450274 0.012974009
0.029517837 -0.011376448 0.00066825 0.04151579 0.07556095 -0.026881408 0.0216996 0.08297191
0.017396979 0.033263803 -0.027351577 0.08736428 0.07128654 0.018978111 0.014124565 -0.03180144
0.029060185 0.033746295 0.08321873 0.065995626 -0.014093198 0.030707024 0.00722187 -0.03612676
-0.020410098 -0.012180872 -0.015968315 -0.08224179 0.04549379 0.078665785 -0.0021943152 -0.02574104
0.07756073 -0.07124303 -0.0089643 -0.08423372 0.059696563 0.04749248 -0.042910337 -0.053083185
-0.01616501 -0.0372593 0.014790542 0.044499047 -0.037896823 0.00040598214 0.01824651 -0.068839215
-0.019799083 -0.010168031 0.012325853 -0.08833563 0.012182429 -0.03975945 -0.07706009 -0.029698018
0.008210205 0.0011083484 0.064679645 0.08151042 0.03144554 -0.056909457 6.503612e-05 -0.05416439
0.048006274 0.039782666 -0.07069571 -0.023425944 -0.034449138 -0.0027406737 -0.055337567 -0.04210547
-0.07369695 -0.02219735 0.07246766 -0.055126294 -0.08216506 0.081443034 -0.030935407 0.022421837
-0.08037112 -0.018973343 -0.07917579 0.082889594 -0.0078359395 0.021812156 0.04189133 -0.030737877
-0.0040999427 0.05591456 0.0101036355 0.01834689 -0.015946597 -0.0722758 -0.043274622 -0.016946591
-0.063270524 0.05466733 0.01339253 -0.02531068 0.020720556 -0.06396431 0.0070794076 -0.06449733
-0.007588804 0.074339725 -0.062928095 0.006664753 -0.075598165 -0.05645584 0.050090455 0.06034661
0.014172003 -0.08322074 0.08604217 -0.0791237 0.07081812 -0.031864893 -0.04174837 0.029557891
0.019313611 -0.06471507 -0.051157076 0.04627434 0.028956167 -0.06101812 0.033927403 -0.041704517
0.053747557 -0.030792993 -0.043261327 0.02617985 0.083524115 0.012462251 -0.064645216 -0.027601138
0.049466215 -0.00091278553 0.0045645237 0.08649979 0.06824257 0.0829488 0.027491622 -0.002654463
-0.082642436 -0.048190758 0.051194392 0.08187481 0.06243799 -0.070676774 -0.009193882 0.015350997
0.022396475 -0.028056052 -0.05855866 -0.05918061 0.021487214 -0.008931622 -0.035434477 0.08811378
0.07358771 -0.025387406 0.0005330965 0.041595377 -0.020396248 -0.07476596 0.006182514 -0.049195077
0.060517527 -0.069500715 -0.058590643 -0.067442775 0.03742648 0.057124995 -0.08693452 -0.07914013
-0.07542589 -0.050025254 -0.044940583 0.029317759 0.04319597 0.05736407 -0.024341628 -0.004116304
0.04922425 0.030020602 0.045578234 0.015237369 0.045330964 0.035989426 -0.034286555 -0.0040584877
0.0880656 0.082315244 0.01592134 0.036853664 0.07116277 -0.031105187 0.0513921 0.029977873
0.062322907 0.026967369 0.032997116 0.011698246 -0.03195853 0.021972097 0.029021084 0.04319354
0.009360813 -0.04647197 -0.07868491 0.04237821 0.0017308891 0.07789793 0.058945738 -0.078343965
0.019777536 0.008757018 0.04108434 -0.05435817 0.037280224 0.021661997 -0.051422387 0.01312831
00000000: f055 dfbb 6c6a 11bd 7172 973d f3a0 823d
00000010: 13ca 9b3d c320 813d 6460 b4bd de85 533d
00000020: 6840 e83c cd98 b2bd b855 2e3c 6041 b43c
00000030: b2ab 513d c3bb 853d f583 ab3d 74f7 a63c
00000040: e0e5 713b a368 a4bd 1c29 ee3c 99f8 8b3d
00000050: 319b a93d d8ad e6bc 3e5c 88bd b2f8 413d
00000060: fc9d 7ebd ea8b 18bd 6d85 15bd f856 5cbd
00000070: a026 1a3c b830 dcbc 8e69 6f3d f090 543c
00000080: 64cf f13c 4864 3abc 802d 2f3a 760c 2a3d
00000090: b3bf 9a3d 6636 dcbc 5cc3 b13c 2ded a93d
000000a0: 1c84 8e3c a03f 083d 6a10 e0bc 0bec b23d
000000b0: adfe 913d fc77 9b3c b86a 673c 3a42 02bd
000000c0: a00f ee3c 8e39 0a3d 956e aa3d b728 873d
000000d0: 28e7 66bc 4c8d fb3c 70a5 ec3b a7f9 13bd
000000e0: 1433 a7bc 4892 47bc fccf 82bc 626e a8bd
000000f0: b257 3a3d 871b a13d 80ce 0fbb e0de d2bc
00000100: 29d8 9e3d dee7 91bd 00df 12bc bb82 acbd
00000110: 6284 743d 7a87 423d c0c2 2fbd c16d 59bd
00000120: 7c6c 84bc 359d 18bd 0854 723c a244 363d
00000130: b339 1bbd 00da d439 b479 953c 93fb 8cbd
00000140: b031 a2bc d097 26bc 60f2 493c 50e9 b4bd
00000150: d098 473c ceda 22bd aed1 9dbd 4249 f3bc
00000160: 1884 063c 0046 913a c376 843d efee a63d
00000170: 0acd 003d e419 69bd 0064 8838 7bdb 5dbd
00000180: 3aa2 443d 26f3 223d eac8 90bd c4e7 bfbc
00000190: 8a1a 0dbd e09c 33bb a5a9 62bd c976 2cbd
000001a0: 6dee 96bd 38d7 b5bc ed69 943d 1ccc 61bd
000001b0: 2846 a8bd 9bcb a63d 406c fdbc 00ae b73c
000001c0: 9d99 a4bd fc6d 9bbc eb26 a2bd 05c2 a93d
000001d0: 5062 00bc 68af b23c 3e96 2b3d 00ce fbbc
000001e0: d058 86bb aa06 653d b889 253c 384c 963c
000001f0: 70a2 82bc 5605 94bd bb40 31bd 94d3 8abc
00000200: fa93 81bd daea 5f3d 586c 5b3c 5858 cfbc
00000210: 28be a93c b8ff 82bd 60fa e73b 2d17 84bd
00000220: 80ab f8bb 6d3f 983d 72e0 80bd 0064 da3b
00000230: 36d3 9abd 3d3e 67bd a62b 4d3d 022e 773d
00000240: b031 683c a36f aabd e136 b03d 9b0b a2bd
00000250: 1709 913d c384 02bd 5700 2bbd 6423 f23c
00000260: 9437 9e3c 5689 84bd 158a 51bd 2a8a 3d3d
00000270: 7c35 ed3c 23ee 79bd 76f7 0a3d 5bd2 2abd
00000280: 6626 5c3d 9641 fcbc ca32 31bd 2077 d63c
00000290: b10e ab3d 782e 4c3c b664 84bd c81b e2bc
000002a0: 169d 4a3d 0048 6fba 0092 953b cd26 b13d
000002b0: c3c2 8b3d 0fe1 a93d 1c36 e13c 80f6 2dbb
000002c0: 7040 a9bd ac63 45bd 36b1 513d fbad a73d
000002d0: fabe 7f3d fcbe 90bd f0a1 16bc c082 7b3c
000002e0: d078 b73c ced5 e5bc 35db 6fbd 5e67 72bd
000002f0: f405 b03c f055 12bc be23 11bd ff74 b43d
00000300: 27b5 963d 40f9 cfbc 80bf 0b3a ea5f 2a3d
00000310: 0816 a7bc e51e 99bd b096 ca3b c780 49bd
00000320: 3ae1 773d 6456 8ebd befc 6fbd 701f 8abd
00000330: 824c 193d e6fb 693d ba0a b2bd 3814 a2bd
00000340: e478 9abd 48e7 4cbd 9e13 38bd cc2b f03c
00000350: 42ee 303d 96f6 6a3d 1868 c7bc 10e2 86bb
00000360: 5e9f 493d c4ed f53c 3eb0 3a3d 28a6 793c
00000370: f6ac 393d a669 133d 0f70 0cbd 10fd 84bb
00000380: bd5b b43d e594 a83d 786d 823c def3 163d
00000390: c9bd 913d 4ed0 febc 8680 523d 2894 f53c
000003a0: 4e46 7f3d acea dc3c fc27 073d 00aa 3f3c
000003b0: f3e6 02bd d4fe b33c a0bd ed3c b6eb 303d
000003c0: 185e 193c 6459 3ebd 8e25 a1bd c694 2d3d
000003d0: 00df e23a f388 9f3d 1671 713d cd72 a0bd
000003e0: 8004 a23c 9879 0f3c 0e48 283d aca6 5ebd
000003f0: 26b3 183d 8074 b13c 48a0 52bd 2018 573c

bias f4 [128]
0.0018149242 -0.048241545 -0.010002635 -0.06444354 -0.047933925 -0.0017301813 0.058247916 -0.022870786
0.057981066 -0.07581281 0.07003417 0.07209768 0.07446159 -0.0003008619 0.031365253 -0.015561447
0.003598161 0.06612169 0.051790364 -0.04197963 -0.0044762194 -0.077240735 0.028906107 -0.00645677
0.06746038 0.040901966 0.030944392 -0.02200476 0.017029256 0.026085854 0.011177763 -0.0816839
0.040473558 0.028639503 0.040421 -0.055649906 -0.07076417 -0.07500896 0.01631277 0.075033955
0.032856695 -0.024055324 0.06562931 0.04569996 0.061777897 0.028221764 0.06160351 0.06089767
-0.051186852 -0.041580446 -0.05744644 0.013026625 -0.075040944 -0.04577332 -0.07235973 -0.01146511
0.058031835 0.058828883 -0.049950305 -0.08795064 0.045770906 0.0050363466 0.080648415 0.07519872
-0.08083358 0.011435293 -0.08589091 -0.030292701 -0.017271802 -0.082812905 -0.017051473 -0.07144258
-0.041399267 -0.054129135 -0.06847458 -0.0730144 -0.027822737 0.05064351 0.014543325 0.016135722
-0.068333715 0.086098306 -0.0611467 -0.02852882 -0.010297306 0.07941193 -0.051042594 -0.027184296
-0.011643797 -0.036199126 -0.057280935 -0.04944389 -0.032495566 -0.060786597 0.031631 -0.018095583
-0.054376967 -0.0055926964 -0.050315812 0.008484632 0.064658724 0.021124445 -0.06847322 -0.0007053092
-0.015309945 0.08612978 0.038248964 0.069122516 -0.06522849 0.020330258 0.037421234 -0.04554111
0.08220313 -0.03289084 0.044873543 -0.039659046 0.048229076 0.043609552 -0.083228886 0.07148997
0.05952736 -0.06524691 0.066940434 -0.02929777 -0.033435464 -0.06293938 0.058756284 0.072394244
00000000: c0e2 ed3a ed98 45bd 18e2 23bc fafa 83bd
00000010: 5d56 44bd 40c7 e2ba 5e95 6e3d 845b bbbc
00000020: 8e7d 6d3d bf43 9bbd 136e 8f3d f3a7 933d
00000030: 517f 983d 00bd 9db9 da78 003d 70f5 7ebc
00000040: 20cf 6b3b cf6a 873d 2222 543d d5f2 2bbd
00000050: 40ad 92bb 6430 9ebd 80cc ec3c 5093 d3bb
00000060: ab28 8a3d d288 273d 187f fd3c 5443 b4bc
00000070: f080 8b3c 00b2 d53c f022 373c e349 a7bd
00000080: 9ac7 253d 649d ea3c 7e90 253d 28f1 63bd
00000090: ceec 90bd 4c9e 99bd 5ca2 853c 67ab 993d
000000a0: be94 063d ac0f c5bc a968 863d e22f 3b3d
000000b0: d20a 7d3d 5431 e73c f653 7c3d d66f 793d
000000c0: 4ea9 51bd 4250 2abd f54c 6bbd a06d 553c
000000d0: 11af 99bd ce7c 3bbd 5731 94bd 28d8 3bbc
000000e0: cab2 6d3d 8ef6 703d b198 4cbd 771f b4bd
000000f0: 467a 3b3d f007 a53b ff2a a53d c901 9a3d
00000100: 138c a5bd 185b 3b3c 93e7 afbd 6628 f8bc
00000110: 987d 8dbc d099 a9bd 88af 8bbc 7d50 92bd
00000120: 4792 29bd 83b6 5dbd 673c 8cbd 9388 95bd
00000130: 82ec e3bc 926f 4f3d 2047 6e3c 102f 843c
00000140: 8cf2 8bbd 4f54 b03d f674 7abd 46b5 e9bc
00000150: 08b6 28bc b9a2 a23d 0a12 51bd 9ab1 debc
00000160: a0c5 3ebc 8945 14bd 6a9f 6abd ad85 4abd
00000170: 121a 05bd 5efb 78bd 828f 013d 303d 94bc
00000180: 62ba 5ebd f042 b7bb f417 4ebd 2003 0b3c
00000190: cb6b 843d 2c0d ad3c b03b 8cbd 80e4 38ba
000001a0: 90d6 7abc cf64 b03d f2aa 1c3d 1b90 8d3d
000001b0: 8496 85bd a48b a63c 0247 193d 5189 3abd
000001c0: 1d5a a83d 8cb8 06bd 52cd 373d 8671 22bd
000001d0: da8b 453d ee9f 323d e873 aabd 5569 923d
000001e0: f6d2 733d 2ca0 85bd 1118 893d e001 f0bc
000001f0: a0f3 08bd 5de6 80bd 6eaa 703d 6f43 943d

weight f4 [32, 128]
0.009307675 0.06706325 -0.059631445 0.059888683 -0.01631435 -0.0018338189 0.06310896 -0.07307613
0.054405086 0.06938832 0.07183439 0.007859714 0.053964175 -0.011930689 0.059062786 -0.02749081
0.082462095 -0.063551895 -0.08618542 0.011479318 -0.0340568 0.0372333 -0.028335907 -0.026374768
0.027548432 0.00035677105 0.034599982 -0.08376489 -0.034943078 0.08340598 0.051829837 -0.0011854991
-0.033341285 -0.06975435 0.084175564 -0.025185406 -0.079193994 0.039740004 -0.07059547 0.050545774
0.0132450685 -0.033404138 -0.032863583 0.0757582 -0.04252065 -0.047216386 0.05735492 -0.08222519
-0.013563797 0.019640021 -0.08780617 0.0655553 0.07858723 0.06893649 -0.08460611 0.034389846
-0.039928943 -0.06636823 0.062138326 0.06622777 -0.04101899 0.0052139983 0.017268121 0.0137422085
0.017638206 0.011530586 0.038223572 -0.017691582 -0.033476703 -0.06617343 0.029248603 -0.087783426
-0.0034986958 -0.076684386 0.068762295 -0.03893122 -0.061357465 -0.048021235 0.06485591 -0.03612555
-0.052420236 0.050992213 0.08640189 0.07557816 -0.03589529 0.085224174 -0.034566 0.01440198
0.05045625 -0.0807353 -0.019378781 0.027705617 0.050428234 0.041469418 -0.0016410425 0.024195135
0.015855402 -0.027917303 -0.06511096 -0.078601606 0.011629663 -0.015475519 -0.045968946 0.025093831
0.051499166 -0.057107966 -0.032630205 -0.04325311 -0.07864922 0.03185746 -0.022071935 0.053185873
-0.024685316 0.033338062 -0.05607812 -0.0031731948 -0.0015405416 -0.019153528 -0.051278733 0.0303149
-0.0005033165 0.020682722 0.00047693402 -0.025682606 -0.03820994 -0.040013004 0.06482611 -0.06831242
-0.0742339 -0.07658677 0.069132246 0.02427493 -0.050689645 -0.014500864 0.005592793 0.073931076
0.026492655 0.04596626 -0.018340662 -0.042065114 0.062392287 -0.074002944 0.06958241 0.059224494
0.031553164 0.019639999 -0.060146164 0.009410083 -0.07652661 -0.08377674 -0.068732396 -0.014235258
0.004461631 0.08081912 0.010636538 -0.03558769 -0.030795418 0.059453465 -0.03593963 0.0069195554
0.03904424 -0.03817259 -0.07674279 -0.023417875 -0.023822539 -0.041747496 -0.018311255 -0.056634754
-0.020651236 0.063274466 -0.05632505 0.03228555 -0.0081323385 0.02701027 0.068830095 0.0730611
0.068656705 0.05549731 -0.06778102 -0.0882931 0.05661223 -0.031169776 0.014752753 -0.038896747
-0.051637705 -0.06574016 -0.028046273 0.04966917 0.080985345 -0.016264215 -0.0673296 -0.055104557
0.0609527 -0.0007721931 -0.052934732 -0.014866129 0.0093720555 0.03580057 0.005632691 0.062799565
0.065025546 -0.0024377927 0.051869474 -0.005618438 0.057396762 0.058694445 -0.0686179 0.082795106
-0.021451764 -0.075996466 0.08081683 -0.001551643 -0.013728872 0.038215943 0.0831945 -0.0535574
0.070505835 -0.0014998913 0.06614681 0.046818398 0.061072208 0.04979918 0.06769555 -0.07967653
0.05153487 0.056919985 -0.015940465 -0.052047215 0.08410724 0.062650315 -0.00439737 0.044823788
-0.013922423 0.07168005 -0.08416648 0.08659526 -0.0804271 -0.07523614 0.08639126 0.044308282
0.03336037 0.022309445 -0.041073527 0.002280727 -0.0048396885 0.04483614 -0.08684177 -0.0106846765
0.059598736 0.07071624 0.011900395 0.035242885 -0.06107021 -0.008857161 0.058212556 0.05367606
00000000: 387f 183c 7558 893d 1a40 74bd d64d 753d
00000010: aca5 85bc c05c f0ba 453f 813d f0a8 95bd
00000020: ded7 5e3d 771b 8e3d e91d 933d 08c6 003c
00000030: 8a09 5d3d f078 43bc d2eb 713d 6834 e1bc
00000040: e3e1 a83d 7f27 82bd fb81 b0bd c013 3c3c
00000050: 257f 0bbd f281 183d b420 e8bc e60f d8bc
00000060: 40ad e13c 000d bb39 b6b8 0d3d ed8c abbd
00000070: 7920 0fbd c1d0 aa3d 864b 543d c062 9bba
00000080: df90 08bd 5edb 8ebd 3d64 ac3d a051 cebc
00000090: 7630 a2bd 6ac6 223d 5c94 90bd 1609 4f3d
000000a0: d801 593c c7d2 08bd f79b 06bd 1d27 9b3d
000000b0: 222a 2ebd f865 41bd feec 6a3d ae65 a8bd
000000c0: b03a 5ebc 1ce4 a03c b9d3 b3bd db41 863d
000000d0: 57f2 a03d 932e 8d3d f845 adbd 5edc 0c3d
000000e0: 888c 23bd 11ec 87bd c284 7e3d 6da2 873d
000000f0: 8703 28bd 30da aa3b e075 8d3c 0027 613c
00000100: 007e 903c c8ea 3c3c 5290 1c3d f0ed 90bc
00000110: de1e 09bd ef85 87bd c49a ef3c ccc7 b3bd
00000120: 604a 65bb b40c 9dbd 3fd3 8c3d 5876 1fbd
00000130: f751 7bbd eab1 44bd 2dd3 843d 62f8 13bd
00000140: 9ab6 56bd 36dd 503d 79f3 b03d b9c8 9a3d
00000150: f106 13bd 038a ae3d 1495 0dbd 48f6 6b3c
00000160: 36ab 4e3d 8d58 a5bd 40c0 9ebc e4f6 e23c
00000170: d68d 4e3d d6db 293d 4018 d7ba e034 c63c
00000180: 30e3 813c d4b2 e4bc e558 85bd e1f9 a0bd
00000190: 588a 3e3c 088d 7dbc ef49 3cbd 9491 cd3c
000001a0: caf0 523d 0bea 69bd 40a7 05bd 2c2a 31bd
000001b0: d812 a1bd f87c 023d 34d0 b4bc 6ed9 593d
000001c0: dc38 cabc 7e8d 083d 2cb2 65bd 60f5 4fbb
000001d0: 00ec c9ba dce7 9cbc a609 52bd f456 f83c
000001e0: 00f1 03ba d06e a93c 000d fa39 5464 d2bc
000001f0: 0782 1cbd ade4 23bd 8dc3 843d 62e7 8bbd
00000200: f107 98bd 86d9 9cbd 3595 8d3d 38dc c63c
00000210: f29f 4fbd 0895 6dbc c043 b73b 2d69 973d
00000220: 2007 d93c 1e47 3c3d 283f 96bc 784c 2cbd
00000230: 0e8f 7f3d db8e 97bd 3981 8e3d 6295 723d
00000240: e43d 013d 10e4 a03c d35b 76bd c02c 1a3c
00000250: fcb9 9cbd 2493 abbd 92c3 8cbd 003b 69bc
00000260: e032 923b 7f84 a53d e044 2e3c 66c4 11bd
00000270: ac46 fcbc 7a85 733d 6f35 13bd 70bd e23b
00000280: daec 1f3d dd5a 1cbd 532b 9dbd d8d6 bfbc
00000290: 7c27 c3bc 6cff 2abd 7c01 96bc d8f9 67bd
000002a0: c82c a9bc 0b96 813d 18b5 66bd da3d 043d
000002b0: 803d 05bc a444 dd3c cbf6 8c3d 0fa1 953d
000002c0: e39b 8c3d 2651 633d c7d0 8abd 03d3 b4bd
000002d0: 3ae2 673d c257 ffbc 88b5 713c 3252 1fbd
000002e0: 0f82 53bd c7a2 86bd 4cc1 e5bc e671 4b3d
000002f0: a5db a53d 883c 85bc 1ae4 89bd 51b5 61bd
00000300: 8aa9 793d 006d 4aba 17d2 58bd 1091 73bc
00000310: 408d 193c 9ea3 123d 7092 b83b 0f9d 803d
00000320: 1d2c 853d 60c3 1fbb 1675 543d e01a b8bb
00000330: de18 6b3d 9669 703d 8b87 8cbd 7b90 a93d
00000340: 9cbb afbc 09a4 9bbd 4b83 a53d 8060 cbba
00000350: 10ef 60bc 5288 1c3d e161 aa3d 015f 5bbd
00000360: 5d65 903d 0098 c4ba fb77 873d a6c4 3f3d
00000370: da26 7a3d 3afa 4b3d f7a3 8a3d 732d a3bd
00000380: 3a16 533d ee24 693d 9495 82bc 762f 55bd
00000390: 6b40 ac3d cf4e 803d d017 90bb 2699 373d
000003a0: e01a 64bc fdcc 923d 7a5f acbd db58 b13d
000003b0: f7b6 a4bd 6815 9abd e7ed b03d 9a7c 353d
000003c0: e2a4 083d 4cc2 b63c b73c 28bd 4078 153b
000003d0: 4096 9ebb 1aa6 373d 19da b1bd c80e 2fbc
000003e0: ce1d 743d add3 903d e0f9 423c d85a 103d
000003f0: c224 7abd a01d 11bc 4a70 6e3d 6edb 5b3d

bias f4 [32]
-0.019322224 0.0064306706 0.04891921 0.04463067 -0.00017002225 0.06569623 0.06211973 0.06978976
0.068572454 -0.034853186 -0.07183157 0.014474787 -0.016225375 -0.055344734 0.032383703 0.035053104
0.010596953 0.03627464 -0.07713392 0.008887507 -0.06922397 -0.011799157 -0.05263957 0.008073121
-0.07690698 -0.004642561 -0.024936542 0.023522243 -0.04414877 -0.037697636 0.016663693 0.061875395
00000000: a449 9ebc 60b8 d23b 825f 483d a6ce 363d
00000010: 0048 32b9 bf8b 863d 4271 7e3d efed 8e3d
00000020: b76f 8c3d 37c2 0ebd 6e1c 93bd a827 6d3c
00000030: 14eb 84bc 29b1 62bd c6a4 043d d893 0f3d
00000040: d89e 2d3c b894 143d 63f8 9dbd e89c 113c
00000050: 4cc5 8dbd 4051 41bc 979c 57bd 2045 043c
00000060: 6881 9dbd a020 98bb b847 ccbc b8b1 c03c
00000070: 57d5 34bd d668 1abd 4c82 883c 0e71 7d3d
