MOEmodels/rowModel_7.pt (torch, 95275 bytes, 12 tensors)

weight f4 [4, 1, 3, 3]
0	0x3dd73acc	0.105092615
1	0xbe61087e	-0.21975896
2	0x3d9bdaa4	0.07610062
3	0x3de41b7c	0.11138055
4	0x3e9dbd89	0.30808666
5	0xbd4c67a8	-0.04990354
6	0xbe5c1a50	-0.21494412
7	0x3e130e40	0.14360905
8	0xbe502b26	-0.2032896
9	0xbe942476	-0.28934067
10	0x3e944f11	0.28966573
11	0xbe5a7a4e	-0.21335718
12	0x3d113520	0.035451055
13	0xbd85e700	-0.065382004
14	0x3e8ea1e5	0.2785789
15	0xbdf223a6	-0.11823206
16	0x3e973f01	0.29540256
17	0x3d2f8d60	0.042859435
18	0xbe8331ee	-0.2562403
19	0xbe38706e	-0.18011639
20	0x3dc6061c	0.09669134
21	0x3e8083e1	0.25100616
22	0xbdd61c10	-0.10454571
23	0x3e4afe32	0.1982353
24	0xbe7e22e0	-0.24817991
25	0xbdeae7bc	-0.11469981
26	0xbe90a31a	-0.28249437
27	0xbe2c2cae	-0.16813919
28	0x3e5d6fc2	0.21624663
29	0x3e8c0749	0.27349308
30	0xbe1fbd26	-0.15599498
31	0x3e34592e	0.17612144
32	0xbcf34250	-0.029694706
33	0x3e93a7c9	0.28838947
34	0xbd319e40	-0.04336381
35	0xbe99f8f6	-0.30072755

bias f4 [4]
0	0xbd09e5f8	-0.03366658
1	0xbdd9171c	-0.10600111
2	0x3e87fec5	0.2656156
3	0xbc8ec740	-0.017428994

weight f4 [8, 4, 3, 3]
0	0x3b8f7ee0	0.0043791384
1	0x3d03fbbc	0.032222494
2	0xbe1dee74	-0.15422994
3	0x3e18cc21	0.14921619
4	0x3d5834f4	0.052784875
5	0xbc168370	-0.009186611
6	0x3d92230a	0.071355894
7	0xbe0ced32	-0.13762358
8	0xbe264e30	-0.16240764
9	0x3da4ccc0	0.080468655
10	0xbdc8fce6	-0.098138615
11	0xbe171670	-0.14754653
12	0x3e0dceab	0.13848369
13	0xbd23d2f4	-0.039996102
14	0x3e1cd1d1	0.15314414
15	0xbdc58e13	-0.09646239
16	0x3db462fa	0.08807941
17	0xbd812693	-0.063061856
18	0xbdbc4688	-0.0919314
19	0xbe2571df	-0.1615672
20	0x3c4b6510	0.012414232
21	0xbd8dda18	-0.06926364
22	0xbe20a95f	-0.1568961
23	0xbccf2db8	-0.025290355
24	0xbe2886da	-0.16457692
25	0xbdc357ce	-0.09538232
26	0x3b501140	0.0031748563
27	0xbd66d356	-0.05635389
28	0xbd34fca0	-0.044186234
29	0xbe0ae948	-0.13565552
30	0xbe27369a	-0.16329423
31	0xbdf96b83	-0.12178709
32	0xbdbf149b	-0.09330102
33	0x3cc32d60	0.023825347
34	0x3d7aa9c0	0.061197042
35	0xbde55596	-0.11197965
36	0x3e24509d	0.16046377
37	0x3de1fdf2	0.11034764
38	0xbe12741f	-0.14302109
39	0xbc2c1500	-0.010503054
40	0x3e089fd1	0.13342215
41	0x3c11b610	0.008893505
42	0xbd68975c	-0.056784973
43	0x3c80dbe0	0.015729845
44	0xbe16dce8	-0.14732707
45	0xbe0f1e6e	-0.13976452
46	0xbd6f41c0	-0.058412313
47	0xbded1f33	-0.115782164
48	0xbdd54e78	-0.10415357
49	0xbe05fba0	-0.13084269
50	0x3e14eead	0.14544173
51	0xbe0f27a0	-0.1397996
52	0x3cdebff8	0.027191147
53	0x3d6e1ae4	0.058131114
54	0x3dd59b36	0.10429995
55	0x3e010305	0.12598808
56	0x3df839c2	0.121203914
57	0x3e20a96b	0.15689628
58	0x3d87df36	0.06634371
59	0x3e04c391	0.12965228
60	0x3d42eba4	0.047588006
61	0xbd4a9006	-0.049453758
62	0x3dffe66a	0.1249512
63	0xbe06e47b	-0.13173096
64	0xbdcbc033	-0.099487685
65	0xbdc8f298	-0.09811896
66	0xbe173154	-0.14764911
67	0xbd4d3c70	-0.050106466
68	0x3d4c23f0	0.04983896
69	0x3d4067ac	0.04697387
70	0xbd4db9b0	-0.050225914
71	0x3b699400	0.0035641193
72	0xbe27f8f7	-0.16403566
73	0x3e24f617	0.16109501
74	0xbb732fc0	-0.0037107319
75	0x3de98f5e	0.11404298
76	0x3d4fce14	0.05073364
77	0x3e1582a7	0.14600621
78	0xbca3ce08	-0.019995704
79	0x3a5e7d00	0.00084872544
80	0xbd011230	-0.031511486
81	0x3c818500	0.01581049
82	0x3df7b20e	0.12094508
83	0x3e15e143	0.14636712
84	0x3d13f894	0.036125734
85	0x3df8865a	0.121350005
86	0xbe272d0b	-0.16325776
87	0x3dec22fe	0.11530112
88	0xbe25ce94	-0.16192085
89	0x3d963328	0.07333976
90	0xbcca30d8	-0.024681494
91	0x3e2532d5	0.16132672
92	0x3e0ee887	0.1395589
93	0x3e13f847	0.14450179
94	0x3d0daaf0	0.034586847
95	0xbdbd2190	-0.09234917
96	0xbd4d7160	-0.05015695
97	0x3c7aebd0	0.015315011
98	0x3d7c5440	0.061603785
99	0x3d8c35a2	0.06846167
100	0x3e09dd1f	0.13463257
101	0x3c571790	0.013128176
102	0x3deb65a2	0.11493994
103	0xbda5e48b	-0.08100232
104	0x3c10dec0	0.00884217
105	0xbd4dd24c	-0.050249383
106	0x3df650fa	0.12027164
107	0xbdf52d18	-0.119714916
108	0x3e0f1091	0.13971163
109	0xbe0ef5f2	-0.13961008
110	0xbd67bbcc	-0.05657558
111	0x3d692ae0	0.056925654
112	0x3cda6868	0.026661113
113	0xbd21f72c	-0.039542362
114	0x3dad38fa	0.08458133
115	0x3de09012	0.10964979
116	0xbdeeccb8	-0.11660141
117	0x3d8aa342	0.0676942
118	0xbdab9e10	-0.083797574
119	0x3e25d8cb	0.16195981
120	0x3e1c0189	0.1523496
121	0x3dae14a2	0.08500029
122	0xbc6bc200	-0.014389515
123	0xbe239076	-0.15973076
124	0x3de72cce	0.11287843
125	0xbd7c9b36	-0.06167146
126	0x3ddad4c6	0.106851146
127	0xbdc3d99b	-0.09562989
128	0xbd11c9c0	-0.035592794
129	0x3dd1c55e	0.10242723
130	0xbdeffc40	-0.11718035
131	0x3d8a42a6	0.067509934
132	0x3e1b8b2b	0.15189807
133	0xbe086d70	-0.13322997
134	0xbddbf08e	-0.107392415
135	0x3ddab24a	0.10678537
136	0x3e0e8547	0.13918029
137	0xbe1b2bec	-0.15153474
138	0x3dd5f952	0.10447945
139	0x3e1943f7	0.14967333
140	0xbd9d299e	-0.076739535
141	0xbdaaaaa3	-0.083333276
142	0xbcec1420	-0.02881819
143	0x3b351f00	0.0027636886
144	0x3d7ecb00	0.062205315
145	0xbd73a196	-0.059480272
146	0x3e1d5091	0.15362765
147	0xbe18c250	-0.14917874
148	0xbd895698	-0.067059696
149	0xbd3b0c66	-0.04566612
150	0xbe23be58	-0.15990579
151	0x3dcd0bfe	0.10012053
152	0xbc90c660	-0.017672718
153	0x3e1c5e45	0.15270336
154	0x3d891750	0.066939
155	0x3d526590	0.05136639
156	0x3de99a86	0.11406426
157	0x3d8c3b9a	0.068473056
158	0xbac88880	-0.0015299469
159	0x3d4ce774	0.05002542
160	0xbe181fdf	-0.14855908
161	0xbd838ac8	-0.06422955
162	0x3dbd1e06	0.09234242
163	0x3db686a2	0.08912398
164	0xbd5bf060	-0.053696036
165	0xbcd95c20	-0.026533186
166	0xbe258777	-0.16164957
167	0xbe1d4e5b	-0.15361921
168	0x3e19d351	0.15022017
169	0x3e19bfff	0.15014647
170	0xbdfdef96	-0.12399213
171	0xbde81030	-0.113312125
172	0xbd82bd58	-0.06383771
173	0x3dc89cd2	0.09795536
174	0xbe1230f6	-0.1427649
175	0xbdf999a0	-0.12187505
176	0x3d844536	0.064585134
177	0x3e084a35	0.13309558
178	0xbd3a6c2c	-0.045513317
179	0x3e17a1f7	0.14807878
180	0xbbe66020	-0.007030502
181	0xbd23b3dc	-0.03996645
182	0xbcb04998	-0.021519467
183	0x3de3bace	0.111196145
184	0xbd5f9390	-0.054584086
185	0x3dc69912	0.096971646
186	0x3e26c349	0.16285433
187	0xbe048b13	-0.12943678
188	0xbd7f0e90	-0.062269747
189	0xbd55cf90	-0.0521999
190	0xbe1472a3	-0.14496855
191	0xbd14b344	-0.036303774
192	0x3d12a4dc	0.035801753
193	0xbd5cb0ec	-0.053879663
194	0x3e01987b	0.12655823
195	0xbe2970a7	-0.1654688
196	0x3d832ed8	0.06405419
197	0xbd19986c	-0.037498876
198	0x3de52e42	0.111904636
199	0xbccd6418	-0.025072142
200	0x39cd8a00	0.00039203465
201	0x3dbdde9a	0.092709735
202	0x3dc9571e	0.098310694
203	0xbda569a6	-0.080767915
204	0x3c78be30	0.015182063
205	0x3b6ca240	0.003610745
206	0xbe1acf30	-0.15118098
207	0xbe1d8afe	-0.15385053
208	0xbdd38fd8	-0.103301704
209	0xbdfa2080	-0.1221323
210	0x3cb4c268	0.022065356
211	0x3d12aad0	0.03580743
212	0xbe0eff9f	-0.13964699
213	0x3e130f11	0.14361216
214	0xbc29e990	-0.010370627
215	0xbd537c96	-0.051632486
216	0xbd1ed530	-0.03877753
217	0xbc0489d0	-0.008089498
218	0x3ce3b428	0.027795866
219	0xbd6c8b06	-0.05774977
220	0x3dbff5ca	0.093730524
221	0x3b9cc280	0.0047839284
222	0x3dcfd45a	0.10147925
223	0x3dd53c5a	0.10411902
224	0x3d861d06	0.065485045
225	0x3d82a970	0.06379974
226	0x3dd8d172	0.105868235
227	0xbdfdb59e	-0.12388156
228	0x3dd5ad92	0.104334965
229	0xbe0d2ce3	-0.13786654
230	0xbdddceb8	-0.10830444
231	0x3df35992	0.118823186
232	0xbdf3b9fb	-0.11900707
233	0x3e138e71	0.14409806
234	0x3dd5b3d6	0.104346916
235	0xbdb26176	-0.087099954
236	0x3dca64aa	0.098824814
237	0xbc4123d0	-0.0117883235
238	0x3de47016	0.11154191
239	0xbdfd1b6e	-0.123587474
240	0xbcdcf468	-0.02697201
241	0x3d9b5850	0.07585204
242	0xbe0c0dbb	-0.13677113
243	0x3e090d65	0.13384016
244	0x3d27904c	0.040909097
245	0xbc801a98	-0.01563768
246	0xbe211ffe	-0.1573486
247	0xbd8937e0	-0.067001104
248	0xbe267446	-0.16255292
249	0x3ced3308	0.028954998
250	0xbd3789f6	-0.044809304
251	0x3d79b36c	0.060962126
252	0xbdbead3e	-0.09310387
253	0x3e211c19	0.15733375
254	0xbde6f678	-0.11277479
255	0xbe15a0cb	-0.14612119

bias f4 [8]
0	0x3e071e31	0.13195111
1	0x3e081639	0.13289727
2	0xbcec1440	-0.02881825
3	0x3df9d50e	0.1219884
4	0xbcd59e88	-0.02607657
5	0xbd6cf4e0	-0.05785072
6	0x3c56c800	0.013109207
7	0x3dd73656	0.10508411

weight f4 [8, 8, 3, 3]
0	0xbd58ac3e	-0.052898638
1	0x3cccd20c	0.025002502
2	0xbdbef15d	-0.0932338
3	0xbdb36424	-0.08759335
4	0xbd8bf989	-0.068347044
5	0x3d5e6b9a	0.054301836
6	0x3b01b2e0	0.0019790456
7	0xbda105c5	-0.078624286
8	0xbd653f6b	-0.055968683
9	0x3dabc455	0.08387057
10	0x3d41f036	0.047348224
11	0xbd936504	-0.071970016
12	0xbcbe5584	-0.023234136
13	0xbd58d664	-0.052938834
14	0x3d81f41f	0.063453905
15	0xbc1d0170	-0.009582862
16	0xbda84a9a	-0.08217354
17	0x38591800	5.1759183e-05
18	0xbd5e7b10	-0.05431658
19	0xbd8a6773	-0.067580126
20	0x3d46edc2	0.048566587
21	0x3c3ebfc8	0.011642404
22	0x3d32a172	0.043610997
23	0x3d5a39a2	0.05327762
24	0xbd919e14	-0.07110229
25	0xbd8a3b96	-0.06749646
26	0x3d8a26c9	0.06745679
27	0x3d0fcf52	0.035109825
28	0x3c25f2f8	0.010128729
29	0x3d77b6be	0.06047701
30	0xbdcbaa70	-0.09944618
31	0xbdbb599c	-0.09147951
32	0xbdaf76b6	-0.08567564
33	0xbd3d238c	-0.04617648
34	0x3bea82d0	0.0071567073
35	0xbdb898f4	-0.090135485
36	0x3d9cac0f	0.07650005
37	0xbdbd5e9c	-0.09246561
38	0xbda7e803	-0.081985496
39	0x3d35ff52	0.044432946
40	0x3dba127b	0.09085556
41	0x3dd759b3	0.10515156
42	0x3ddf44c7	0.1090179
43	0x3d5b2b5a	0.05350814
44	0x3d20275e	0.039100043
45	0x3b8f4840	0.0043726265
46	0xbd8362ad	-0.06415305
47	0xbd05bf18	-0.032652944
48	0xbd7d86ea	-0.061896242
49	0x3d725b3a	0.05916903
50	0x3c589228	0.01321844
51	0xbc2f24b0	-0.010689899
52	0x3da731eb	0.08163818
53	0xbc6c5da8	-0.014426626
54	0x3dbe1033	0.092804335
55	0x3cc86764	0.024463363
56	0x3ca9d4ec	0.020731412
57	0xbd835150	-0.064119935
58	0x3db36c41	0.08760882
59	0x3d7cf102	0.06175328
60	0xbd357c8a	-0.044308223
61	0x3d97f0df	0.074189894
62	0x3d1a9ce6	0.037747286
63	0x3bbef070	0.005827002
64	0x3d0e8f22	0.03480447
65	0xbdc0c4e5	-0.09412555
66	0xbdb93237	-0.09042781
67	0x3dcecdcb	0.10097846
68	0x3cb8f484	0.022577532
69	0xbddfbd8f	-0.10924827
70	0x3db8c6cd	0.09022293
71	0xbd0000d4	-0.03125079
72	0x3de48937	0.11158984
73	0x3d8ac41d	0.06775687
74	0x3d80cafd	0.06288717
75	0xbc958298	-0.018250749
76	0xbd57dbf0	-0.052699983
77	0x3d7f7456	0.062366806
78	0x3d45e8de	0.048317783
79	0x3c350898	0.011049412
80	0x3d025362	0.0318178
81	0x3b65aa40	0.0035044104
82	0xbdd3e393	-0.10346141
83	0x3d4a5692	0.049398966
84	0x3d602a56	0.054727875
85	0xbb01eca0	-0.0019824877
86	0xbdbbf152	-0.091768876
87	0x3cf090ac	0.02936586
88	0xbdda635a	-0.10663481
89	0x3d7f76ee	0.06236928
90	0xbd78236d	-0.06058066
91	0x3bda9340	0.0066703856
92	0xbc884fd8	-0.016639635
93	0xbd87151a	-0.06595822
94	0xbbe1b6e0	-0.0068882555
95	0x3de1e25b	0.11029502
96	0xbd835384	-0.06412414
97	0xbc556a10	-0.013025776
98	0xbd9c0d42	-0.07619716
99	0xbb206900	-0.0024476647
100	0xbca70dc4	-0.020392306
101	0x3db9bd2d	0.090692855
102	0x3dc06911	0.0939504
103	0x3d8207bd	0.06349132
104	0xbde6c8a8	-0.11268741
105	0xbde8c65f	-0.11365961
106	0x3da7316b	0.081637226
107	0x3d540b76	0.051768743
108	0xbdee0315	-0.116216816
109	0x3da58fa5	0.08084039
110	0x3cc648d4	0.024204649
111	0x3c99adbc	0.0187596
112	0xbcc714e0	-0.024301946
113	0x3de894db	0.11356517
114	0xbb1172e0	-0.0022193715
115	0xbdb9ec7c	-0.09078309
116	0xbbdd10b0	-0.006746374
117	0x3d4e16d6	0.050314747
118	0xbd3ec980	-0.046578884
119	0xbd033c0e	-0.032039694
120	0x3de0d747	0.10978561
121	0xbd9ffe74	-0.07812205
122	0xbda080ff	-0.07837104
123	0x3d4f41da	0.05059991
124	0x3d078256	0.033083282
125	0xbccdf010	-0.025138885
126	0x3d591126	0.05299487
127	0x3de80b6d	0.11330304
128	0xbdb17c1a	-0.086662486
129	0xbd0f0a40	-0.034921885
130	0x3de60879	0.11232085
131	0xbdc445c7	-0.095836215
132	0x3d269dca	0.040677823
133	0x3d9f3ed1	0.07775653
134	0x3dc2caab	0.09511312
135	0xbd62d71d	-0.05538093
136	0x3d452de6	0.048139475
137	0x3c80e2ac	0.015733086
138	0x3d9c7a75	0.07640544
139	0xbd8dbf38	-0.06921238
140	0x3ddf9f59	0.10919065
141	0xbd9f04ed	-0.077646114
142	0xbd3bc6a0	-0.04584372
143	0xbcf2fe50	-0.029662281
144	0x3d0ba3ba	0.03409169
145	0xbcd85d98	-0.026411816
146	0x3dbe4f3d	0.09292457
147	0xbdbb4c52	-0.09145416
148	0xbdb3b0b7	-0.0877394
149	0x3dbaecdb	0.09127208
150	0xbd76e5e0	-0.06027782
151	0xbd01a906	-0.031655334
152	0xbd667a11	-0.056268755
153	0x3d6fdc12	0.058559485
154	0xb9e55800	-0.0004374385
155	0x3c873dac	0.0165089
156	0x3c8b08ec	0.016972028
157	0x3d5da84a	0.05411557
158	0x3d03186e	0.03200572
159	0x3dca2145	0.09869627
160	0xbc6135d8	-0.0137457475
161	0xbcbfb14c	-0.023399971
162	0xbdc7cee6	-0.097562596
163	0x3d65c75a	0.05609832
164	0xbdb77878	-0.089585245
165	0x3dd8331d	0.10556624
166	0x3c008b18	0.0078456625
167	0xbd0c1716	-0.034201704
168	0xbce4e870	-0.027942866
169	0x3d1c0f1a	0.03810034
170	0xbd70f1b1	-0.058824245
171	0x3c9f26ac	0.01942762
172	0xbc34b768	-0.011030056
173	0x3cd31964	0.025768943
174	0x3dc08bc7	0.094016604
175	0xbb89b180	-0.004202068
176	0xbd30d94e	-0.043175988
177	0xbdd25121	-0.1026938
178	0xbd519e7c	-0.051176533
179	0x3dcf3391	0.101172574
180	0xbc932a00	-0.017964363
181	0x3da96c7f	0.08272647
182	0xbd5558ea	-0.05208675
183	0x3d7c646a	0.0616192
184	0xbdee495c	-0.11635086
185	0xbca4c5a0	-0.020113766
186	0xbce66f6c	-0.028129302
187	0x3d6a1b6e	0.057155065
188	0xbd76fa8b	-0.06029753
189	0xbde57b27	-0.1120513
190	0x3d8172d3	0.06320729
191	0xbc3bc8e0	-0.011461467
192	0xbdc0c79d	-0.09413073
193	0x3d6c4ae2	0.0576886
194	0x3ddb3e3d	0.107052304
195	0x3d629e96	0.05532702
196	0x3d86986d	0.06572042
197	0xbd650602	-0.055913933
198	0xbdcb8381	-0.09937192
199	0x3d85c457	0.065315895
200	0xbd3d46a8	-0.04620996
201	0xbd50ae72	-0.050947614
202	0xbdb9f07c	-0.09079072
203	0x3d54e4d2	0.051976033
204	0xbd9bf696	-0.07615392
205	0xbd54e720	-0.05197823
206	0x3d69222a	0.056917347
207	0xbdc23064	-0.09481886
208	0xbde74e60	-0.11294246
209	0xbdc3ca1c	-0.09560034
210	0xbd1ecb86	-0.038768314
211	0xbd1d49e2	-0.03840054
212	0x3de50775	0.11183063
213	0xbdcece16	-0.100979015
214	0x3d838611	0.064220555
215	0x3d312f26	0.043257855
216	0xbdeaea4a	-0.11470468
217	0xbde1ca99	-0.110249706
218	0x3bceaef0	0.0063074753
219	0xbd123b40	-0.035701036
220	0xbdcc5c34	-0.09978524
221	0x3cedb494	0.02901677
222	0x3dbe1157	0.09280651
223	0xbd90e5f6	-0.070751116
224	0xbd997630	-0.074932456
225	0x3d4d4606	0.050115608
226	0xbdc3a0b4	-0.09552136
227	0xbbdd5aa0	-0.006755188
228	0xbd87c694	-0.06629673
229	0xbc0c1248	-0.00854928
230	0xbd494b9e	-0.04914438
231	0xbd7e4596	-0.06207808
232	0x3d60f076	0.05491682
233	0x3c07e558	0.008294426
234	0xbcef37f4	-0.029201485
235	0x3c281508	0.0102589205
236	0x3da5c1a7	0.08093577
237	0x3d129e72	0.035795636
238	0x3d724d9e	0.059156053
239	0xbda263a8	-0.07929164
240	0x3dcf2579	0.10114569
241	0xbdbbd368	-0.09171182
242	0x3cf31964	0.029675193
243	0x3db5d2d5	0.08878104
244	0x3d1f4d7e	0.03889226
245	0xbc2f6090	-0.010704175
246	0xbd723403	-0.059131633
247	0xbdd8178c	-0.10551366
248	0x3d3ca53a	0.04605601
249	0x3d7d73a2	0.061877854
250	0x3dac0bc5	0.08400682
251	0x3cc3ee24	0.023917265
252	0x3bee3af0	0.0072702095
253	0x3dbb0247	0.09131294
254	0x3c1680b8	0.009185962
255	0x3d10338a	0.0352054

bias f4 [8]
0	0xbcae350c	-0.02126553
1	0xbdddc1ae	-0.10827957
2	0xbdcf5e67	-0.10125428
3	0xb9b73b00	-0.00034948438
4	0xbd88c90a	-0.0667897
5	0x3da7de9b	0.081967555
6	0xbad90300	-0.001655668
7	0x3c928d04	0.017889507

weight f4 [8, 8, 3, 3]
0	0xbd2a0e7a	-0.041517712
1	0x3db1246d	0.08649526
2	0xbd27ca78	-0.040964574
3	0xbdd016e4	-0.10160616
4	0x3d5b3cba	0.05352471
5	0xbc8a5d64	-0.016890235
6	0x3da2052f	0.07911145
7	0xbd5700cc	-0.052490994
8	0xbde43770	-0.11143386
9	0x3d23d542	0.0399983
10	0x3d9b67a3	0.075881265
11	0xbd1eeee2	-0.038802035
12	0x3c5fe9b8	0.013666563
13	0x3deaf2d7	0.11472099
14	0x3d04c42e	0.032413654
15	0x3db21bf5	0.08696739
16	0xbd9fcd4f	-0.078028314
17	0xbdc96898	-0.09834403
18	0xbd13a520	-0.036046147
19	0xbbb464d0	-0.005505182
20	0xbdd24f84	-0.10269073
21	0xbd893ff2	-0.0670165
22	0xbc855ce8	-0.016279653
23	0x3c9dd49c	0.01926642
24	0xbb648100	-0.003486693
25	0x3d3336ae	0.04375332
26	0x3c30cce8	0.010791041
27	0xbce1aaa0	-0.02754718
28	0xbd14d8ce	-0.036339574
29	0xbdc7d53d	-0.09757469
30	0xbd03d386	-0.032184146
31	0xbdcf9368	-0.101355374
32	0xbddeab9d	-0.108725764
33	0x3ddd7235	0.10812799
34	0xbdb4fa45	-0.088367976
35	0xbd9fa266	-0.07794647
36	0xbdad1626	-0.0845149
37	0xbd07f7e0	-0.033195376
38	0xbd2b915e	-0.04188668
39	0x3d6888a2	0.05677093
40	0xbddff1e8	-0.10934812
41	0x3df1568d	0.117840864
42	0x3d197a16	0.037469946
43	0x3dc400a5	0.095704354
44	0x3c82f00c	0.015983604
45	0x3c500c98	0.012698315
46	0x3d54674e	0.05185633
47	0xbdeb4368	-0.11487466
48	0x3dc91ba1	0.09819723
49	0x3d6a04ce	0.05713349
50	0x3b801fc0	0.003910035
51	0xbd6e7781	-0.058219437
52	0xbde74c19	-0.11293811
53	0x3da7203f	0.08160447
54	0x3deb11b1	0.11477984
55	0x3dd21271	0.10257424
56	0xbdafc1e6	-0.08581905
57	0xbd99a5c0	-0.075023174
58	0xbd22a3ce	-0.039706998
59	0xbc7b9bd8	-0.01535698
60	0xbd2e5864	-0.042564765
61	0xbd337fac	-0.04382293
62	0xbddb4b80	-0.1070776
63	0x3d58c326	0.052920483
64	0xbda1edb9	-0.0790667
65	0x3dbef163	0.093233846
66	0xbd32c242	-0.04364229
67	0x3ca565ac	0.020190082
68	0xbde8d071	-0.11367882
69	0xbd54e460	-0.051975608
70	0x3d4f1b66	0.05056324
71	0x3de74f13	0.11294379
72	0x3da36047	0.07977348
73	0x3d9c6c3b	0.07637831
74	0xbd5fb8f0	-0.05461973
75	0xbc9e1570	-0.019297332
76	0xbdcec6cc	-0.10096511
77	0x3de33c33	0.110954665
78	0x3d88a32f	0.0667175
79	0x3d1d947e	0.03847169
80	0x3dd4c749	0.10389573
81	0xbd498eac	-0.049208328
82	0x3daf54c3	0.08561089
83	0x3d0dd7a6	0.034629487
84	0xbda3d1ac	-0.07998976
85	0x3dddf97b	0.108386
86	0xbd97c178	-0.07409948
87	0xbd955620	-0.07291818
88	0xbdcb794b	-0.09935244
89	0xbd092d5e	-0.03349053
90	0x3ae0aac0	0.0017140731
91	0x3d7802d2	0.060549565
92	0x3d7fbee2	0.0624379
93	0x3d8ab9d7	0.067737274
94	0xbd90682a	-0.07051118
95	0xbd96e37e	-0.073676094
96	0xbde969b5	-0.11397115
97	0x3dbb3de5	0.09142665
98	0xbd36ad74	-0.04459901
99	0xbd8ecd53	-0.06972756
100	0xbd5b34f0	-0.053517282
101	0x3ce85b5c	0.028363876
102	0xbdcd84ee	-0.1003512
103	0x3c755a08	0.014975078
104	0xbda19474	-0.07889643
105	0x3d4337be	0.04766058
106	0x3dd95c51	0.10613311
107	0xbd1808b0	-0.03711766
108	0x3c15c7e8	0.0091419
109	0x3bd08940	0.0063640177
110	0xbacdb940	-0.0015695468
111	0x3cb5e804	0.02220536
112	0x3d205daa	0.039151825
113	0xbde61b7a	-0.112357095
114	0xbd4de12a	-0.05026356
115	0x3c25b7a8	0.010114588
116	0x3d8d6125	0.069032945
117	0xbdb6acc0	-0.08919668
118	0x3db51edb	0.08843776
119	0xbbd11cf0	-0.0063816234
120	0x3d2b4552	0.041814156
121	0x3b3e6960	0.0029054508
122	0x3d17bb56	0.03704389
123	0xbd96c83d	-0.07362411
124	0xbd8a3a4e	-0.06749402
125	0x3ad7ec00	0.0016473532
126	0x3cc138e4	0.023586698
127	0xbd8319a0	-0.06401372
128	0xbd1afb02	-0.037837036
129	0x3dd6490f	0.104631536
130	0x3d573a7a	0.052546002
131	0x3c7015d8	0.014653645
132	0xbd07d110	-0.033158362
133	0xbdd692f7	-0.1047725
134	0x3da6ffbf	0.081542484
135	0x3d9b537b	0.07584282
136	0xbd908426	-0.07056455
137	0xbd5755aa	-0.05257193
138	0x3dd4322d	0.10361133
139	0xbda9cb1b	-0.082906924
140	0x3dddd1c5	0.10831026
141	0xbca220d0	-0.019791037
142	0x3d926d1f	0.071497194
143	0x3dd7464d	0.10511456
144	0xbc418020	-0.011810333
145	0x3d1dbab6	0.03850814
146	0x3db0af05	0.08627132
147	0xbdb6629f	-0.08905529
148	0xbcced420	-0.025247633
149	0xbd22fe26	-0.039793156
150	0x3dae7c61	0.08519817
151	0x3c6f0988	0.014589675
152	0xbdce7ade	-0.10082029
153	0xbcfdb468	-0.030969813
154	0x3ced6c54	0.028982319
155	0x3d695562	0.056966193
156	0xbd3106d8	-0.043219417
157	0xbd55beea	-0.052184023
158	0x3d9d5f01	0.07684136
159	0x3db68da9	0.08913738
160	0xbd162526	-0.03665652
161	0xbdafb248	-0.08578926
162	0xbd4b3628	-0.049612194
163	0xbd80d1f5	-0.06290046
164	0xbd9e7a6a	-0.077381924
165	0xbc1af8c0	-0.009458721
166	0x3d8f142b	0.069862686
167	0x3c78d2f8	0.015187018
168	0x3c1db318	0.009625219
169	0xbd7a2799	-0.06107292
170	0xbb56e300	-0.003278911
171	0x3d7b8156	0.06140264
172	0xbd83a3a2	-0.06427695
173	0x3db0adf3	0.08626928
174	0x3b96cce0	0.0046020597
175	0xbd171042	-0.03688074
176	0x3d66f576	0.056386434
177	0x3b4cce20	0.003125079
178	0xbdd2db8a	-0.1029578
179	0xbd8336f6	-0.06406967
180	0x3d1e340a	0.038623847
181	0x3dd4baa3	0.10387161
182	0xbddf6de0	-0.10909629
183	0x3d9367bd	0.07197521
184	0xbdba9b71	-0.09111679
185	0xbdd410ba	-0.10354753
186	0x3bc90d00	0.006135583
187	0xbcc2522c	-0.023720823
188	0x39fbe400	0.00048044324
189	0xbd978746	-0.07398848
190	0xbd38a17e	-0.045075886
191	0x3b7072a0	0.0036689416
192	0xbdb9fa79	-0.09080977
193	0x3da85845	0.08219961
194	0x3d0273ae	0.031848602
195	0x3cc73b54	0.024320282
196	0xbc3e5b28	-0.011618413
197	0xbdb3d320	-0.08780503
198	0xbcfd14d4	-0.03089372
199	0xbdbb349c	-0.09140894
200	0x3b884670	0.0041587874
201	0x3d2457ea	0.040122904
202	0x3dbe3291	0.092869885
203	0x3dcd5079	0.100251146
204	0x3d9a5751	0.075361855
205	0xbb528f00	-0.0032128692
206	0xbd7e03cb	-0.062015336
207	0xbb590c40	-0.0033118874
208	0xbce73d5c	-0.0282275
209	0x3d2eab0a	0.042643584
210	0x3de6cc77	0.11269467
211	0x3db4d6fb	0.08830067
212	0x3d73c542	0.05951429
213	0xbdb5cf25	-0.088774
214	0x3d520f06	0.05128386
215	0x3d04ab6e	0.03239005
216	0x3da02f25	0.07821492
217	0xbd8cac5c	-0.068688124
218	0xbd76b4c2	-0.060230978
219	0x3da51cf3	0.08062162
220	0xbda32ffa	-0.07968135
221	0x3d16cd5a	0.036816932
222	0xbdece321	-0.11566759
223	0x3cbea634	0.023272611
224	0x3d3fade2	0.046796687
225	0xbd1cde52	-0.03829796
226	0xbdbe04cd	-0.092782594
227	0xbd75599d	-0.059899915
228	0xbdcfda82	-0.10149099
229	0x3d040e9e	0.032240503
230	0xbdabfc2a	-0.08397706
231	0xbdda2353	-0.10651269
232	0x3db4c3fd	0.08826444
233	0xbc942e30	-0.01808843
234	0xbcb5d47c	-0.022196047
235	0x3d3e11da	0.046403743
236	0x3d7f28ba	0.0622947
237	0xbd6dbfbb	-0.058044177
238	0x3dc7a4e1	0.09748245
239	0x3dbe7a13	0.093006276
240	0xbdbc0b4d	-0.09181843
241	0x3dc22e67	0.09481507
242	0x3d5a611a	0.05331526
243	0x3bb71250	0.0055869
244	0xbd77e0a9	-0.060516987
245	0xbc66b350	-0.014080837
246	0x3d98c045	0.074585475
247	0x3de64aeb	0.11244758
248	0xbd18eadc	-0.037333354
249	0x3c10e5f8	0.008843891
250	0xbd7ef4a7	-0.062245037
251	0x3d0450e2	0.0323037
252	0xbdcb4399	-0.099250026
253	0xbc00fcf0	-0.007872805
254	0x3d91dedb	0.071225844
255	0xbdebf910	-0.11522114

bias f4 [8]
0	0xbc87f42c	-0.016595922
1	0x3dbe5951	0.092943795
2	0x3d0be896	0.034157358
3	0x3b93c690	0.0045097545
4	0x3dcdc753	0.10047784
5	0xbcf9d5d8	-0.030497476
6	0x3d6a4e9a	0.057203867
7	0x3d7a4412	0.061100073

weight f4 [128, 128]
0	0xbd4c29ad	-0.049844433
1	0xbd4b18e6	-0.049584292
2	0xbd821984	-0.06352523
3	0x3b479a80	0.003045708
4	0x3d8cac59	0.0686881
5	0x3dacf589	0.084452696
6	0x3d9b0cf5	0.07570831
7	0xbd16d73c	-0.036826357
8	0xbd7351b8	-0.059404105
9	0x3d094fe2	0.033523448
10	0xbd4c3b85	-0.04986145
11	0x3d83ac45	0.06429342
12	0x3da0a241	0.078434475
13	0x3d939607	0.0720635
14	0xbc932344	-0.017961152
15	0xbdaa457a	-0.08314033
16	0xbd9fe70a	-0.07807739
17	0x3d4f09a6	0.05054631
18	0x3d9c2533	0.07624283
19	0x3c70c6d8	0.014695846
20	0x3d8d6e6f	0.06905829
21	0xbcde60f2	-0.027145837
22	0x3c1e8900	0.009676218
23	0x3d0eb98c	0.03484492
24	0x3c823fb0	0.01589951
25	0xbda1dd40	-0.07903528
26	0x3d600776	0.054694615
27	0x3d355c7e	0.04427766
28	0xbc9c24d0	-0.019060522
29	0xbdaffd94	-0.08593288
30	0x3da97f69	0.08276255
31	0x3c262360	0.01014027
32	0x3da5bdd7	0.0809285
33	0x3cf6600c	0.030075096
34	0xbdaed798	-0.08537215
35	0x3d073f1e	0.033019178
36	0xbd7fbb40	-0.062434435
37	0xbd8de92a	-0.06929238
38	0xbda62828	-0.08113128
39	0xbd8d963c	-0.069134206
40	0x3cc85154	0.024452843
41	0x3d82f9f9	0.06395335
42	0xbda21a92	-0.07915224
43	0xbc36b0c8	-0.011150546
44	0xbcfc93ec	-0.030832253
45	0xbc2c5250	-0.010517672
46	0x3c732458	0.014840208
47	0xbd2d1d90	-0.04226452
48	0xbd842ae8	-0.06453496
49	0xbd9c8f33	-0.076445006
50	0x3c817430	0.015802473
51	0xbdb3a1b9	-0.087710805
52	0x3db3432d	0.08753047
53	0x3db23317	0.08701151
54	0xbc5756b8	-0.013143234
55	0x3dac7407	0.08420568
56	0xbd8319cc	-0.06401405
57	0x3c9fa4b8	0.019487724
58	0x3d7e692e	0.062112026
59	0xbd0da3f0	-0.03458017
60	0x3d75630a	0.059908904
61	0x3d4fa656	0.05069574
62	0xbcd5fe9c	-0.026122384
63	0x3d993203	0.07480242
64	0x3c4ef240	0.012630999
65	0xbdaaf7ee	-0.0834807
66	0xbb02c380	-0.0019952953
67	0x3d266462	0.040623076
68	0x3c488e20	0.0122409165
69	0x3d638e2a	0.0555555
70	0xbd1123e3	-0.035434615
71	0x3cc6f290	0.024285585
72	0xbda6cd8e	-0.08144675
73	0xbd49c96e	-0.049264364
74	0xbd379f60	-0.044829726
75	0xbd85ebc0	-0.06539106
76	0x3db33ddb	0.08752032
77	0xbd828cd5	-0.06374518
78	0xbd036786	-0.03208115
79	0xbd2a8c05	-0.04163744
80	0x3c223cb8	0.009902172
81	0xbc823c90	-0.01589802
82	0xbba52ae0	-0.0050405115
83	0xbb7c28a0	-0.0038476363
84	0x3d515416	0.05110558
85	0x3da99185	0.08279709
86	0x3da1b91f	0.07896637
87	0x3db0c2c5	0.08630899
88	0x3d0f333c	0.03496097
89	0x3ca70104	0.020386226
90	0xbc9b3558	-0.018946335
91	0x3b2d8d40	0.0026481897
92	0x3c622000	0.013801575
93	0x3d84941f	0.06473564
94	0xbbc78840	-0.0060892403
95	0xbd9b0e22	-0.07571055
96	0x3d4bfdd2	0.04980261
97	0xbd7ac3f0	-0.061222017
98	0x3da774e3	0.08176591
99	0xbd95197b	-0.07280251
100	0x3d0aef72	0.03391976
101	0xbd695a20	-0.056970716
102	0x3c951ee8	0.018203214
103	0xbba1fdf0	-0.004943602
104	0xbcca9e1c	-0.024733596
105	0x3db2cfed	0.08731065
106	0x3d071202	0.032976158
107	0x3ccec4c0	0.025240302
108	0xbc19ab70	-0.009379253
109	0x3daa38d3	0.083116196
110	0xbd9c0be3	-0.07619455
111	0x3d51aac6	0.051188253
112	0x3d4da926	0.05021014
113	0x3c357228	0.01107458
114	0xbd27539a	-0.040851213
115	0x3c94556c	0.018107139
116	0xbd7ab475	-0.061207253
117	0x3da62b59	0.08113737
118	0x3d156eb2	0.03648252
119	0xbd119763	-0.035544764
120	0xbc19fa90	-0.009398118
121	0xbd7b1fe8	-0.061309725
122	0x3d170fc2	0.036880262
123	0x3d0f72b2	0.03502149
124	0xbc7cffa0	-0.015441805
125	0xbc4447d0	-0.011980012
126	0x3d5a7ace	0.053339772
127	0x3cfdaad4	0.030965246
128	0x3d8b03e9	0.06787855
129	0x3d8f8cd7	0.07009285
130	0xbd66d216	-0.056352697
131	0x3d19c4d2	0.037541218
132	0xbd754a46	-0.059885286
133	0x3da159a9	0.078784294
134	0x3d8c842d	0.06861148
135	0x3d6db632	0.058035083
136	0xbd0dda9b	-0.034632307
137	0xbda0412b	-0.0782493
138	0x3a78c180	0.0009489283
139	0xbd73f4aa	-0.0595595
140	0xbda96ef1	-0.082731135
141	0xbd656afc	-0.05601023
142	0xbc76db78	-0.015066974
143	0x3d15a314	0.036532477
144	0x3d2ee2b6	0.042696677
145	0xbc2e6838	-0.010644965
146	0x3cb958dc	0.02262538
147	0x3d9ac6c7	0.07557445
148	0x3d931b7d	0.07182977
149	0x3d2596fe	0.0404272
150	0xbdaed509	-0.08536727
151	0xbd8608ea	-0.06544669
152	0x3da03c6d	0.07824025
153	0x3d089f70	0.033355176
154	0xbd44cd4d	-0.048047353
155	0x3c4ce700	0.012506247
156	0xbc59ad68	-0.013285972
157	0x3d235f56	0.03988584
158	0xbcca1ff4	-0.02467344
159	0xbcbefce4	-0.023313947
160	0x3d1cc546	0.038274072
161	0x3da6233b	0.081121884
162	0xbbc9cff0	-0.0061588213
163	0xbcf785bc	-0.030215137
164	0x3d1eb9aa	0.03875128
165	0xbc594248	-0.013260432
166	0x3da5d7ad	0.080977775
167	0x3db25e01	0.08709336
168	0xbd9cfb7f	-0.076651566
169	0xbd684882	-0.056709774
170	0xbdadbf1c	-0.08483717
171	0x3d753f4e	0.059874825
172	0xbd96a7b2	-0.07356204
173	0x3ca097d0	0.01960364
174	0x3d00f8fc	0.03148745
175	0xbd252554	-0.040318802
176	0x3d721c26	0.059108876
177	0xbcea05d2	-0.028567228
178	0x3ccd6930	0.025074571
179	0x3ca98724	0.020694323
180	0xbda0d441	-0.07852984
181	0x3dabdb0f	0.083913915
182	0xbce6f0d8	-0.028191015
183	0xbd15aca8	-0.03654161
184	0x3bee08d0	0.007264234
185	0x3d0b9034	0.03407307
186	0xbd04e5ca	-0.032445706
187	0x3c398538	0.011323266
188	0xbce69cf0	-0.028151006
189	0xbd38fbd0	-0.045162022
190	0x3c993a94	0.01870469
191	0xbd369de9	-0.04458419
192	0xbbb3fa70	-0.005492501
193	0x3d6a98a6	0.057274483
194	0x3b9b8cb0	0.004746996
195	0x3bb10090	0.0054016784
196	0x3d2bd116	0.041947447
197	0xbd31e07e	-0.043426983
198	0x3d4556ce	0.048178487
199	0xbda9ee64	-0.082974225
200	0x3c89f8bc	0.016842239
201	0xbd74a262	-0.059725173
202	0x3d9dba3b	0.07701536
203	0x3da40feb	0.080108486
204	0x3d89de75	0.067318834
205	0x3b9aa030	0.004718803
206	0xbc1fb128	-0.009746827
207	0xbd86281c	-0.06550619
208	0x3d418446	0.047245286
209	0x3d88623b	0.06659361
210	0xbd63642e	-0.05551546
211	0xbd4bd599	-0.04976425
212	0xbd946739	-0.07246251
213	0x3d5066a2	0.05087913
214	0x3cfe315c	0.031029396
215	0x3d437cea	0.04772655
216	0x3cd40438	0.025880918
217	0x3cee1b20	0.029065669
218	0x3c8a39ac	0.016873203
219	0x3cf27c58	0.029600307
220	0xbd058401	-0.03259659
221	0x3cfcad1c	0.030844264
222	0xbcdab9b0	-0.02669987
223	0x3d4aceb2	0.049513526
224	0xbca6e6cc	-0.020373724
225	0xbca22160	-0.019791305
226	0x3d19a1ce	0.037507825
227	0xbd7733ae	-0.06035202
228	0xbdaf03ee	-0.085456714
229	0x3d955483	0.0729151
230	0x3d17b106	0.037034057
231	0xbd510e34	-0.051038936
232	0x3d90544f	0.070473306
233	0x3d8d57fd	0.06901548
234	0x3be5d8f0	0.0070143864
235	0xbd7e58c4	-0.062096372
236	0xbdae81f2	-0.08520879
237	0xbda96709	-0.082716055
238	0xbd1ddbb4	-0.038539603
239	0xbd897b42	-0.06712963
240	0xbc88579c	-0.016643338
241	0x3daa0f71	0.083037265
242	0x3d700a2e	0.058603458
243	0xbd9c6c0b	-0.07637795
244	0x3b588f00	0.003304422
245	0x3d8aa23f	0.06769227
246	0x3da5a3ad	0.08087859
247	0xbd79e62c	-0.061010525
248	0xbd20aaff	-0.039225575
249	0xbd4dc58b	-0.05023722
250	0x3d4ce8a6	0.05002656
251	0xbb023ec0	-0.0019873828
252	0xbd0e869f	-0.034796353
253	0xbd1d7d46	-0.03844955
254	0xbc637800	-0.013883591
255	0x3d4a2cbe	0.049359076

bias f4 [128]
0	0xbd38fc6f	-0.045162614
1	0xbd34aece	-0.04411202
2	0xbcfb51b8	-0.030678615
3	0x3d7dd952	0.06197483
4	0x3d2d287e	0.042274944
5	0x3d96f331	0.07370604
6	0x3d282c2a	0.041057743
7	0xbdafc9fb	-0.085834466
8	0x3d482b86	0.048869632
9	0x3d93c233	0.07214775
10	0x3da70531	0.08155287
11	0xbd2e8373	-0.04260583
12	0x3c1b4260	0.009476274
13	0x3cd19a24	0.025586195
14	0xbd2736ee	-0.04082387
15	0x3bc02e60	0.0058649033
16	0xbd7506c2	-0.059820898
17	0x3ca1805c	0.019714527
18	0xbb5cacc0	-0.0033672303
19	0xbd88f723	-0.066877626
20	0x3d1f7072	0.038925596
21	0x3c91fc28	0.017820433
22	0xbc4bcc08	-0.012438782
23	0xbc8391e0	-0.01606077
24	0xbc39ac48	-0.011332579
25	0x3b500320	0.0031740144
26	0xbc8761f0	-0.016526192
27	0x3db20793	0.08692851
28	0x3cef9db8	0.02925001
29	0xbd041cf6	-0.03225418
30	0x3d6b60c6	0.057465337
31	0xbd0017c4	-0.031272665
32	0x3d641672	0.055685468
33	0xbda02016	-0.0781862
34	0xbd013957	-0.031548824
35	0x3c65e0a8	0.014030613
36	0xbc669580	-0.0140737295
37	0x3d03ba92	0.03216035
38	0x3da29a2b	0.079395615
39	0x3d96e7ff	0.073684685
40	0xbd6b4963	-0.057443034
41	0x3d871f0f	0.06597721
42	0xbd1ec466	-0.03876152
43	0xbd41ed45	-0.04734542
44	0xbd9092f8	-0.07059282
45	0x3d38e5de	0.045141093
46	0x3d3d3d5e	0.046201102
47	0x3d6ecd82	0.058301456
48	0xbc905258	-0.01761739
49	0x3da68e77	0.08132642
50	0x3d41ce72	0.047316022
51	0x3daa391b	0.08311673
52	0x3d94d46b	0.07267078
53	0x3d0f3554	0.034962967
54	0xbd5d1e29	-0.05398384
55	0x3c22f108	0.009945162
56	0x3cbcfa80	0.023068666
57	0x3c855e90	0.016280442
58	0xbd7eecce	-0.062237553
59	0xbc852fc4	-0.016258128
60	0xbc7bf8b8	-0.015379123
61	0x3d8ff5df	0.07029318
62	0xbd1965af	-0.03745049
63	0xbd15c7b4	-0.036567405
64	0xbcaa43d8	-0.020784304
65	0x3d174256	0.036928497
66	0xbcf325ae	-0.029681053
67	0xbd175785	-0.0369487
68	0xbd422da1	-0.047406796
69	0x3cd8a864	0.026447482
70	0x3cbf0030	0.02331552
71	0xbd2a641d	-0.04159938
72	0x3ce3f1c4	0.027825244
73	0xbc79f470	-0.015256032
74	0xbd236336	-0.039889537
75	0x3d6bc07e	0.05755662
76	0x3b190140	0.0023346692
77	0xbd91ea08	-0.07124716
78	0x3d967645	0.07346777
79	0x3d60d04a	0.05488614
80	0xbd4de9bd	-0.05027174
81	0xbd3f1a0b	-0.046655696
82	0x3d367fda	0.044555523
83	0x3d167746	0.03673484
84	0xbd6ae021	-0.057342652
85	0xbd9a19f3	-0.07524481
86	0x3d92bac5	0.0716453
87	0xbdae2453	-0.08503022
88	0x3c9ca9b0	0.019123882
89	0xbd9f0f46	-0.07766585
90	0xbda30375	-0.07959644
91	0x3d752c42	0.05985666
92	0x3ca84ac0	0.020543456
93	0xbda8e99e	-0.08247684
94	0x3d86e757	0.06587093
95	0xbc5dc438	-0.013535552
96	0xbd5a5c31	-0.053310577
97	0xbd483174	-0.048875287
98	0xbc4e1810	-0.012578979
99	0x3d8ea87d	0.0696573
100	0xbc229a58	-0.009924494
101	0xbd2752df	-0.040850516
102	0x3d542862	0.051796325
103	0x3bbdac10	0.0057883337
104	0xbd96cea0	-0.07363629
105	0xbd93fc22	-0.07225825
106	0x3d9667a5	0.073439874
107	0x3d0508b2	0.032478996
108	0x3d81b8ff	0.06334113
109	0x3cb013d4	0.02149383
110	0x3d97f44d	0.074196436
111	0xbd9cd4d9	-0.07657785
112	0xbd047485	-0.032337684
113	0xbda66c2b	-0.081261
114	0xbd41d2e3	-0.047320258
115	0xbd90c824	-0.07069424
116	0xbd78254d	-0.060582448
117	0xba8de2c0	-0.0010825023
118	0x3d6dd94a	0.05806855
119	0x3d89005f	0.06689524
120	0xbcd647d2	-0.026157293
121	0x3d1fe6fe	0.03903865
122	0x3d9530e1	0.072847135
123	0xbd84425a	-0.06457968
124	0x3d56781e	0.052360646
125	0x3d23e19e	0.040010087
126	0xbd283925	-0.041070122
127	0x3d89c687	0.06727319

weight f4 [32, 128]
0	0xbda044e4	-0.0782564
1	0x3d9735b9	0.07383294
2	0x3c623468	0.01380644
3	0xbd4155a7	-0.047200825
4	0x3d0075f4	0.03136249
5	0x3d300172	0.04297013
6	0x33400000	4.4703484e-08
7	0xbd348729	-0.04407421
8	0x3c261518	0.010136865
9	0xbd8a621b	-0.067569934
10	0x3c780c58	0.015139662
11	0xbd87a5d5	-0.06623427
12	0x3d8eadc9	0.06966741
13	0xbd0190e9	-0.031632338
14	0x3d378d82	0.044812687
15	0x3d8426d9	0.06452722
16	0x3d3ce09e	0.04611265
17	0xbd5556fe	-0.052084915
18	0x3cf47420	0.029840529
19	0xbb7d6da0	-0.0038670078
20	0xbce78f58	-0.028266594
21	0xbb121fe0	-0.002229683
22	0xbc18af70	-0.009319171
23	0xbb3c6440	-0.0028746277
24	0xbba65a50	-0.005076684
25	0xbd8f8e6a	-0.07009585
26	0x3d40c03a	0.04705832
27	0xbd9148a2	-0.07093932
28	0xbd3d34de	-0.046192996
29	0x3986ce00	0.00025711954
30	0x3d508716	0.050910078
31	0xbd92f720	-0.071760416
32	0xbd05a236	-0.0326254
33	0x3cc67a7c	0.024228327
34	0xbcaeb93c	-0.021328561
35	0xbda1a704	-0.07893184
36	0xbc1a0710	-0.009401098
37	0x3d27bede	0.04095351
38	0x3d627f8e	0.055297427
39	0x3d03303a	0.032028414
40	0x3c4d6178	0.012535445
41	0x3c99411c	0.018707804
42	0x3d959d99	0.0730545
43	0xbbf4a460	-0.007465884
44	0xbca9daac	-0.020734154
45	0x3c362fc0	0.011119783
46	0x3d944f13	0.07241645
47	0x3c2acd48	0.010424919
48	0xbc2a89e0	-0.0104088485
49	0x3c918514	0.017763652
50	0xbc88e900	-0.016712666
51	0x3d92b9a5	0.07164315
52	0xbd41cc45	-0.047313947
53	0x3da785d7	0.08179825
54	0xbd644975	-0.055734117
55	0xbc9443fc	-0.018098824
56	0x3d8ba5dd	0.06818745
57	0xbd4c23dd	-0.04983889
58	0xbd15a509	-0.036534343
59	0x3d4bcf56	0.049758278
60	0xbc824454	-0.015901722
61	0xbc341268	-0.0109907165
62	0xbdad2fc4	-0.08456376
63	0xbcc36c18	-0.023855254
64	0x3d478c12	0.048717566
65	0x3d93c8af	0.07216012
66	0x3a3f7180	0.00073029846
67	0x3d806abd	0.06270359
68	0xbc1308f8	-0.008974306
69	0x3da0f9eb	0.07860168
70	0xbda7c9ee	-0.08192812
71	0xbdb4ea7c	-0.08833787
72	0xbd273973	-0.040826272
73	0xbd887606	-0.06663136
74	0x3a89ef80	0.0010523647
75	0xbd5626ea	-0.052283205
76	0x3bdda760	0.0067643374
77	0x3d8d5587	0.06901079
78	0x3d1d2046	0.038360856
79	0x3d59c45e	0.053165786
80	0x3cb82144	0.0224768
81	0x3cff3514	0.03115324
82	0xbcbafe54	-0.022826351
83	0x3cf76564	0.030199714
84	0x3d019be4	0.03164281
85	0x3c976c70	0.018484324
86	0xbd9234ef	-0.071390025
87	0xbcf31c88	-0.02967669
88	0x3c81a1c4	0.015824206
89	0xbce33038	-0.027732953
90	0x3cef9848	0.029247418
91	0xbd3e648a	-0.0464826
92	0xbd29ddaf	-0.04147118
93	0xbd35ab0b	-0.044352572
94	0xbce75212	-0.028237376
95	0xbd4cf4fe	-0.05003833
96	0xbdb2ffb2	-0.08740176
97	0xbd58c39b	-0.05292092
98	0x3cf8ea74	0.030385233
99	0xbd3140c9	-0.043274675
100	0xbb056b60	-0.002035819
101	0x3d4e0ade	0.050303333
102	0xbd49dbdc	-0.04928194
103	0x3cbbfb3c	0.022946946
104	0xbb2bd620	-0.0026220158
105	0xbbc74c20	-0.006082073
106	0xbda00fbd	-0.07815502
107	0x3c91a590	0.017779142
108	0x3c82f520	0.015986025
109	0xbd25f8ff	-0.040520664
110	0xbd2588f7	-0.040413823
111	0xbb2101c0	-0.0024567693
112	0x3d699eca	0.0570362
113	0xbcf56582	-0.02995563
114	0xbdb2519a	-0.087069705
115	0x3d8d41b5	0.06897298
116	0xbd134b35	-0.035960395
117	0x3d9a423b	0.07532164
118	0x3d76728e	0.06016784
119	0x3c8a69d8	0.016896173
120	0x3cf5e750	0.030017525
121	0x3d4d71ba	0.050157286
122	0xbd7175e4	-0.05895032
123	0x3d859879	0.065232225
124	0x3d5530da	0.05204854
125	0xbc0097a0	-0.00784865
126	0x3cf5a2fc	0.029984944
127	0x3ce6078c	0.02807977
128	0xbd451f8f	-0.0481258
129	0x3cc8876c	0.024478637
130	0xbda04eed	-0.07827554
131	0x3cbb9eb0	0.022902817
132	0xbc7e2ef0	-0.01551412
133	0x3daecb8b	0.085349165
134	0xbd91a742	-0.0711198
135	0x3db075b5	0.08616201
136	0x3d136724	0.035987034
137	0xbd10db38	-0.035365313
138	0xbdb4729c	-0.088109225
139	0x3ca816f4	0.020518757
140	0x3d307696	0.043081842
141	0xbd33f04e	-0.043930344
142	0x3d035806	0.032066368
143	0x3d513a76	0.051081143
144	0xbd1966ff	-0.03745174
145	0x3c605df8	0.013694279
146	0xbce9eb38	-0.028554544
147	0xba1d3680	-0.0005997196
148	0x3ce1d994	0.02756957
149	0x3cdc0088	0.026855722
150	0x3c64e178	0.013969772
151	0x3da2b54d	0.07944737
152	0xba5eec00	-0.00085037947
153	0xbccbb768	-0.024867728
154	0x3bfcba40	0.0077126324
155	0xbd684230	-0.056703746
156	0x3ca74b0c	0.020421527
157	0x3d61e55a	0.055150367
158	0x3d089632	0.033346362
159	0x3d090dbc	0.033460364
160	0x3da8319f	0.082125895
161	0x3c8181d8	0.015808985
162	0xbd22f665	-0.03978576
163	0xbdab1389	-0.083533354
164	0x3d06d1a6	0.03291478
165	0xbdaac9fa	-0.08339305
166	0xbce83074	-0.028343417
167	0xbd2d8941	-0.042367224
168	0xbd590712	-0.05298526
169	0x3cef0374	0.029176451
170	0x3b1c2100	0.002382338
171	0x3da62ec5	0.08114389
172	0xbda94145	-0.08264402
173	0xbd429d9e	-0.047513597
174	0x3cec6364	0.028855987
175	0x3bbc3050	0.005743064
176	0xbcc872fc	-0.024468891
177	0xbd77e75a	-0.06052337
178	0x3c2e3fa0	0.010635287
179	0x3d432286	0.047640346
180	0x3cf18de8	0.029486611
181	0xbae04300	-0.0017109811
182	0xbd2fa38f	-0.04288059
183	0x3d9924e1	0.07477737
184	0x3da3b3a3	0.07993247
185	0xbc62f278	-0.013851754
186	0xbd0c1d32	-0.03420753
187	0x3c5a2f58	0.013316952
188	0x3d2c8f16	0.042128645
189	0x3d6826f6	0.05667778
190	0xbcfd54ac	-0.030924164
191	0xbd3cd763	-0.046103846
192	0x3cdf0174	0.027222373
193	0xbd92c4f7	-0.07166474
194	0xbda383e0	-0.079841375
195	0x3d36cd12	0.044629164
196	0x3ba55290	0.0050452426
197	0xbc0994a0	-0.008397251
198	0x3c8a91e4	0.01691527
199	0x3bfb1700	0.007662654
200	0x3cf35498	0.029703423
201	0x3dab834f	0.083746545
202	0x3d583db6	0.052793227
203	0x3d14acfe	0.03629779
204	0x3cd0ce5c	0.025489025
205	0x3d56590a	0.052331008
206	0x3d4c3f32	0.049864955
207	0x3c1e2b00	0.009653807
208	0x3d905743	0.07047894
209	0xbda455e7	-0.08024197
210	0xbdabd70a	-0.08390625
211	0x3d8557ed	0.06510911
212	0xbc227c78	-0.009917371
213	0x3da96937	0.08272021
214	0x3d8517bd	0.06498668
215	0xbcaec9fc	-0.021336548
216	0x3d2f3c3e	0.04278206
217	0xbd78752c	-0.06065862
218	0x3c1361b8	0.008995466
219	0xbda95edc	-0.08270046
220	0xbd1251fd	-0.03572272
221	0x3d9e64c1	0.07734061
222	0xbd112f66	-0.035445593
223	0x3cc1c2d0	0.023652464
224	0xbda588d1	-0.08082736
225	0x3c0928b8	0.0083715245
226	0x3d8e9d61	0.069636114
227	0x3d61ae2e	0.05509775
228	0x3d861d3f	0.06548547
229	0x3c89f014	0.016838111
230	0x3b95ab00	0.004567504
231	0x3d4c663a	0.04990218
232	0xbd8ac24b	-0.0677534
233	0xbd7a56da	-0.061117984
234	0xbdaba0d3	-0.08380284
235	0x3d8ab3fb	0.0677261
236	0xbd6ae06d	-0.057342935
237	0x3d70cc3a	0.058788516
238	0xbd236434	-0.039890483
239	0xbdb18fc3	-0.086699985
240	0x3ccb5704	0.024821766
241	0xbda29b33	-0.07939758
242	0xbd83e781	-0.0644064
243	0x3c874f3c	0.016517274
244	0x3d704042	0.05865503
245	0x3c9521e4	0.018204637
246	0x3abc0740	0.0014345422
247	0x3ce71610	0.028208762
248	0xbd197c11	-0.037471835
249	0xbd2ff20a	-0.042955436
250	0xbcee717a	-0.029106844
251	0xbd362ee2	-0.044478305
252	0x3ce5bcac	0.028044067
253	0xbc9c6bd4	-0.019094385
254	0x3c0d58d0	0.008627132
255	0x3ca16630	0.019702047

bias f4 [32]
0	0xbd9becc0	-0.07613516
1	0x3c0c0230	0.008545443
2	0xbc1f2d18	-0.009715341
3	0x3d4068f2	0.046975084
4	0x3d4a1d16	0.049344145
5	0x3b1ccba0	0.002392508
6	0x3db14ca3	0.086571954
7	0x3cbb172c	0.022838198
8	0xbbf623a0	-0.007511571
9	0x3d885b9b	0.06658097
10	0xbcb86ccc	-0.022512816
11	0x3d94c441	0.07263995
12	0xbd922c35	-0.07137338
13	0xbcf2a7d0	-0.029621035
14	0xbd8704e6	-0.06592731
15	0x3d93a0cb	0.07208403
16	0xbdb14c48	-0.086571276
17	0x3c14b000	0.009075165
18	0xbdae3ed3	-0.085080765
19	0xbd324131	-0.043519203
20	0x3d041542	0.032246836
21	0x3d79c0c2	0.060974844
22	0x3d95d765	0.07316474
23	0x3d938e23	0.07204845
24	0x3d27e386	0.040988468
25	0x3d90d487	0.070717864
26	0x3d29ea4e	0.041483216
27	0x3db063bd	0.086127736
28	0x3d2dd55a	0.042439796
29	0xbc3dbd58	-0.011580788
30	0x3d51660e	0.051122718
31	0xbdad0157	-0.08447521
