MOEmodels/rowModel_8.pt (torch, 95275 bytes, 12 tensors)

weight f4 [4, 1, 3, 3]
-0.102130145 -0.066900164 0.26395133 0.190496 -0.14284706 0.17742303 -0.22741723 0.24809983
-0.29687616 0.034649998 -0.16221058 -0.06774017 -0.31237984 0.024559498 -0.32428044 -0.0009912252
0.083370596 -0.23607823 0.21649083 -0.28667974 0.25412175 -0.20550331 -0.2044537 -0.13484006
0.3157424 0.16304371 -0.1577677 -0.044582993 -0.21490571 0.07256019 0.2828224 0.28537336
0.16136703 -0.30244637 -0.28535053 0.11292091
00000000: 9c29 d1bd f402 89bd a124 873e 6211 433e
00000010: 8046 12be 62ae 353e 10e0 68be e20d 7e3e
00000020: 2700 98be 28ed 0d3d 881a 26be 5cbb 8abd
00000030: 40f0 9fbe 0031 c93c 1608 a6be 00ec 81ba
00000040: 34be aa3d 7ebe 71be c6af 5d3e b0c7 92be
00000050: 3f1c 823e 766f 52be 505c 51be 8313 0abe
00000060: fda8 a13e eef4 263e db8d 21be a89c 36bd
00000070: 3e10 5cbe 709a 943d 19ce 903e 751c 923e
00000080: 663d 253e 40da 9abe 7719 92be 1443 e73d

bias f4 [4]
0.2721266 -0.25592777 0.15009722 -0.21408734
00000000: 2d54 8b3e f708 83be 16b3 193e b639 5bbe

weight f4 [8, 4, 3, 3]
-0.14581794 0.11870636 0.04434146 -0.022335932 -0.089711174 0.07502414 0.15543376 -0.12729424
0.12531407 -0.030912742 -0.07177377 0.082665145 0.019493341 0.12126 0.1291553 -0.13827085
9.293854e-05 0.034355164 0.12696998 -0.018567786 -0.03776467 0.0993648 -0.10120027 0.15064506
0.035490885 0.018840596 0.15933128 0.04905255 -0.1281018 -0.1280438 0.088435605 0.064100444
-0.081728026 0.08377327 -0.11746365 0.04670328 0.040123478 -0.014498875 -0.1624857 -0.029730186
0.050455928 -0.16498098 0.018762127 0.097859606 -0.03335619 -0.13988155 -0.10165255 -0.072263144
-0.025562584 0.12150057 -0.0850672 0.04035662 0.078085676 -0.1615514 0.12863351 0.04625909
0.029750392 0.10725446 0.06942265 0.09462775 0.15614863 0.09629665 -0.07841965 -0.160761
-0.050855935 0.105602995 -0.12616943 0.104737714 -0.091899276 -0.15675157 0.02249594 0.04201384
-0.083286665 0.1311567 -0.13374685 -0.13869022 0.09065761 -0.028331622 0.06982307 0.066707596
-0.028809026 0.13476215 -0.11161556 -0.13777785 0.036891922 0.13886695 -0.044397175 0.09938307
-0.12994513 -0.0013631433 0.053671494 -0.09498261 0.054966107 -0.13921379 -0.15403341 -0.15582238
-0.054688178 0.05769348 -0.13734423 -0.024639413 -0.14909157 -0.094979346 0.16540469 -0.101597905
-0.07385485 -0.025947034 -0.11838742 -0.06552007 -0.023966193 0.03439842 -0.08430581 -0.03635782
0.046264783 0.12697293 0.11479665 -0.09814493 0.011374369 0.018739477 0.03654723 0.01658146
-0.0498299 0.041323647 -0.031985268 0.03899896 0.06636007 0.07237713 0.07262899 0.03547375
-0.088241026 -0.05475851 -0.12361779 0.030198157 -0.08245008 -0.12990193 0.100422665 0.02634041
0.096618876 0.03152424 0.09274639 -0.07426737 0.045585513 -0.02530086 -0.10047732 -0.009274647
-0.05785521 -0.14462692 0.08158733 -0.07149732 -0.015492082 -0.09659531 0.007963821 -0.13842659
-0.09802531 -0.09193008 -0.16613832 -0.07313697 -0.044762418 -0.05584775 0.094229 0.15221004
-0.053581916 -0.035144165 0.16570334 0.00022415817 -0.034538627 -0.10979476 -0.04493513 0.15969123
-0.0943623 -0.113967225 0.14204897 0.12843384 0.06930579 -0.043277405 -0.06682911 -0.16318643
0.008699596 0.06194043 0.0670584 0.09182428 0.042734638 0.041582525 -0.09824902 0.05033149
0.10168965 -0.07489222 0.10711576 0.12857433 0.0013134032 -0.106225 0.14299001 -0.06586747
-0.11684551 0.11856572 0.04079938 -0.11186123 -0.14351577 0.08146156 0.11576037 -0.070783496
-0.0900298 -0.15023974 -0.06866431 -6.6161156e-06 0.1160015 -0.00026108325 0.13912822 0.16618927
0.081052825 -0.019178107 0.09173949 0.0464475 -0.056159556 -0.1639885 -0.16488266 0.078317896
-0.012290835 -0.053958833 0.09598763 -0.041272625 -0.118860744 0.039707497 -0.10003422 0.031349167
-0.0723909 0.010170341 0.15208806 0.027931988 0.116408005 0.102103606 0.13384892 -0.08131369
-0.13132635 -0.10293037 -0.15782432 0.023655131 0.030327067 0.01946254 0.15904619 0.14527552
0.13010146 -0.13460118 0.13126232 0.14097191 0.15397783 0.116358414 0.16025089 0.09314044
0.01699026 -0.024872705 -0.022473514 0.03369683 -0.13390039 0.017624602 -0.081881545 0.09252943
00000000: 4c51 15be 521c f33d 649f 353d d8f9 b6bc
00000010: 7eba b7bd 42a6 993d 072a 1f3e 6c59 02be
00000020: 5552 003e b83c fdbc 20fe 92bd 584c a93d
00000030: 80b0 9f3c 2a57 f83d 4941 043e e096 0dbe
00000040: 00e8 c238 00b8 0c3d 6b04 023e 781b 98bc
00000050: 20af 1abd c67f cb3d 1642 cfbd b342 1a3e
00000060: e45e 113d 9857 9a3c bd27 233e 54eb 483d
00000070: 1e2d 03be ea1d 03be ba1d b53d 1847 833d
00000080: 0661 a7bd 5291 ab3d c890 f0bd f04b 3f3d
00000090: 8458 243d b08c 6dbc a762 26be b88c f3bc
000000a0: e0aa 4e3d c6f0 28be 08b3 993c 9e6a c83d
000000b0: 80a0 08bd 1c3d 0fbe 362f d0bd b3fe 93bd
000000c0: a068 d1bc 4ad5 f83d b637 aebd fc4c 253d
000000d0: 62eb 9f3d bb6d 25be 81b8 033e 2c7a 3d3d
000000e0: 18b7 f33c 3aa8 db3d 762d 8e3d 32cc c13d
000000f0: 6de5 1f3e 2e37 c53d 7b9a a0bd 889e 24be
00000100: 504e 50bd 6246 d83d 8f32 01be ba80 d63d
00000110: b035 bcbd 7c83 20be 6849 b83c b416 2c3d
00000120: 3392 aabd f14d 063e eff4 08be cf04 0ebe
00000130: b2aa b93d b817 e8bc 66ff 8e3d fe9d 883d
00000140: e800 ecbc 17ff 093e b396 e4bd a315 0dbe
00000150: fc1b 173d 2333 0e3e d0d9 35bd 5a89 cb3d
00000160: 5610 05be 80ab b2ba a4d6 5b3d 3e86 c2bd
00000170: 2424 613d 0f8e 0ebe efba 1dbe e78f 1fbe
00000180: b600 60bd 0050 6c3d f7a3 0cbe 98d8 c9bc
00000190: 76ab 18be 8884 c2bd d95f 293e 9012 d0bd
000001a0: 3641 97bd e08e d4bc 1b75 f2bd 632f 86bd
000001b0: c054 c4bc 5ce5 0c3d 86a8 acbd f0eb 14bd
000001c0: 2480 3d3d 3105 023e 821a eb3d 3600 c9bd
000001d0: 905b 3a3c 8883 993c 8cb2 153d d8d5 873c
000001e0: 701a 4cbd fc42 293d fc02 03bd 60bd 1f3d
000001f0: cae7 873d 763a 943d 82be 943d ec4c 113d
00000200: b6b7 b4bd 764a 60bd 532b fdbd 2062 f73c
00000210: 96db a8bd 0305 05be 66aa cd3d d8c7 d73c
00000220: 1ee0 c53d 901f 013d d2f1 bd3d 7e19 98bd
00000230: e0b7 3a3d c043 cfbc 0ec7 cdbd b0f4 17bc
00000240: 96f9 6cbd 1419 14be 4217 a73d 306d 92bd
00000250: 80d2 7dbc c3d3 c5bd b07a 023c b3bf 0dbe
00000260: 7ec1 c8bd d645 bcbd 2a20 2abe d6c8 95bd
00000270: cc58 37bd 9cc0 64bd 22fb c03d f3dc 1b3e
00000280: b678 5bbd 54f3 0fbd 23ae 293e 000c 6b39
00000290: 6078 0dbd 13dc e0bd e60d 38bd 1986 233e
000002a0: 0641 c1bd a667 e9bd 4975 113e 2984 033e
000002b0: 32f0 8d3d a643 31bd b3dd 88bd 581a 27be
000002c0: c088 0e3c 40b5 7d3d ea55 893d 5e0e bc3d
000002d0: 840a 2f3d 7052 2a3d c836 c9bd 6428 4e3d
000002e0: aa42 d03d 1861 99bd 825f db3d fda8 033e
000002f0: 8026 ac3a 7e8c d9bd f96b 123e 86e5 86bd
00000300: b34c efbd 96d2 f23d 401d 273d 8017 e5bd
00000310: ccf5 12be 52d5 a63d c613 ed3d f0f6 90bd
00000320: 8b61 b8bd 72d8 19be e09f 8cbd 0000 deb6
00000330: 3292 ed3d 00e2 88b9 a177 0e3e 852d 2a3e
00000340: 06ff a53d 681b 9dbc eae1 bb3d bc3f 3e3d
00000350: 9007 66bd 9aec 27be 00d7 28be 2265 a03d
00000360: 805f 49bc f003 5dbd 2a95 c43d 7c0d 29bd
00000370: 436d f3bd 54a4 223d bede ccbd fc67 003d
00000380: ae41 94bd 80a1 263c f9bc 1b3e a0d1 e43c
00000390: 5267 ee3d b21b d13d b10f 093e cb87 a6bd
000003a0: 6a7a 06be 28cd d2bd b39c 21be 68c8 c13c
000003b0: 7870 f83c e86f 9f3c 01dd 223e 1bc3 143e
000003c0: 5139 053e e4d4 09be a169 063e f15a 103e
000003d0: 5dac 1d3e 524d ee3d cf18 243e 6ac0 be3d
000003e0: 282f 8b3c d8c1 cbbc 601a b8bc b005 0a3d
000003f0: 2f1d 09be 7861 903c 83b1 a7bd 1280 bd3d

bias f4 [8]
-0.030647084 -0.13060743 -6.322563e-05 -0.0976361 0.061334074 -0.04074247 -0.02389355 -0.06640273
00000000: 980f fbbc f4bd 05be 0098 84b8 70f5 c7bd
00000010: 7039 7b3d 94e1 26bd 68bc c3bc 28fe 87bd

weight f4 [8, 8, 3, 3]
-0.04052311 0.052692614 0.0336966 -0.06829265 0.046210207 0.02128122 -0.07034384 -0.08111472
0.09209757 0.09850264 0.022980921 -0.106718466 0.021549232 -0.051716864 0.02918192 6.310642e-05
0.100487106 -0.07668209 0.11654224 -0.062254198 -0.11705891 0.095459454 -0.04424762 0.06663104
-0.052759044 -0.10371054 0.11477097 0.05281251 0.039192565 0.104685955 0.02714055 -0.039189644
-0.0011364892 0.03465926 -0.0075897872 0.010907911 -0.08641204 -0.04924684 -0.11728584 0.048775934
0.104338296 -0.030115247 0.06768031 0.096191294 -0.097497866 -0.07395279 0.043442853 0.057668738
-0.075272895 -0.042566955 0.05418516 0.027993657 -0.012126729 -0.043496236 -0.052182913 -0.019789115
-0.07220757 -0.05465599 0.0015871674 -0.090532795 0.08401743 0.034661688 -0.026350535 -0.055056952
0.03456325 0.030329295 -0.045129158 0.080280416 -0.015590876 0.015275978 0.067115866 -0.060817227
-0.03792187 0.05925422 -0.09074305 -0.063359626 -0.044779286 0.06119951 0.0676268 -0.10864107
-0.031669073 -0.1149498 0.029574849 -0.117433496 -0.033251435 -0.047042698 -0.036137044 -0.00015623868
0.043652155 -0.07822552 -0.110463604 0.11603173 0.009522162 -0.032577716 -0.06939057 -0.089178726
-0.038630255 0.10645694 -0.018428482 0.061516427 -0.029809542 -0.035246804 -0.022791177 -0.101494476
-0.077595085 0.06237083 -0.00054008514 0.09269082 -0.06746501 0.0812641 -0.009370565 -0.10949971
0.07055383 0.09918267 0.04585249 -0.08527665 0.08086594 0.0059035644 0.0019678473 -0.06648081
0.0268512 -0.020759195 0.10189863 0.10132692 0.09568756 0.053989135 -0.036214218 -0.03526257
-0.001466699 0.074907415 -0.016029194 0.019026779 -0.05659962 -0.03339886 -0.10561138 -0.0019066706
-0.010987699 0.09332291 0.042973854 -0.10551205 0.11351422 0.08545145 0.03174288 -0.07857537
0.052153967 -0.07339302 0.054470308 -0.1071671 0.051623456 0.0568927 0.012897469 0.08079841
-0.09155407 0.036855333 0.052782677 0.06459885 0.09493492 -0.08256629 0.011095218 0.108606674
0.07155036 0.049424253 0.08377085 -0.109819554 -0.052618936 0.038880475 -0.0984991 0.08523651
-0.03519571 -0.025253423 -0.11628741 -0.0915719 -0.03274303 -0.07227427 -0.005303256 0.115406536
-0.071942165 0.034285016 -0.08583763 0.06629852 0.083961494 0.014102407 0.03974492 -0.01207535
-0.113683045 -0.029008105 -0.012445219 -0.03894467 0.102869354 -0.0501431 0.04951062 0.019010894
0.06959895 0.008275367 0.05010367 0.058054067 0.03678248 0.11058893 -0.019049488 -0.071495235
-0.069025844 0.017242573 0.102630354 0.0803786 -0.07147665 0.019612812 -0.10410413 -0.07743329
0.04122839 0.042506374 0.014912955 0.016421668 0.051945873 -0.10796302 -0.015879668 0.020020746
0.106626086 0.041586854 0.08230097 -0.04052327 0.09060673 0.0171035 -0.025172107 0.08928529
0.022156619 0.0077112988 0.068473555 0.050220422 0.03812004 -0.055152483 -0.0027068108 0.07515969
-0.028682604 0.067195304 -0.11698688 0.114686765 0.056470923 0.045520224 0.01217588 0.032793023
-0.10538052 0.07555387 -0.10251734 -0.046170704 -0.117320135 0.04004597 -0.054538824 -0.060014304
-0.084826194 -0.02346439 -0.075469926 -0.04820516 0.0653783 0.09459219 -0.03570234 0.048812486
00000000: 90fb 25bd 36d4 573d 7205 0a3d 04dd 8bbd
00000010: ea46 3d3d f455 ae3c 6e10 90bd 791f a6bd
00000020: a79d bc3d c1bb c93d 7c42 bc3c 368f dabd
00000030: 0488 b03c 10d5 53bd ec0e ef3c 0058 8438
00000040: 2fcc cd3d 800b 9dbd b3ad ee3d 42fe 7ebd
00000050: 95bc efbd 3f80 c33d fe3c 35bd db75 883d
00000060: de19 58bd 3166 d4bd 0b0d eb3d ee51 583d
00000070: 6288 203d 9765 d63d dc55 de3c 5285 20bd
00000080: 40f6 94ba def6 0d3d c0b3 f8bb 18b7 323c
00000090: ccf8 b0bd 0eb7 49bd 8f33 f0bd 46c9 473d
000000a0: 51af d53d 40b4 f6bc f99b 8a3d f1ff c43d
000000b0: f6ac c7bd 8f74 97bd 22f1 313d 0e36 6c3d
000000c0: ad28 9abd b05a 2ebd 42f1 5d3d f452 e53c
000000d0: 30af 46bc 1c29 32bd c0bd 55bd c81c a2bc
000000e0: 90e1 93bd f6de 5fbd 8008 d03a 4269 b9bd
000000f0: 5511 ac3d 6af9 0d3d 14dd d7bc 6683 61bd
00000100: 3292 0d3d 2475 f83c 5ad9 38bd 0f6a a43d
00000110: e070 7fbc 1848 7a3c 0b74 893d 7c1b 79bd
00000120: f653 1bbd 8eb4 723d 7ed7 b9bd b1c2 81bd
00000130: 7c6a 37bd 56ac 7a3d eb7f 8a3d 367f debd
00000140: 6eb7 01bd cd6a ebbd f446 f23c f980 f0bd
00000150: a832 08bd d8af 40bd 7004 14bd 00d4 23b9
00000160: 9acc 323d b434 a0bd be3a e2bd 0ba2 ed3d
00000170: d802 1c3c 3670 05bd a51c 8ebd 56a3 b6bd
00000180: c23a 1ebd 1906 da3d 54f7 96bc a6f8 7b3d
00000190: 2433 f4bc f45e 10bd 90b4 babc 56dc cfbd
000001a0: 2cea 9ebd 8e78 7f3d 8094 0dba afd4 bd3d
000001b0: 182b 8abd cb6d a63d 0087 19bc 6241 e0bd
000001c0: 877e 903d 4920 cb3d d2cf 3b3d 86a5 aebd
000001d0: 0b9d a53d b072 c13b 00f7 003b 1727 88bd
000001e0: 0cf7 db3c 300f aabc 3bb0 d03d 7d84 cf3d
000001f0: d7f7 c33d b623 5d3d 5c55 14bd 7c6f 10bd
00000200: 403e c0ba 0f69 993d a84f 83bc 0cde 9b3c
00000210: 01d5 67bd 3ecd 08bd c74a d8bd 40e9 f9ba
00000220: c005 34bc 1520 bf3d 5a05 303d b416 d8bd
00000230: 257a e83d 2b01 af3d d204 023d 20ec a0bd
00000240: 669f 553d 144f 96bd 421c 5f3d 6d7a dbbd
00000250: 1e73 533d 5208 693d e84f 533c a379 a53d
00000260: b380 bbbd 9ef5 163d a632 583d 674c 843d
00000270: 3d6d c23d 8418 a9bd b8c8 353c 2d6d de3d
00000280: ff88 923d 1671 4a3d 0d90 ab3d 13e9 e0bd
00000290: f486 57bd 2241 1f3d e5b9 c9bd 7b90 ae3d
000002a0: 6029 10bd 44e0 cebc 1828 eebd 0c8a bbbd
000002b0: 8e1d 06bd 8804 94bd f0c6 adbb 435a ec3d
000002c0: 6a56 93bd 726e 0c3d a4cb afbd 85c7 873d
000002d0: 01f4 ab3d c80d 673c 92cb 223d b0d7 45bc
000002e0: a8d2 e8bd 68a2 edbc 08e7 4bbc 7284 1fbd
000002f0: 2bad d23d da62 4dbd a6cb 4a3d bcbc 9b3c
00000300: e589 8e3d 6895 073c 8239 4d3d 1aca 6d3d
00000310: 3aa9 163d 737c e23d ac0d 9cbc 186c 92bd
00000320: 6c5d 8dbd 4c40 8d3c dd2f d23d 899d a43d
00000330: 5a62 92bd 0cab a03c 8c34 d5bd 5895 9ebd
00000340: 1adf 283d 2a1b 2e3d 7855 743c bc86 863c
00000350: 32c5 543d b71b ddbd 1416 82bc 8c02 a43c
00000360: c75e da3d fa56 2a3d 698d a83d bafb 25bd
00000370: 0590 b93d a41c 8c3c bc35 cebc 35db b63d
00000380: cc81 b53c 10af fc3b dd3b 8c3d eeb3 4d3d
00000390: c223 1c3d 92e7 61bd c064 31bb 53ed 993d
000003a0: c8f7 eabc b19d 893d d196 efbd e5e0 ea3d
000003b0: 0e4e 673d 6a73 3a3d 587d 473c fa51 063d
000003c0: bed1 d7bd fdbb 9a3d 9cf4 d1bd 7e1d 3dbd
000003d0: 8a45 f0bd 3e07 243d 1a64 5fbd 8fd1 75bd
000003e0: 5bb9 adbd 6438 c0bc fa8f 9abd c672 45bd
000003f0: 0fe5 853d 8db9 c13d 9e3c 12bd 9aef 473d

bias f4 [8]
-0.060981166 0.06478595 0.021473937 -0.080597125 0.013891704 0.07498752 0.115396895 -0.017699443
00000000: 63c7 79bd 7fae 843d 1cea af3c 1b10 a5bd
00000010: 089a 633c 0f93 993d 3555 ec3d 6cfe 90bc

weight f4 [8, 8, 3, 3]
0.11100856 -0.00054457784 0.098541416 0.020779528 0.06176246 0.038211294 -0.074323356 -0.10658285
-0.065142244 0.11735702 -0.020319812 -0.08352725 -0.032331876 0.08744369 0.08725289 -0.11101869
-0.052131943 0.03818307 -0.034929626 0.092236824 -0.069818676 0.087845795 0.08876165 0.02575197
0.085367285 0.052110933 -0.0050050765 -0.06606111 0.07303896 -0.10995655 -0.054780044 -0.06194904
-0.046141207 0.07155464 0.09663143 0.1029967 -0.044076286 -0.09512191 0.014330603 -0.08082946
-0.10976966 0.028980024 -0.060477987 -0.09015415 0.004802026 -0.08203067 0.07404343 0.035236843
-0.07735495 -0.10847552 -0.09447975 0.043430425 0.09664834 0.02159851 0.02189552 0.10527065
-0.05177187 -0.10648685 0.06870253 -0.10350166 0.07823739 -0.001258038 0.018327318 0.06565068
0.1086287 0.11593249 0.0066508874 -0.08031072 -0.070006326 0.0007292703 -0.032482587 -0.016096726
-0.022002302 0.057106666 -0.029449284 -0.10519211 0.024234213 -0.07003369 -0.0022677258 0.07035268
0.058638714 -0.035488725 0.085554935 -0.085898995 -0.050412886 0.035403945 0.08492232 0.032685287
-0.07549021 0.04737089 -0.026465885 0.033220284 0.047264002 -0.077531576 -0.10487764 -0.061363395
-0.028695457 0.00660149 0.10462981 -0.11136958 -0.10777047 -0.015808776 0.053378753 -0.0240945
-0.044643767 0.06286352 -0.090831175 -0.035694458 -0.09806633 -0.033117183 -0.016687177 0.059243403
0.109807216 -0.04741338 0.110357724 -0.025878541 -0.045597076 -0.030039057 -0.07595823 0.05984489
0.0679721 -0.045770846 0.032104112 0.08166898 0.07293718 0.08811989 -0.026210114 0.050921343
-0.01930777 0.0015298203 0.11423283 0.11667017 -0.00866764 0.0467327 0.012024872 0.06912259
0.114937745 0.031250887 -0.0904678 0.079657994 0.07318688 0.04162865 -0.07524588 -0.04887507
0.07179322 -0.043727428 0.05436205 -0.07151474 0.009381451 -0.00611528 -0.08244412 0.0924687
-0.0692763 0.10718558 0.0025393218 -0.048393026 -0.00876601 -0.025374696 -0.054799877 -3.991276e-05
-0.101992875 -0.110183455 0.060394205 -0.06182138 -0.061764337 0.032704912 0.023422606 0.08091869
-0.08460155 0.05804365 0.09804364 -0.08313293 0.07157225 0.09613062 -0.034979142 -0.08091025
0.11516779 0.07710432 0.01699587 0.041148044 -0.061117947 -0.014923401 -0.060169473 0.039520748
0.11680258 0.08473132 -0.05443576 0.070007764 -0.07223478 0.041251503 -0.02546198 -0.059709527
0.11590011 -0.111491196 -0.057383426 -0.038028978 -0.088662736 0.107997306 -0.015063144 -0.0746949
0.06555226 0.068906315 -0.00013244152 0.03176496 -0.109989434 0.08213026 -0.0110593885 0.0091561
-0.06375079 0.059918635 0.09478559 0.05744841 0.043183677 -0.07264818 -0.060165737 0.066044964
-0.07750039 0.10676905 6.7830086e-05 -0.037463225 0.113516144 0.07546302 -0.09167398 0.0876498
-0.04761886 0.08520911 0.012193583 -0.09154689 0.04301449 0.08127143 0.019247852 -0.018939175
0.085343085 0.07917484 0.07184791 -0.11241549 0.010080494 0.1131847 0.09942431 -0.028724723
0.0142648 0.02054096 0.07319587 -0.019297175 -0.10398573 -0.0068788603 0.09410144 0.0493856
-0.09491444 0.053257875 0.064644985 0.10632106 0.06972743 0.09358055 0.006596446 0.030356415
00000000: 7558 e33d 00c2 0eba 15d0 c93d d439 aa3c
00000010: a2fa 7c3d 7283 1c3d d836 98bd 1c48 dabd
00000020: 4c69 85bd e158 f03d bc75 a6bc 5610 abbd
00000030: 6e6e 04bd ad15 b33d a5b1 b23d c45d e3bd
00000040: 4e88 55bd da65 1c3d 5e12 0fbd a9e6 bc3d
00000050: 18fd 8ebd 7fe8 b33d abc8 b53d ccf5 d23c
00000060: 0bd5 ae3d 4672 553d a001 a4bb 0c4b 87bd
00000070: 7395 953d e630 e1bd 0a61 60bd 47be 7dbd
00000080: 90fe 3cbd 3d8b 923d b3e6 c53d efef d23d
00000090: 5689 34bd 47cf c2bd e8ca 6a3c ea89 a5bd
000000a0: eace e0bd 8467 ed3c c4b7 77bd bda2 b8bd
000000b0: 505a 9d3b b2ff a7bd 15a4 973d 8254 103d
000000c0: 466c 9ebd 6a28 debd 997e c1bd 1ae4 313d
000000d0: 91ef c53d 5cef b03c 3c5e b33c 2398 d73d
000000e0: be0e 54bd c715 dabd e9b3 8c3d aef8 d3bd
000000f0: ed3a a03d c0e4 a4ba 2c23 963c dd73 863d
00000100: b978 de3d 036e ed3d b0ef d93b f279 a4bd
00000110: 7a5f 8fbd 802c 3f3a 760c 05bd 48dd 83bc
00000120: 2c3e b4bc aee8 693d a03f f1bc f66e d7bd
00000130: d486 c63c d36d 8fbd 209e 14bb 1115 903d
00000140: 262f 703d a05c 11bd 6d37 af3d d0eb afbd
00000150: be7d 4ebd ba03 113d c1eb ad3d 02e1 053d
00000160: 9c9a 9abd fa07 423d fcce d8bc fe11 083d
00000170: e697 413d e0c8 9ebd 17ca d6bd 2f58 7bbd
00000180: bc12 ebbc 5051 d83b 2748 d63d bc15 e4bd
00000190: c4b6 dcbd 6881 81bc aea3 5a3d d461 c5bc
000001a0: 62dc 36bd 97be 803d b205 babd 5a34 12bd
000001b0: 00d7 c8bd e2a5 07bd 8cb3 88bc 36a9 723d
000001c0: 9be2 e03d 8834 42bd 3b03 e23d 3cff d3bc
000001d0: 00c4 3abd 7814 f6bc fd8f 9bbd ea1f 753d
000001e0: f534 8b3d 367a 3bbd 9a7f 033d 1142 a73d
000001f0: 1760 953d 3378 b43d 98b6 d6bc e692 503d
00000200: 542b 9ebc 4084 c83a e7f2 e93d c5f0 ee3d
00000210: b802 0ebc ca6a 3f3d f803 453c 2590 8d3d
00000220: 7b64 eb3d ee00 003d 2f47 b9bd bb23 a33d
00000230: 01e3 953d ce82 2a3d 831a 9abd 3a31 48bd
00000240: 5308 933d 881b 33bd beaa 5e3d 5276 92bd
00000250: a8b4 193c b062 c8bb 76d8 a8bd 3b60 bd3d
00000260: bce0 8dbd 1d84 db3d c06a 263b c437 46bd
00000270: 509f 0fbc 98de cfbc d675 60bd 0068 27b8
00000280: a4e1 d0bd dda7 e1bd ea5f 773d 6a38 7dbd
00000290: 9afc 7cbd 96f5 053d c4e0 bf3c b3b8 a53d
000002a0: 9443 adbd 2ebf 6d3d 1bcb c83d 9941 aabd
000002b0: 7994 923d 21e0 c43d 4a46 0fbd 46b4 a5bd
000002c0: 17dd eb3d dfe8 9d3d ec3a 8b3c da8a 283d
000002d0: d056 7abd 4881 74bc 4474 76bd 82e0 213d
000002e0: 3136 ef3d 9d87 ad3d 08f8 5ebd 3b60 8f3d
000002f0: d4ef 93bd 56f7 283d a495 d0bc fa91 74bd
00000300: 095d ed3d 7f55 e4bd e20a 6bbd 46c4 1bbd
00000310: cf94 b5bd b12d dd3d 68cb 76bc a4f9 98bd
00000320: 4340 863d c11e 8d3d 00e0 0ab9 fa1b 023d
00000330: 2442 e1bd e933 a83d 7032 35bc 7803 163c
00000340: c68f 82bd 3e6d 753d f31e c23d 064f 6b3d
00000350: 5ee1 303d 92c8 94bd 5970 76bd 9542 873d
00000360: 86b8 9ebd bba9 da3d 0040 8e38 0a73 19bd
00000370: 277b e83d 5b8c 9a3d 91bf bbbd bd81 b33d
00000380: fe0b 43bd 1d82 ae3d 98c7 473c f07c bbbd
00000390: f62f 303d a371 a63d acad 9d3c 5426 9bbc
000003a0: 5bc8 ae3d 6b26 a23d ff24 933d 183a e6bd
000003b0: a828 253c 61cd e73d f99e cb3d 1c50 ebbc
000003c0: e8b6 693c 8445 a83c b7e7 953d 1c15 9ebc
000003d0: 78f6 d4bd 1068 e1bb 41b8 c03d 8e48 4a3d
000003e0: 8062 c2bd ee24 5a3d 9764 843d dbbe d93d
000003f0: 41cd 8e3d 29a7 bf3d 0027 d83b 04ae f83c

bias f4 [8]
0.081696026 -0.059984546 -0.058024973 0.045126043 -0.04228013 -0.0916844 -0.0881719 0.023444526
00000000: 3f50 a73d 5bb2 75bd 98ab 6dbd 16d6 383d
00000010: ee2d 2dbd 08c5 bbbd 7893 b4bd bc0e c03c

weight f4 [128, 128]
-0.05837433 0.07062652 0.08624687 0.08190369 0.07345424 0.06531689 0.06402763 -0.03152247
-0.0669764 0.011961326 0.02423907 0.026439823 0.07262351 -0.026427053 0.03226941 -0.024760284
-0.07450469 0.012048729 -0.017463155 0.033297956 0.07515914 0.083334915 0.06890961 0.05887208
-0.023775987 -0.070744865 -0.064118244 0.040654294 -0.019728422 -0.012856387 0.08587357 0.03338045
0.049670257 0.069148965 -0.0156743 -0.03958632 0.036653288 0.0338467 0.06643879 0.013188243
-0.032358326 0.060224123 -0.073432736 -0.010368735 -0.051124655 0.026986249 0.045546822 0.025181107
0.04157669 0.07536333 0.046506993 -0.022940025 0.053832434 -0.08148774 -0.027947586 -0.06984796
-0.08116435 -0.03730627 -0.0601795 0.045718156 0.032125898 -0.03760206 0.062498145 0.0034594834
-0.037940066 -0.07210061 0.036753736 0.058346115 0.07533426 0.05509516 -0.06120103 0.057590567
0.043477483 0.087189876 0.06624935 -0.009107366 0.050523467 0.030429602 0.020762093 -0.07106483
0.02862794 -0.014839001 0.079134904 -0.07540134 0.04828293 -0.050787564 -0.060457956 -0.044784166
-0.021482356 0.07461422 -0.024847738 0.07631094 0.0563327 -0.06277358 0.056803174 0.0045768768
-0.03832061 0.072305374 0.07526033 -0.02837646 -0.0130945295 -0.07308353 0.0030144677 -0.03405929
-0.06208138 -0.058263294 0.07807035 -0.076479524 -0.07753553 -0.02269096 0.009194449 -0.05561896
0.07577694 0.07159259 -0.009603098 -0.054534335 -0.0020195842 0.04666037 -0.0153893605 -0.02635473
0.03868764 0.0823328 -0.032412454 0.07486915 0.012116641 0.011314787 -0.083512254 0.047681607
0.019859396 0.025426023 -0.010585241 0.06330914 0.010750242 0.06059245 -0.08558624 0.02883622
-0.04824638 -0.060403388 0.059822522 -0.04456986 -0.018877402 -0.049719416 -0.014485925 -0.024761051
-0.07508667 -0.021637559 0.08534988 0.06739501 0.0018626451 0.02186349 -0.029616632 -0.029547047
-0.06545688 0.055641748 -0.0016023815 -0.049739297 0.06454318 -0.049575735 -0.044613946 -0.037476987
0.049804367 -0.08666757 -0.021555245 -0.038078867 0.056639872 0.059167795 0.027776524 -0.027163062
0.033628456 -0.060243197 -0.033682223 0.06968985 0.052735113 0.08618473 -0.06186427 -0.03261128
0.083153345 0.042162277 -0.06956668 -0.03478272 -0.045006596 0.021065354 0.07470059 0.023468241
0.04452046 -0.07954843 0.017451473 0.053731002 0.012646101 0.05473136 0.004415676 0.03721454
-0.031553186 -0.024355873 0.007422015 -0.011859953 0.056277595 -0.0273434 0.041524835 0.043635257
0.054722093 -0.076100424 -0.0302831 -0.00855469 -0.00057733804 -0.017760374 -0.036163945 0.039572306
0.054157473 -0.025658019 -0.084318005 0.020854369 -0.07175216 -0.049177565 0.0023598224 -0.07109942
0.06064003 0.077754445 0.042105116 -0.017056264 0.07703314 -0.014211275 -0.02771014 0.082468204
-0.024608195 -0.02851896 -0.061940715 0.08570927 0.018960275 0.0833857 -0.029870484 -0.044598415
-0.08169982 0.084534995 -0.021229237 -0.021221623 -0.020290516 0.010415897 0.027464971 -0.022327743
-0.08197315 -0.009227313 -0.06605377 -0.00030876696 0.08301074 -0.0049137846 -0.061309375 -0.02067165
0.048795246 0.051736362 -0.003447011 0.044739388 -0.07937145 -0.037422746 0.06877937 -0.0048474073
00000000: ec19 6fbd a3a4 903d 33a2 b03d 1fbd a73d
00000010: 2d6f 963d ddc4 853d eb20 833d b51d 01bd
00000020: ec2a 89bd 70f9 433c 0491 c63c 5498 d83c
00000030: a3bb 943d 8c7d d8bc ee2c 043d 14d6 cabc
00000040: ea95 98bd 0868 453c e40e 8fbc 7063 083d
00000050: 09ed 993d 7fab aa3d 7b20 8d3d da23 713d
00000060: dcc5 c2bc afe2 90bd 6d50 83bd 1e85 263d
00000070: 809d a1bc 98a3 52bc 7bde af3d f0b9 083d
00000080: 0a73 4b3d f99d 8d3d 6467 80bc 4425 22bd
00000090: c221 163d d6a2 0a3d 0f11 883d 8013 583c
000000a0: 2a8a 04bd 92ad 763d e763 96bd a0e1 29bc
000000b0: 1668 51bd 4412 dd3c 4e8f 3a3d 9c48 ce3c
000000c0: 524c 2a3d 1758 9a3d 1e7e 3e3d b8ec bbbc
000000d0: 667f 5c3d 0be3 a6bd 56f2 e4bc 720c 8fbd
000000e0: 7f39 a6bd 76ce 18bd c87e 76bd f642 3b3d
000000f0: 7296 033d 9e04 1abd 0efe 7f3d 80b8 623b
00000100: 0b67 1bbd 7ca9 93bd 168b 163d 56fc 6e3d
00000110: d948 9a3d 76ab 613d eead 7abd 16e4 6b3d
00000120: 7215 323d 9b90 b23d bdad 873d 1037 15bc
00000130: b2f1 4e3d 8047 f93c 4415 aa3c 708a 91bd
00000140: 2485 ea3c 481f 73bc 7b11 a23d 056c 9abd
00000150: 52c4 453d 9f06 50bd c3a2 77bd 9a6f 37bd
00000160: c4fb afbc 57cf 983d 7c8d cbbc e948 9c3d
00000170: 1ebd 663d 6f8f 80bd 72aa 683d a0f9 953b
00000180: 12f6 1cbd d714 943d 1722 9a3d c075 e8bc
00000190: 708a 56bc d1ac 95bd 608e 453b c181 0bbd
000001a0: 0c49 7ebd 7ea5 6ebd 59e3 9f3d 4ca1 9cbd
000001b0: f3ca 9ebd 64e2 b9bc 50a4 163c b5d0 63bd
000001c0: f130 9b3d 239f 923d 5056 1dbc 655f 5fbd
000001d0: 005b 04bb f21e 3f3d a823 7cbc e0e5 d7bc
000001e0: ee76 1e3d 199e a83d ecc2 04bd ff54 993d
000001f0: e084 463c a861 393c 7908 abbd ca4d 433d
00000200: 2cb0 a23c 3c4a d03c b86d 2dbc 39a8 813d
00000210: c821 303c ca2f 783d d747 afbd f039 ec3c
00000220: ff9d 45bd 8b69 77bd 7608 753d e38e 36bd
00000230: c8a4 9abc 96a6 4bbd 6056 6dbc b0d7 cabc
00000240: 0ac7 99bd 4041 b1bc ebcb ae3d 6506 8a3d
00000250: 0024 f43a 101b b33c 949e f2bc a60c f2bc
00000260: 420e 86bd 9ae8 633d 0007 d2ba 6fbb 4bbd
00000270: 372f 843d ed0f 4bbd 1dbd 36bd 7881 19bd
00000280: aaff 4b3d c47e b1bd a094 b0bc 96f8 1bbd
00000290: 36ff 673d ee59 723d 988b e33c 1285 debc
000002a0: febd 093d 92c1 76bd 5ff6 09bd 8db9 8e3d
000002b0: c600 583d 9f81 b03d 6465 7dbd 6893 05bd
000002c0: 4d4c aa3d 5ab2 2c3d fa78 8ebd 5378 0ebd
000002d0: d658 38bd 4091 ac3c 9ffc 983d 7840 c03c
000002e0: 165b 363d 4aea a2bd 64f6 8e3c 0a15 5c3d
000002f0: 9831 4f3c fe2d 603d 60b1 903b 466e 183d
00000300: ea3d 01bd f885 c7bc 6034 f33b 4050 42bc
00000310: 5683 663d 44ff dfbc f215 2a3d e2ba 323d
00000320: 4624 603d 8ada 9bbd 4414 f8bc f828 0cbc
00000330: 8058 17ba 347e 91bc a520 14bd 9216 223d
00000340: 3ad4 5d3d c430 d2bc ebae acbd c8d6 aa3c
00000350: ccf2 92bd 6a6e 49bd 40a7 1a3b 939c 91bd
00000360: ae61 783d b93d 9f3d 6a76 2c3d 94b9 8bbc
00000370: 8dc3 9d3d 68d6 68bc 6000 e3bc 17e5 a83d
00000380: 2097 c9bc 98a0 e9bc 8cb5 7dbd 5788 af3d
00000390: 9452 9b3c 1fc6 aa3d f2b2 f4bc d4ac 36bd
000003a0: 3c52 a7bd af20 ad3d f0e8 adbc f8d8 adbc
000003b0: 4c38 a6bc 70a7 2a3c 38fe e03c ace8 b6bc
000003c0: 8ae1 a7bd 282e 17bc 3347 87bd 00e2 a1b9
000003d0: 8901 aa3d d003 a1bb 8a1f 7bbd 9857 a9bc
000003e0: 86dd 473d 82e9 533d 40e7 61bb a640 373d
000003f0: 808d a2bd 9848 19bd 33dc 8c3d 00d7 9ebb

bias f4 [128]
0.070493616 -4.8555434e-05 -0.08309813 0.030329399 0.035212666 -0.028448984 0.020679161 -0.06360829
0.016925417 0.08805657 -0.047084562 0.0881077 0.031954937 0.056066133 0.05391655 -0.06343226
0.065917306 -0.014793456 0.056252845 -0.07273576 -0.010763757 0.08428394 -0.05686554 0.012596764
-0.07844025 0.0771778 0.08736237 -0.08068977 -0.0003771186 -0.041473415 -0.086194836 -0.010957651
-0.014459863 0.02479481 -0.045104787 -0.038915005 -0.06866267 -0.0056699812 0.021251515 -0.02375096
0.08335728 0.058109604 -0.03892469 -0.012788996 0.035423063 0.047836117 -0.021660507 0.0663077
-0.011323333 -0.026330758 -0.047439616 -0.027405124 -0.007251218 -0.07085685 0.012287885 -0.017190002
0.02949427 -0.03194567 -0.020274624 -0.03903659 -0.0035146996 0.08642078 -0.050472524 0.032142885
-0.056216918 -0.04321978 0.051177002 -0.037172064 0.030787408 0.0100123435 -0.084433414 -0.07807833
-0.027526211 0.0031219125 0.038588025 -0.0012339205 -0.049011126 -0.048760142 -0.056974635 0.08213922
-0.03678753 -0.007310599 0.027096279 0.0418159 -0.013458386 -0.060945164 0.08416901 0.059289746
-0.022226721 -0.009985507 0.02713392 0.012341201 -0.07714442 0.010768928 0.009312347 -0.080207855
-0.030571882 -0.034654688 -0.016593583 -0.08165706 -0.03237884 -0.078589626 -0.07883147 -0.07099332
0.03628873 0.076740704 -0.07520741 -0.05087894 -0.07323156 -0.07323767 0.029441282 -0.08535686
-0.04001725 -0.0020306334 -0.025046341 -0.083650626 0.046425246 0.06737136 0.055126913 0.013497181
0.04151862 -0.07381379 0.061010666 -0.034193937 0.08333195 0.04719182 -0.0052607805 -0.07622428
00000000: f55e 903d 00a8 4bb8 5a2f aabd 5c75 f83c
00000010: 283b 103d d80d e9bc 5867 a93c 1045 82bd
00000020: 2ca7 8a3c 0157 b43d bedb 40bd cf71 b43d
00000030: 2ee3 023d 9aa5 653d 9ad7 5c3d c6e8 81bd
00000040: a7ff 863d 4060 72bc 6269 663d 7cf6 94bd
00000050: 785a 30bc 0f9d ac3d d7eb 68bd a862 4e3c
00000060: 48a5 a0bd 650f 9e3d 0beb b23d ae40 a5bd
00000070: 00b8 c5b9 07e0 29bd eb86 b0bd b887 33bc
00000080: 10e9 6cbc 7c1e cb3c ccbf 38bd 5765 1fbd
00000090: 049f 8cbd 40cb b9bb a817 ae3c 6091 c2bc
000000a0: 39b7 aa3d 5604 6e3d 7f6f 1fbd f088 51bc
000000b0: c617 113d ceef 433d 6071 b1bc 55cc 873d
000000c0: 8085 39bc 9ab3 d7bc 0b50 42bd b680 e0bc
000000d0: a09b edbb 651d 91bd 2053 493c 0cd2 8cbc
000000e0: f89d f13c 76d9 02bd f816 a6bc d5e4 1fbd
000000f0: e056 66bb 61fd b03d 47bc 4ebd 42a8 033d
00000100: b643 66bd 3907 31bd fa9e 513d bc41 18bd
00000110: e035 fc3c d00a 243c 6deb acbd 88e7 9fbd
00000120: a67e e1bc 0099 4c3b 7a0e 1e3d 80bb a1ba
00000130: e4bf 48bd b7b8 47bd 3c5e 69bd 9b38 a83d
00000140: 85ae 16bd c08d efbb 04f9 dd3c 2647 2b3d
00000150: 9080 5cbc a3a1 79bd cd60 ac3d ced9 723d
00000160: d014 b6bc 409a 23bc f447 de3c c032 4a3c
00000170: e5fd 9dbd 2870 303c d092 183c 0444 a4bd
00000180: e271 fabc 13f2 0dbd 44ef 87bc d13b a7bd
00000190: ad9f 04bd 99f3 a0bd 6572 a1bd f264 91bd
000001a0: 7ea3 143d 3b2a 9d3d 5806 9abd 6f66 50bd
000001b0: 6efa 95bd a2fd 95bd d82e f13c 94cf aebd
000001c0: 21e9 23bd 6014 05bb fc2d cdbc 0551 abbd
000001d0: 6628 3e3d fff9 893d c2cc 613d 4823 5d3c
000001e0: 6e0f 2a3d af2b 97bd 52e6 793d f10e 0cbd
000001f0: f1a9 aa3d 364c 413d a062 acbb 7a1b 9cbd

weight f4 [32, 128]
0.07752735 -0.06792887 -0.04812636 0.03794145 0.08132958 0.051672645 0.07358765 0.024923004
0.014337979 0.0048610717 0.08296607 -0.058754288 -0.038051482 0.0021005794 -0.0010365695 -0.054498233
0.086620174 -0.05850871 -0.08575726 -0.0077420175 0.07006576 0.08033798 0.048050158 -0.043220676
-0.0213027 0.045954816 0.004424408 -0.07667733 -0.050488226 -0.013612263 0.052286573 -0.014733486
-0.03676774 0.015905306 0.083833404 -0.004682906 -0.0067972243 -0.005581245 -0.033325702 -0.07192464
-0.026674919 0.011596136 -0.067995355 0.0835553 -0.08282567 -0.03523738 0.04063461 0.0017093942
0.025888793 0.07532456 0.07746708 -0.02651669 -0.051944546 -0.0818424 -0.0040144697 -0.04192538
0.017426446 0.035417818 0.047274567 0.05530358 0.0074681193 -0.0031661168 -0.048411176 0.035733834
-0.06363384 0.0668133 -0.07380716 0.0039644167 -0.0815365 0.07692627 -0.0044149235 -0.055577658
0.018818028 -0.026352052 0.0062362477 -0.038840204 0.077939875 0.06502705 0.08205233 0.02039957
-0.0634762 0.0009860769 0.0052238405 -0.0008131787 0.075531 -0.042893562 -0.04053216 0.08216671
0.036741205 -0.013776623 0.021573938 0.07655912 0.061607666 -0.04752525 0.07770672 0.05048784
-0.041148506 0.043362148 -0.0557536 0.040811606 -0.08313635 0.055570804 0.06563444 -0.06711344
0.040885516 0.018700458 0.0066964924 -0.038772717 0.009782128 0.047774293 -0.016641557 -0.042500954
-0.03952661 -0.03377018 -0.04877481 -0.04252636 -0.024895594 0.030958205 0.004655108 0.05764293
-0.034707382 -0.02651472 -0.031388737 0.06626483 0.06839254 -0.060773037 0.03227056 0.017749786
-0.03392812 -0.026191946 -0.02288109 -0.05123133 0.022889435 -0.0648195 -0.086942516 -0.07332348
-0.07318654 0.04426109 0.016460434 0.052713804 0.06532938 -0.042628985 -0.03261756 -0.05894594
-0.013008997 -0.08600529 0.056000702 0.083185144 0.0713957 -0.036480013 0.049357228 0.04852093
0.013299398 0.005374089 -0.08371151 -0.03285918 -0.029092178 -0.03993772 0.042837046 -0.032613598
-0.033553485 0.024003528 -0.021813199 -0.005880505 -0.055147137 0.017598175 -0.0661831 0.029439129
0.08643442 -0.008907072 0.05062721 0.08436548 0.08203954 -0.054639153 0.010229349 0.019237794
-0.02236282 -0.059543844 0.021922305 0.0045221224 0.005028948 -0.018312521 0.044797666 -0.075332314
-0.013040438 -0.020543203 -0.038570676 -0.054275792 -0.011836067 -0.03490034 0.04593744 0.0068580434
-0.036344595 -0.04256247 0.05413226 -0.05596405 -0.07266529 -0.054471146 0.021114156 -0.029494975
-0.03164496 -0.031121306 0.058400042 0.036478437 0.04423388 0.07409934 0.06501187 -0.049558032
0.0016074106 0.063990615 0.08804255 -0.014893517 0.0717834 -0.007886857 0.07409053 -0.04512313
-0.04104809 0.015323706 -0.018352263 -0.06799477 -0.017912403 -0.043041963 -0.016469747 -0.01936923
0.07822647 -0.005801849 -0.073622555 0.0629931 0.020676292 0.06340607 -0.009429231 0.0049220696
0.047705464 -0.07466275 0.041786067 -0.00070668757 0.0030668378 0.05355122 0.0584028 -0.038642023
0.008228749 -0.05236199 0.049562253 0.04572857 0.009726524 -0.07064345 0.016600348 0.03206914
-0.037391536 -0.02027332 0.02834382 0.052231736 0.06869178 -0.038138293 0.062104873 -0.046923432
00000000: a9c6 9e3d 4b1e 8bbd 2520 45bd 7e68 1b3d
00000010: 1f90 a63d b2a6 533d 1fb5 963d 542b cc3c
00000020: d8e9 6a3c a049 9f3b 1dea a93d 56a8 70bd
00000030: dfdb 1bbd e0a9 093b 80dd 87ba 8a39 5fbd
00000040: eb65 b13d d4a6 6fbd 81a1 afbd c0b0 fdbb
00000050: a37e 8f3d 3d88 a43d 3ed0 443d 2a08 31bd
00000060: 0083 aebc 1e3b 3c3d a0fa 903b 0109 9dbd
00000070: becc 4ebd f805 5fbc 722a 563d b864 71bc
00000080: c599 16bd d84b 823c d9b0 ab3d 1073 99bb
00000090: 40bb debb e0e2 b6bb 8880 08bd 3a4d 93bd
000000a0: 5c85 dabc b8fd 3d3c 2641 8bbd 0b1f ab3d
000000b0: 81a0 a9bd 1255 10bd 7a70 263d c00d e03a
000000c0: bc14 d43c c343 9a3d 0fa7 9e3d 8839 d9bc
000000d0: cec3 54bd fd9c a7bd d08b 83bb f2b9 2bbd
000000e0: e8c1 8e3c 4612 113d faa2 413d 0286 623d
000000f0: 20b7 f43b a07e 4fbb cc4a 46bd a45d 123d
00000100: 7552 82bd 69d5 883d 3528 97bd f0e7 813b
00000110: 9cfc a6bd 858b 9d3d 10ab 90bb 66a5 63bd
00000120: 4428 9a3c 42e0 d7bc 7059 cc3b e816 1fbd
00000130: f19e 9f3d e72c 853d 0d0b a83d 001d a73c
00000140: cfff 81bd 403f 813a c02c ab3b 802b 55ba
00000150: ffaf 9a3d 29b1 2fbd 0d05 26bd 0547 a83d
00000160: f27d 163d 58b7 61bc d4bb b03c 07cb 9c3d
00000170: 5258 7c3d d6a9 42bd b324 9f3d 56cc 4e3d
00000180: 568b 28bd 829c 313d e35d 64bd 122a 273d
00000190: 6443 aabd 369e 633d 596b 863d c572 89bd
000001a0: 9277 273d b431 993c 406e db3b 24d0 1ebd
000001b0: 3845 203c faae 433d e053 88bc 7b15 2ebd
000001c0: a8e6 21bd 9a52 0abd 18c8 47bd 1f30 2ebd
000001d0: d8f1 cbbc 109c fd3c e089 983b fe1a 6c3d
000001e0: 5429 0ebd 6635 d9bc 7a91 00bd dbb5 873d
000001f0: 6311 8c3d 26ed 78bd 222e 043d 0068 913c
00000200: 36f8 0abd 7e90 d6bc 2071 bbbc f1d7 51bd
00000210: a082 bb3c 16c0 84bd eb0e b2bd 9f2a 96bd
00000220: d3e2 95bd 1e4b 353d 08d8 863c 6eea 573d
00000230: 69cb 853d bb9b 2ebd fe99 05bd 4c71 71bd
00000240: b023 55bc 8b23 b0bd fe60 653d f95c aa3d
00000250: e937 923d 116c 15bd ce2a 4a3d e2bd 463d
00000260: b8e5 593c 2019 b03b f170 abbd 5997 06bd
00000270: b852 eebc bc95 23bd e675 2f3d d695 05bd
00000280: 616f 09bd 0ca3 c43c 98b1 b2bc 40b1 c0bb
00000290: f7e1 61bd 0c2a 903c 018b 87bd 542a f13c
000002a0: 8704 b13d f8ee 11bc 7a5e 4f3d cfc7 ac3d
000002b0: 5904 a83d 4ecd 5fbd 0099 273c 9498 9d3c
000002c0: 3c32 b7bc 3fe4 73bd 6896 b33c 502e 943b
000002d0: e0c9 a43b 2404 96bc c27d 373d d447 9abd
000002e0: 90a7 55bc 384a a8bc 49fc 1dbd 4b50 5ebd
000002f0: 10ec 41bc a9f3 0ebd e628 3c3d 70b9 e03b
00000300: 12de 14bd fc55 2ebd cab9 5d3d 8f3a 65bd
00000310: 8ad1 94bd 231d 5fbd 98f7 ac3c 729f f1bc
00000320: 259e 01bd 1cf2 febc e234 6f3d 6a6a 153d
00000330: 962e 353d 65c1 973d f124 853d 5dfd 4abd
00000340: c0af d23a 830d 833d a74f b43d f003 74bc
00000350: 2d03 933d e037 01bc c7bc 973d 08d3 38bd
00000360: 0b22 28bd 4810 7b3c 7c57 96bc d840 8bbd
00000370: 08bd 92bc c54c 30bd 90eb 86bc 38ac 9ebc
00000380: 3335 a03d 701d bebb 6cc7 96bd 8702 813d
00000390: 5461 a93c 0bdb 813d 107d 1abc 5049 a13b
000003a0: ce66 433d c9e8 98bd de27 2b3d 0041 39ba
000003b0: 00fd 483b 8658 5b3d c637 6f3d 1947 1ebd
000003c0: e0d1 063c 8779 56bd ca01 4b3d e24d 3b3d
000003d0: 005c 1f3c 83ad 90bd 74fd 873c ee5a 033d
000003e0: de27 19bd 3c14 a6bc 4c31 e83c f2f0 553d
000003f0: 47ae 8c3d e636 1cbd ae61 7e3d c932 40bd

bias f4 [32]
0.077344395 -0.06989743 0.07225945 -0.05176873 -0.007400073 -0.035262696 0.048154928 -0.05786187
0.008481897 -0.08707526 -0.053880543 -0.05027726 -0.055259153 0.029885195 -0.006512977 -0.06940413
0.050367497 -0.08510317 -0.0803734 0.034926437 -0.07545331 0.031591862 0.08013249 0.079560675
0.07572038 0.088003136 0.036395207 -0.05930756 0.013843618 0.045070894 -0.05317024 0.018597193
00000000: bd66 9e3d 6226 8fbd c3fc 933d 730b 54bd
00000010: 507c f2bb 9e6f 10bd 1a3e 453d 9100 6dbd
00000020: a8f7 0a3c 8454 b2bd d8b1 5cbd 87ef 4dbd
00000030: 6c57 62bd ccd1 f43c d06a d5bb c123 8ebd
00000040: 264e 4e3d 924a aebd cf9a a4bd 060f 0f3d
00000050: 4487 9abd 7866 013d 811c a43d b5f0 a23d
00000060: 4913 9b3d fd3a b43d 2413 153d 7cec 72bd
00000070: 58d0 623c 429c 383d 0ac9 59bd 2459 983c
