MOEmodels/rowModel_6.pt (torch, 95275 bytes, 12 tensors)

weight f4 [4, 1, 3, 3]
000000 9a 16 79 3e b0 56 b1 bc 86 96 b5 bd fd c8 a0 3e
       0.24325028 -0.021647781 -0.08866601 0.31403342
000010 3f ff 95 be 7b 02 a2 3e 92 64 06 3e 91 10 86 3e
       -0.292963 0.31642517 0.13124302 0.26184514
000020 92 33 70 3e 08 3c 3e be 38 8e 5e be df 95 89 3e
       0.23457173 -0.18577588 -0.2173394 0.26872155
000030 48 47 17 3e b8 9c 19 bd 69 66 90 3e 5b 07 37 be
       0.14773285 -0.037502974 0.28203133 -0.178739
000040 0e 2a a8 be 1e a0 34 3e fc 81 b4 3d aa 59 17 3e
       -0.32844585 0.17639205 0.08813855 0.14780298
000050 5e 37 4e 3e e2 95 1e 3e d2 37 9d be 9b 94 26 be
       0.20138308 0.15486863 -0.3070665 -0.16267626
000060 ce 7b 60 be 90 3b fb 3c 37 67 a9 be f8 65 23 3e
       -0.21922228 0.03066805 -0.3308656 0.15956867
000070 7b ce 06 be 78 4d 4d 3d 5a 1a 38 3e ac 71 92 3d
       -0.13164704 0.050122708 0.17978802 0.071505874
000080 29 f6 90 3e 40 81 17 3e 6b 61 68 be ab 0d 2b be
       0.28312805 0.14795399 -0.22693412 -0.16704433

bias f4 [4]
000000 1b 28 72 be 86 a3 67 3e 52 8c 75 3e d2 bd 29 3e
       -0.23648112 0.22620973 0.23979309 0.16576317

weight f4 [8, 4, 3, 3]
000000 de d5 bc 3d b0 b0 06 bc ba 30 89 3d 63 d5 8a bd
       0.092204794 -0.0082208365 0.06698747 -0.067789815
000010 44 c7 3f 3d be d7 ce bd 68 30 b1 3c 96 c7 ca 3d
       0.046820894 -0.10099743 0.021629527 0.09901349
000020 49 d5 26 3e 30 09 53 3c 62 38 ae 3d 21 9c 01 3e
       0.162923 0.012880608 0.08506848 0.12657215
000030 c3 d2 9a bd 06 6a ef bd 00 2f 33 ba c2 c2 95 3d
       -0.07559731 -0.11690144 -0.00068353117 0.07312538
000040 cc 90 74 3d 00 a5 01 3b fa 5c c8 3d d6 50 5a bd
       0.0597084 0.0019782186 0.09783359 -0.053299747
000050 19 ec 1d 3e 60 7a d2 3c 20 e3 8b 3d 60 1f c9 bc
       0.15422095 0.025693119 0.0683043 -0.024551094
000060 93 7e 09 be e4 5e 52 3d aa da c6 3d 00 e5 da bc
       -0.1342719 0.051360026 0.097096756 -0.026720524
000070 e6 4f 92 bd 43 e4 b8 bd 70 2b 97 3d e0 51 cb 3b
       -0.07144146 -0.090279125 0.07381332 0.0062048286
000080 f0 ff 81 bd 5a 00 f6 3d c2 04 be 3d ca 49 a6 3d
       -0.06347644 0.12011786 0.09278251 0.08119543
000090 3c 85 72 bd 42 7b 01 be 4a a6 ac 3d e0 44 14 be
       -0.059209093 -0.12644675 0.084301546 -0.14479399
0000a0 58 8a 80 bd 13 e7 c1 bd e0 d1 24 bd ca 66 e6 3d
       -0.06276387 -0.09467902 -0.040239215 0.11250074
0000b0 a0 6c b7 bb ea 56 c7 3d 2e e9 98 bd e4 0f 09 bd
       -0.005597666 0.097333744 -0.074663505 -0.03346242
0000c0 61 d4 26 3e 1e 5f 93 bd be c5 fa bd 3c 58 3e bd
       0.16291954 -0.071958765 -0.122447476 -0.046470866
0000d0 fb 99 86 bd 1e 2a c1 bd 0a c8 f0 3d 92 16 ae 3d
       -0.06572338 -0.09431861 0.117569044 0.08500399
0000e0 27 2c 16 be 70 0c 4a bc f6 0c ef 3d 40 11 a0 bd
       -0.1466528 -0.012332067 0.11672394 -0.0781579
0000f0 20 5b 20 bd 47 cb 0b be f4 ca 41 3d b3 08 00 3e
       -0.039149404 -0.13651763 0.04731269 0.12503318
000100 c4 25 24 3d d0 94 2a be 9a 66 ec 3d 4c 43 2c bd
       0.04007508 -0.1665833 0.11543007 -0.042056367
000110 ff 95 04 3e ad 62 0b 3e d0 d0 77 bd 00 28 64 bc
       0.12947844 0.1361186 -0.060501873 -0.013925552
000120 90 57 ef bd f0 7c 3e 3c 50 df 4a bc ef 28 28 be
       -0.11686623 0.011626467 -0.012382343 -0.16421865
000130 06 b4 a0 3d b8 ef 8b 3d 86 0b ad 3d d6 97 91 bd
       0.07846837 0.06832832 0.084494635 -0.071090385
000140 70 e0 22 bc 06 ec 60 bd 13 8b 80 bd e0 46 f8 3b
       -0.009941205 -0.05491259 -0.06276526 0.0075768083
000150 19 ac 26 3e 53 77 11 be e0 aa 8b 3d 78 7c 9e 3d
       0.16276588 -0.14205675 0.06819701 0.07738584
000160 8e 66 27 be 6a a5 ea 3d 80 56 e0 ba 59 07 0f 3e
       -0.16347715 0.114573315 -0.0017115623 0.13967647
000170 98 3c f5 bd 0e 01 08 be c6 67 b7 bd d0 2d df bd
       -0.11974448 -0.13281652 -0.0895534 -0.1089741
000180 cb 79 c9 bd 38 ca c1 bc 20 61 db 3c 30 7c 87 bd
       -0.09837683 -0.023655996 0.026779711 -0.06615484
000190 ac 6a 20 bd a6 dd e4 bd 76 4f b9 3d 00 96 7a bd
       -0.03916423 -0.111750886 0.09048359 -0.061178207
0001a0 6c 71 1d 3d 40 fd 82 bc a0 b4 ae bc e4 c3 1e be
       0.038438246 -0.0159899 -0.021326363 -0.15504414
0001b0 90 c5 2f 3d a0 c0 01 be 36 25 2f bd 61 bf 0c 3e
       0.04291302 -0.12671137 -0.042760096 0.1374488
0001c0 dc 39 3b bd 75 3d 05 3e be d6 99 bd 06 a8 50 bd
       -0.045709476 0.13011725 -0.07511662 -0.05094149
0001d0 f6 36 00 be 6b 5d 26 be ac 21 17 3d c0 f8 9b bd
       -0.12520966 -0.16246574 0.036897346 -0.07615805
0001e0 73 78 09 3e 48 6d cf 3c e2 2b c3 3d b3 cd f0 bd
       0.13424854 0.025320664 0.09529854 -0.11757984
0001f0 71 49 11 3e ba 76 29 be 7e 29 d0 3d 71 45 19 3e
       0.14188172 -0.16549197 0.10164164 0.14967896
000200 70 5d 67 3c d1 9a 1e 3e 81 95 26 3e 94 1c 27 3d
       0.014121398 0.15488745 0.16267969 0.04079874
000210 c6 56 81 bd 60 c0 34 3d c0 95 24 bb fe 1d c6 3d
       -0.06315379 0.044128776 -0.0025113672 0.09673689
000220 40 ad 9e bd b0 9c 04 be 10 2d 78 bc 28 e5 cd bc
       -0.077478886 -0.12950397 -0.0151474625 -0.025133684
000230 dc 6a 55 3d 0d c7 09 3e f4 4f 6a 3d a0 c8 4c 3d
       0.052103862 0.13454838 0.057205155 0.04999602
000240 8a ab c1 3d 62 60 c3 3d a8 5d e2 bc 7d 39 0f 3e
       0.094565466 0.09539868 -0.02763255 0.13986774
000250 c8 cd 9a bd 8d 3e 25 3e 5c fd 15 be 76 de eb bd
       -0.07558781 0.16137142 -0.1464743 -0.115170404
000260 9f 2c 24 be 04 46 29 3d 3e 09 90 3d e0 2b cd 3b
       -0.16032647 0.041326538 0.07033013 0.006261334
000270 8a 9e e8 3d b9 10 04 3e 8c ad 37 bd 00 9f 25 bb
       0.11358364 0.12897004 -0.04484324 -0.0025271773
000280 7c c2 1e be 28 cb f1 bd 7d 4d 1b 3e 36 64 c0 bd
       -0.15503877 -0.11806327 0.15166278 -0.09394114
000290 b6 74 9d bd 60 25 52 3d fa ef 29 be 30 5c 8b 3d
       -0.076882765 0.051305175 -0.1659545 0.06804693
0002a0 00 a2 68 bb 80 20 1d be e8 bc dc bd d0 80 5c bc
       -0.003549695 -0.15344429 -0.107782185 -0.013458446
0002b0 e5 77 1d 3e a0 d2 21 be 76 8c 23 be 38 7c 97 3c
       0.15377767 -0.15803003 -0.1597155 0.01849185
0002c0 fe 6b d0 3d 92 d3 b7 3d 5e 97 d1 bd 80 9f 6f 3c
       0.10176848 0.08975901 -0.10233949 0.01462543
0002d0 f2 65 fd 3d 50 d4 95 3d 00 23 b2 bb 00 90 ec 39
       0.1237296 0.07315886 -0.005436301 0.00045120716
0002e0 25 62 27 3e 60 d7 9a 3d a4 a5 60 3d b3 cc ef bd
       0.16346033 0.07560611 0.054845467 -0.11708965
0002f0 02 3c e6 3d 80 8d b1 3b f4 4b 1b be 3c b4 06 3d
       0.11241914 0.0054184794 -0.15165693 0.03288673
000300 e8 3c e6 bd 54 26 72 3d 60 f3 c4 bb a1 a7 0c 3e
       -0.11242086 0.059118584 -0.006010458 0.1373582
000310 20 1c ae bc 48 0e 15 be 58 7d 92 bc 16 31 98 bd
       -0.021253645 -0.14556229 -0.017882034 -0.074312374
000320 de a6 b3 3d 88 13 9a 3d cd 47 27 3e 1e 2e f2 3d
       0.08772062 0.075232565 0.16335984 0.118252024
000330 78 29 e0 3c fa a4 8c 3d a6 f3 84 3d 06 a9 fb 3d
       0.027363524 0.06867404 0.06491785 0.12288098
000340 68 a1 b7 bd 64 bd 63 3d 70 a8 39 bd 5f bc 16 be
       -0.08966333 0.05560054 -0.04532665 -0.14720295
000350 36 ca dc bd a3 d1 07 3e e8 e8 a2 bd 64 9e 1f bd
       -0.10780756 0.13263564 -0.079545796 -0.038969412
000360 e8 d6 bb bc a4 c4 21 3d 9e ab ad bd 50 07 2a be
       -0.022929624 0.03949417 -0.08479999 -0.16604352
000370 f0 bb 0e bd bb a3 2a 3e de 70 de bd 73 a6 85 bd
       -0.0348472 0.1666402 -0.108613715 -0.06525888
000380 5d 8a 03 3e e0 00 a9 3b 32 1b 04 be 90 eb 97 bd
       0.1284575 0.005157575 -0.12900999 -0.07417977
000390 00 ed 44 ba 30 bc 44 bd 28 34 d5 bd db cd ff bd
       -0.00075121224 -0.048031032 -0.10410339 -0.12490436
0003a0 76 5e bf bd a4 9c 0f 3d bb d1 80 bd 20 a1 0e bd
       -0.09344189 0.035061494 -0.06290003 -0.03482163
0003b0 f0 cd 73 bd 79 34 21 3e 26 94 b0 bd fa c9 ce 3d
       -0.05952257 0.15742673 -0.08622007 0.10097118
0003c0 a8 7a fa 3c c0 72 b2 bd 20 f0 da bc 66 c7 24 be
       0.030576065 -0.08713293 -0.026725829 -0.1609169
0003d0 1f 67 05 be 60 f9 e0 bc 76 99 e4 3d e0 ff ea bb
       -0.13027619 -0.027462661 0.11162083 -0.007171616
0003e0 7c 7c 4b bd 90 8e 45 3c 86 68 fa bd ce 6b d2 3d
       -0.049679264 0.012057915 -0.122269675 0.10274468
0003f0 bb 87 17 3e 29 e6 1a 3e 04 86 29 be b8 08 88 3c
       0.14797871 0.15126862 -0.16555029 0.01660572

bias f4 [8]
000000 38 dc 8e 3d 02 32 f5 3d d8 dc aa 3c be 11 fa 3d
       0.06975597 0.11972429 0.02085726 0.12210415
000010 66 26 c9 bd f0 8d 22 bc 20 81 f8 bc 8c 0f 6a bd
       -0.09821777 -0.009921536 -0.03033501 -0.057143733

weight f4 [8, 8, 3, 3]
000000 d4 d6 96 3c 3b 7e e2 3d d4 ba 7c bd 5a 96 34 3d
       0.018412985 0.11059233 -0.06170161 0.0440887
000010 c1 3d 8a 3d e9 d2 6c bd 13 52 c5 3d 7e 79 bc bd
       0.0675006 -0.057818327 0.09634795 -0.0920286
000020 db 47 d5 bd 16 e3 db bd fe 40 7d 3d 65 c9 ca 3d
       -0.10414096 -0.107366726 0.06182956 0.09901694
000030 c5 e5 cd 3d 96 99 77 3d 4a fd 5e 3d c2 45 60 3d
       0.10053591 0.060449205 0.054440774 0.054754026
000040 e0 5e 5a bb a0 8b 2e bd 36 e9 2e 3d a0 c0 a5 bd
       -0.003332071 -0.042613626 0.042702876 -0.08093381
000050 d6 2b 10 bd fe ed 1b 3d 3f 19 c8 bd 13 18 ab 3d
       -0.035198055 0.038068764 -0.0977044 0.08354201
000060 68 ff 52 3c e0 d3 46 bb 6c cf fe bc 91 3a c4 bd
       0.012878276 -0.003033869 -0.031104766 -0.09581483
000070 3a d5 2a 3d d0 01 3c bc ea 92 26 bd cc 02 80 3c
       0.041707255 -0.0114750415 -0.040667452 0.015626334
000080 e4 2c 9b 3c e8 ea f9 bc 7c 9b ee 3c 5f 98 b0 3d
       0.018942304 -0.03050752 0.029126875 0.086228125
000090 e6 13 9c bd 22 3b 8e bd 0e 47 83 bd 19 a6 86 3d
       -0.07620983 -0.069448724 -0.06410037 0.06574649
0000a0 b8 fb e8 bd 78 31 99 bc f5 1e a8 3d ca 11 76 3d
       -0.113761365 -0.018700346 0.082090296 0.06007556
0000b0 fc ea 29 bd 18 70 34 3c 80 dd c4 bc e8 74 fb bc
       -0.041483864 0.011013053 -0.0240314 -0.030695394
0000c0 fe 69 5e bd 58 67 7c bd a8 a4 ad bc e6 a9 71 3d
       -0.0543003 -0.061621994 -0.021196678 0.05899992
0000d0 34 f5 0a bd 9b 39 e7 3d 7a d9 b8 bd 68 c6 07 bd
       -0.03392525 0.11290284 -0.09025855 -0.0331482
0000e0 d2 40 36 3d 81 e1 9c 3d a0 ba 26 bb 07 a0 ef 3d
       0.04449541 0.07660199 -0.0025440827 0.11700445
0000f0 5d 92 95 3d 33 c7 d5 bd 0c 8c 42 bd 2e de 22 bd
       0.07303307 -0.10438385 -0.04749684 -0.03976267
000100 ec 0a dd 3c 40 0a fa bb f6 64 bf bd 42 3d 08 bd
       0.026982747 -0.0076306164 -0.09345429 -0.033261545
000110 f7 2b b2 3d fa b0 9e bd 20 f7 a5 bc b0 5f 54 bd
       0.08699792 -0.07748599 -0.02025944 -0.051849067
000120 92 0b 70 3d 60 1d 9b bc bf 1b da bd 31 62 ce 3d
       0.058604784 -0.018934906 -0.106498234 0.10077322
000130 a2 14 03 3d a1 ed 92 3d 14 f0 b9 bd 17 77 b1 3d
       0.0320021 0.0717423 -0.090789944 0.08665293
000140 b8 64 38 3c c2 49 72 bd da a4 ec bd fe b0 d1 bd
       0.011254482 -0.059152372 -0.115548804 -0.10238837
000150 f4 13 9e 3c 71 3e d5 3d 31 0d e3 3d 23 c2 de 3d
       0.019296624 0.104123004 0.110865004 0.108768724
000160 61 48 d4 3d c2 2f 5a 3d e6 c6 4f bd 5c de b7 bc
       0.10365368 0.0532682 -0.050726794 -0.022444896
000170 1e 22 42 bd 41 d0 8c 3d 96 ca 27 3d a2 43 6f 3d
       -0.047395818 0.06875659 0.040964685 0.05841411
000180 c9 d3 c5 3d 16 35 d4 bd 5d d4 c8 3d 37 29 e9 3d
       0.096595354 -0.10361688 0.0980613 0.11384814
000190 7f 19 b6 3d 40 93 cb bc 25 a0 b1 bd 8b 69 a2 3d
       0.08891582 -0.024850488 -0.08673123 0.07930287
0001a0 ac d4 fb 3c 53 8e e1 bd eb 36 b1 3d a0 62 b0 bc
       0.030741058 -0.11013474 0.08653053 -0.021531403
0001b0 0b ca d8 bd 34 56 c2 bc 50 c7 2e bd af f0 ca bd
       -0.10585412 -0.023722745 -0.042670548 -0.09909188
0001c0 86 65 b5 bd 74 a7 94 3c 1a cc 7f 3d 8e fe cb bd
       -0.08857255 0.018146254 0.062450506 -0.09960662
0001d0 be 53 19 3d ea 0b a2 bd 47 78 e0 3d a8 3b 52 bc
       0.03743338 -0.07912429 0.10960441 -0.012831606
0001e0 5e ea 13 bd 8b 98 66 bd 86 84 bc bd 4c e4 a9 bd
       -0.03611218 -0.05629782 -0.09204964 -0.08295497
0001f0 7a 74 5b bd 98 06 1c bd 12 b6 ef bd 20 97 5d 3b
       -0.053577878 -0.038092226 -0.11704649 0.0033812001
000200 a4 8b bd 3c 22 ec 48 3d 8c 9e cd 3c 81 a5 86 3d
       0.023137875 0.04905332 0.025100015 0.06574536
000210 db 54 82 3d f0 41 99 bd 7c 05 f1 bd 4f c4 86 3d
       0.06363841 -0.0748328 -0.11768624 0.06580412
000220 88 f0 5e bc 57 74 81 3d 6b 74 b3 bd 5a ef 9f bd
       -0.013607152 0.06321018 -0.08762439 -0.078093246
000230 d5 73 a0 3d 16 cf 46 3d 06 53 63 3d a9 3f 8e bd
       0.07834593 0.048537336 0.0554991 -0.06945736
000240 7e 75 cf bd df 82 a8 3d ec 2b c1 3c dc 7d 90 bd
       -0.10129832 0.08228087 0.023580514 -0.07055256
000250 13 d1 a7 3d c5 1d e1 3d 71 6d e0 bd 08 7e 79 3c
       0.081941746 0.10992006 -0.10958374 0.015227802
000260 fc 5c f9 3c 62 f1 47 bd e5 ec a0 3d fd 4b 84 3d
       0.030439846 -0.048814185 0.07857684 0.06459806
000270 0e 08 14 3d 46 7e 9d bd 4f a4 94 3d 9d 43 bb 3d
       0.036140494 -0.076901 0.07257902 0.091437556
000280 c4 06 d3 3c 83 91 9a 3d 84 d9 a1 3c 51 44 d7 bd
       0.025760062 0.075472854 0.01975704 -0.10511077
000290 08 74 d3 bd 3b 82 b7 3d 98 80 cf bd aa 47 d2 bd
       -0.103248656 0.08960386 -0.10131949 -0.10267575
0002a0 68 c8 2b 3c b4 d7 d0 bd 70 ec 84 3b ad 5d db 3d
       0.010484792 -0.10197392 0.004056506 0.107112266
0002b0 60 5c 56 bd 3a 8c 6e 3d d4 09 fb 3c 94 21 dc bc
       -0.05233419 0.0582392 0.030644335 -0.02687148
0002c0 75 76 d1 bd a6 ad 93 bd 3f 4d ed bd 6d 66 be 3d
       -0.10227672 -0.07210855 -0.11586999 0.0929688
0002d0 c8 34 88 bd 64 c1 98 bd 74 18 e4 3c 52 a2 00 3d
       -0.06650692 -0.07458761 0.027843691 0.0314048
0002e0 3b 7c ad 3d 4d a2 ed 3d a1 b9 d7 3d 14 81 b2 3c
       0.08470961 0.11603222 0.10533453 0.021790065
0002f0 32 ec 37 bd f8 e5 2e 3c 23 9d d2 bd b8 d0 97 bd
       -0.044902988 0.010674946 -0.10283878 -0.07412857
000300 88 d6 e8 bc 5f ec ce 3d c5 80 66 bd 7a 6b 12 bd
       -0.028422609 0.10103678 -0.056275148 -0.03574703
000310 7c 02 aa bc cd c0 c0 3d f5 2d a3 3d ed 29 c3 3d
       -0.020753138 0.09411774 0.0796775 0.09529481
000320 a8 cf 67 bc 02 2c 5d 3d aa 41 59 bd 1e 7c 94 bd
       -0.01414863 0.053997047 -0.053041138 -0.07250236
000330 25 87 ae 3d 5a 5f 9e bd 06 1c 67 bd 5f 34 dc 3d
       0.085218705 -0.077330306 -0.05642321 0.107521765
000340 cc 4a 2b bd c2 63 56 bd 05 18 b5 bd 9e bd 2f 3d
       -0.04181938 -0.05234123 -0.08842472 0.042905442
000350 b8 a5 68 bd f6 24 08 3d ce d8 69 3d 7c 0e 8d 3c
       -0.056798667 0.033238374 0.057091527 0.01721882
000360 45 96 e1 3d ea b9 01 3d cd ff e3 3d 1c 0a fd 3c
       0.1101499 0.031671442 0.111327745 0.03088861
000370 d0 d8 f9 3b 68 f8 68 3c e0 82 a7 bd 00 8c 13 39
       0.007624723 0.014219381 -0.08179259 0.00014071167
000380 1a e7 00 3d dd cd d9 3d f5 22 af 3d c5 c4 a1 bd
       0.031470396 0.106349684 0.085515894 -0.07898859
000390 1b af e5 bd f8 03 92 bc ee 0d 90 bd e8 0e 1d bc
       -0.11215039 -0.017824158 -0.07033907 -0.009586073
0003a0 e8 8f a0 bd 62 ae 27 3d b5 48 ea 3d bf 24 97 3d
       -0.07839948 0.04093779 0.11439649 0.07380056
0003b0 f0 86 e7 bd f4 bf c3 bc 9b d7 79 bd 65 07 b9 3d
       -0.11305034 -0.023895241 -0.060996633 0.090346135
0003c0 80 0b 00 3a 43 34 dc bd f5 1b 8a bd 93 46 aa 3d
       0.0004884526 -0.10752156 -0.06743614 0.08314242
0003d0 d1 1c ed bd f2 0b 55 3d da ca 50 3d b6 8f 7e 3d
       -0.11577762 0.052013345 0.050974704 0.062148772
0003e0 61 38 8f 3d 8c ed b3 3c 65 a1 a5 3d fb ce a4 3d
       0.06993175 0.021963857 0.08087424 0.08047291
0003f0 56 c6 43 3d b6 a5 3c bd 2b 77 80 bd 22 99 8b bd
       0.04779657 -0.04605647 -0.062727295 -0.06816317

bias f4 [8]
000000 02 2d ad bd a0 88 0f bc 20 e1 5b bc 8f 0c 84 bd
       -0.0845585 -0.008760601 -0.013420373 -0.06447708
000010 4a 4b d6 bd 2d dd 9b 3d 64 0c 9a bd 1c 83 9a bc
       -0.10463579 0.07610545 -0.075218946 -0.018861346

weight f4 [8, 8, 3, 3]
000000 bb e4 e9 3d 3d 22 b6 3d 04 34 ad bd 65 e4 ec bd
       0.1142058 0.08893249 -0.08457187 -0.11567
000010 04 ad a4 3c 34 cd 8c bc c0 7a 26 3b db 1c f0 3d
       0.020102032 -0.017187692 0.0025402755 0.11724254
000020 97 e8 cf bd a4 2d 51 bd 2e 16 02 bd 70 f7 bc bb
       -0.10151785 -0.051068917 -0.031759433 -0.0057668015
000030 75 38 a0 3d aa 42 d3 bd 27 30 de 3d 83 0b 92 bd
       0.07823268 -0.103154495 0.10849028 -0.07131102
000040 a4 cc 95 bd 1b f4 ab 3d 5f 20 77 bd 8c 0a bb 3c
       -0.07314423 0.08396169 -0.060333606 0.022832178
000050 0a 79 5a 3d 10 ae c3 bb 77 7e b1 3d 13 0c ee 3d
       0.053338088 -0.0059716776 0.086666994 0.11623397
000060 2f 5d b4 3d 0a ab 64 3d 34 76 cc bd c0 f8 5d bb
       0.08806836 0.055827178 -0.09983483 -0.003387019
000070 37 17 ad bd 60 a9 3a bb 08 bc 34 3c 8e fc 49 bd
       -0.084516935 -0.0028482303 0.011031158 -0.04931312
000080 26 2d c2 bd 5a 44 5f bd cc ef d1 bc f8 3f 48 3c
       -0.09481268 -0.054508545 -0.02562704 0.012222283
000090 29 58 e5 3d 14 7f 45 bd 4a ef 4c bd 67 2a ab 3d
       0.11198456 -0.048216894 -0.05003289 0.08357697
0000a0 18 c4 21 3c d5 24 bb 3d 9e db b9 bd ab 57 e6 3d
       0.009873413 0.091378845 -0.09075092 0.1124719
0000b0 fd 2a ca bd a4 f0 8d bd d4 5a 90 bd 11 96 ce 3d
       -0.098714806 -0.06930664 -0.07048574 0.10087217
0000c0 0c 36 65 bd 18 b8 d4 bc fe c1 61 3d cb 3d df 3d
       -0.055959746 -0.025966689 0.055116646 0.10900458
0000d0 96 83 cf bd 7a e4 6e 3d 1f 62 9b 3d a9 7e c5 3d
       -0.1013252 0.05832336 0.075870745 0.09643299
0000e0 c7 e5 90 3d 4b 27 ca 3d 51 37 b4 3d 80 fc c1 3a
       0.070750766 0.09870776 0.08799613 0.0014799982
0000f0 8b d8 b8 3d 6e b6 3c 3d 1d e7 af 3d 62 c8 7e 3d
       0.09025677 0.046072416 0.08589003 0.06220282
000100 be 43 78 3d 7f 8c c0 bd 2b d6 8e 3d 81 a1 90 bd
       0.06061148 -0.094017975 0.06974443 -0.070620544
000110 16 f5 31 3d 4c ae 92 bd b9 ec bf 3d 80 0f 1c 3a
       0.043446623 -0.07162151 0.09371323 0.00059532374
000120 80 e8 62 ba 72 72 25 bd 10 fa d8 bc a9 5e d4 3d
       -0.0008655861 -0.040392347 -0.026486427 0.103696175
000130 44 f5 cc bd ea e2 99 bd c3 ea e3 bd 00 38 1c 38
       -0.10007718 -0.075139835 -0.111287616 3.7245452e-05
000140 18 1e 56 3c 39 9c ea 3d de 0d 46 3d 19 e4 ba bd
       0.013068698 0.11455578 0.04835307 -0.091255374
000150 a2 6c 20 bd 16 84 12 3d 06 3c 4b 3d 10 80 b7 bd
       -0.0391661 0.0357705 0.04961779 -0.08959973
000160 d9 8f 82 bd 9e f7 3f 3d 58 2a 5b bd b4 72 b1 bd
       -0.06375093 0.046867006 -0.05350718 -0.08664456
000170 a5 35 9e 3d 28 66 7c 3c 4d dd 9a 3d ee 19 53 bd
       0.07725076 0.015405215 0.07561741 -0.0515384
000180 0e fa 4b 3d 7b 75 e7 bd 98 c0 a8 bd 4c 7b fe 3c
       0.049799018 -0.113017045 -0.08239859 0.031064652
000190 78 9e e7 bc 5b 68 ef bd bf 32 d9 bd c2 eb 5e 3d
       -0.028273806 -0.11689826 -0.10605382 0.054424055
0001a0 72 5f d1 bd 00 84 d2 bc e9 96 82 3d 40 8c ad bc
       -0.10223283 -0.025697708 0.0637644 -0.02118504
0001b0 97 2f 8e 3d f6 c5 4a 3d d2 a5 5a bd 43 2b 8e 3d
       0.06942671 0.049505197 -0.053380795 0.06941845
0001c0 81 74 bc 3d f1 bc c4 bd 48 d2 11 3c 6a 24 64 bd
       0.09201909 -0.0960635 0.008900233 -0.05569879
0001d0 af dc cf 3d 21 72 b0 bd ef 95 80 3d 78 f2 bd bc
       0.10149514 -0.08615518 0.062785976 -0.023186907
0001e0 c8 2b 43 3c 98 d7 14 3c 23 19 d1 3d 90 9c a2 bd
       0.011912294 0.009084605 0.102098726 -0.07940018
0001f0 46 de 62 bd 8f 4f 8c 3d 6e 57 0f 3d b7 59 96 bd
       -0.055387758 0.06851112 0.03499549 -0.073413305
000200 bf 46 a8 3d 98 06 ae bd 6a 89 16 3d 20 45 6d 3b
       0.08216619 -0.084973514 0.036752142 0.0036204532
000210 d8 48 56 3c 41 dc c5 3d ed 09 cd 3d 22 e3 91 bd
       0.013078891 0.09661151 0.10011659 -0.071234
000220 59 3e 9b 3d 82 ff 63 3d 84 33 df bd de 03 55 3d
       0.07580251 0.055663593 -0.10898498 0.05200564
000230 30 7a be 3b be 8b 74 3d 3c c4 9f bc 9f 66 d1 3d
       0.0058129057 0.05970358 -0.019502752 0.102246515
000240 4f f9 ca bd 00 0c d9 ba 95 87 e1 3d e2 15 38 3d
       -0.09910833 -0.0016559362 0.11012188 0.044942744
000250 46 ca 24 bd 07 cc d0 3d dd b2 e8 3d 3a 12 e1 bd
       -0.040231965 0.10195165 0.113622405 -0.109898046
000260 15 9e c2 bd c0 58 47 bd 5c f5 70 bd c8 a8 3d bc
       -0.09502808 -0.048668623 -0.058827743 -0.011575885
000270 6f 1b a2 3d 91 d7 ce 3d 40 6f 72 bd 1e fd 0f 3d
       0.07915389 0.1009971 -0.059188128 0.0351535
000280 72 53 7a 3d 4e 35 a3 bd 4c ea 4e bd da cf 01 bd
       0.061114736 -0.079691514 -0.05051641 -0.031692363
000290 d4 a1 c3 3c 64 23 fe bc b2 d6 04 bd 68 fe 4d bd
       0.023880877 -0.031022735 -0.032431312 -0.05029145
0002a0 80 8c 21 3a 00 06 59 bd 7e 95 05 3d 02 30 cf bd
       0.0006162599 -0.052984238 0.03261327 -0.10116579
0002b0 d8 2c 6c 3c 9c 76 bb bd be 19 5e 3d 4d c1 8a 3d
       0.014414988 -0.09153482 0.05422377 0.067751504
0002c0 b9 8f e1 3d 31 c9 81 3d c2 e8 04 bd c0 9d a2 3b
       0.11013741 0.06337202 -0.032448538 0.004962653
0002d0 4c 88 bc bd ad df 94 3d bc 64 99 bd 14 bd b3 3c
       -0.09205684 0.07269225 -0.07489917 0.021940745
0002e0 00 c4 fe 39 42 da 67 3d 03 39 af 3d 45 84 82 3d
       0.00048592687 0.05660463 0.08555796 0.06372885
0002f0 f5 94 c4 3d 9c df 85 3c 92 5b 74 bd 70 ee 03 bd
       0.09598724 0.016341977 -0.05965764 -0.032209814
000300 4b 25 b7 3d 48 0b a5 bd 14 5b 9e 3c 78 77 8c bc
       0.0894266 -0.08058792 0.019330539 -0.01714681
000310 b6 6d 9f bd e6 49 dd bd 98 b3 7c 3c 66 69 6e 3d
       -0.077845976 -0.10805111 0.015423678 0.058205985
000320 8c ec 15 bd 00 74 c7 bc 87 67 bd 3d fb ea d2 3d
       -0.03660254 -0.024347305 0.09248262 0.10298725
000330 03 bb 9e bd c0 56 13 3b a0 05 25 3b 57 fa ae 3d
       -0.077505134 0.0022482127 0.0025180355 0.08543842
000340 88 02 55 3c de 94 50 3d d8 fc 37 3c a2 74 6e bd
       0.013001092 0.05092322 0.011229716 -0.0582167
000350 4c 61 4f bd 37 1b 8f 3d a0 03 4b bd 5f 7e c8 bd
       -0.0506299 0.06987613 -0.049564004 -0.097897284
000360 c4 12 0a bd 8c ef 95 bd e3 3d aa 3d 30 52 cd 3b
       -0.033709303 -0.073210806 0.08312585 0.006265901
000370 7d 1d d6 bd 37 dc e4 bd bc d8 fa bc 7c 1c fe 3c
       -0.10454843 -0.11174815 -0.030620925 0.031019442
000380 66 57 6e 3d ae 2f 10 bd 57 6b c6 3d 0c 8c 1e bd
       0.05818882 -0.03520172 0.09688442 -0.038707778
000390 62 4e cf bd 7a 5d 3e bd d6 72 31 3d d5 b3 ea 3d
       -0.10122372 -0.046475865 0.043322407 0.114600815
0003a0 00 2f c4 ba 00 35 78 bd e4 f9 e9 3c ca 65 b9 bd
       -0.001496762 -0.06059742 0.02856154 -0.09052618
0003b0 13 87 b9 bd c0 f1 cd 3b 87 df 92 bd a3 42 a9 3d
       -0.090589665 0.0062849224 -0.07171541 0.08264663
0003c0 30 2c a3 bb 00 65 6c bb 98 8f a8 bd cc 7a 1e bd
       -0.004979633 -0.0036070943 -0.08230513 -0.038691327
0003d0 80 8d 93 bd 92 40 00 3d 03 27 d2 bd 1c 18 e6 3c
       -0.07204723 0.03131158 -0.10261347 0.028087668
0003e0 41 91 75 bd 48 b4 ec bc 95 33 de 3d b3 11 ab 3d
       -0.059952978 -0.028894559 0.10849682 0.08352985
0003f0 31 22 d9 3d ee d7 7c 3d 46 8f 47 bd 47 00 de 3d
       0.106022246 0.061729364 -0.04872062 0.10839897

bias f4 [8]
000000 64 ed 94 bd 0f f2 7e bd 1c 86 1d bd 88 a5 b9 bd
       -0.07271841 -0.062242564 -0.038457975 -0.09064776
000010 bd d9 e4 3d 4e 74 bd bd ad b4 ec 3d 30 bb 31 bc
       0.11174343 -0.09250699 0.11557899 -0.010847852

weight f4 [128, 128]
000000 8f 3b 4f bd 10 b4 de bb ad de 93 3d 7e 34 a3 bd
       -0.05059391 -0.0067963675 0.072202064 -0.079689965
000010 c8 41 07 3d 75 e3 98 3d 63 b2 a8 bd 85 4e a3 3d
       0.03302172 0.07465259 -0.082371496 0.07973961
000020 60 c4 3e bd c0 05 60 3b 49 52 66 bd de ae 4e bd
       -0.046573997 0.0034183115 -0.056230817 -0.050459735
000030 ce 89 99 bd 01 c2 97 bd b0 d7 77 3c ab aa 24 bd
       -0.07496987 -0.0741005 0.0151271075 -0.040201824
000040 c0 8e 26 3b 0b f0 b2 bd 55 d6 ae bd 4a 35 75 3d
       0.0025414675 -0.08737191 -0.08536974 0.059865274
000050 da 5e 1b 3d 8f 5f 5f bd 18 58 1e 3c c0 93 10 bb
       0.037932254 -0.05453449 0.009664558 -0.0022060722
000060 78 a6 89 bd ab a4 b4 bd 5e cf 9f bd 8e cc 40 3d
       -0.067212045 -0.088204704 -0.07803224 0.04707008
000070 62 70 54 3d 32 00 af bd b8 b9 5f bc 7a 91 13 bd
       0.05186499 -0.08544959 -0.013655119 -0.03602741
000080 68 be 31 bc e0 c9 06 bb b0 33 8e 3b 25 d7 a4 bd
       -0.010848619 -0.0020567104 0.0043396577 -0.08048848
000090 60 1f ae bc 46 0d 53 3d 93 3f 69 bd c0 b4 fa bb
       -0.021255195 0.05152633 -0.056945395 -0.0076509416
0000a0 93 55 04 bd 50 70 53 bc 34 f2 ce bc f8 25 e2 bc
       -0.032308172 -0.012905195 -0.025261976 -0.027605996
0000b0 80 03 42 bb 6c bc f8 bc 1d a1 a8 3d ea 34 76 bd
       -0.0029604137 -0.030363284 0.08233855 -0.060109057
0000c0 a2 6e 0c bd da e3 7f 3d 20 b6 a0 bb cc 4a 74 bd
       -0.034285195 0.062473156 -0.0049045235 -0.059641644
0000d0 0d 48 96 3d d1 a9 8e 3d 16 98 1a 3d ea 7c 5e 3d
       0.07337961 0.06965984 0.037742697 0.054318346
0000e0 0a 48 a4 bd ad b0 42 bd 09 22 93 bd 0a 1e 1d 3d
       -0.08021553 -0.047531772 -0.07184226 0.038358726
0000f0 e0 b5 36 bc 16 64 54 3d e2 f4 27 3d 18 a4 ec bc
       -0.011151761 0.051853262 0.041005023 -0.02888684
000100 29 71 5f bd ae 80 73 3d 35 5e 83 bd c0 94 0e 3c
       -0.054551277 0.05944889 -0.06414453 0.008702457
000110 be 6a d8 bc 8a 85 8b bd 00 82 59 3a 6c a5 b4 bc
       -0.026418086 -0.0681258 0.00082972646 -0.022051536
000120 48 97 cd 3c e8 98 32 bd 30 84 de 3b 10 49 d3 3b
       0.02509655 -0.043602854 0.0067906603 0.0064479187
000130 a0 72 a6 bc 69 59 82 3d 00 59 18 bc 5a 2e 95 bd
       -0.02031833 0.0636471 -0.009298563 -0.072842315
000140 a0 23 0a bd 45 f5 b4 3d 40 39 cd bb 40 9c 9f 3c
       -0.03372538 0.08835844 -0.0062629282 0.019483685
000150 6e fc a9 bd c7 8d 54 bd fe f5 3e bd 58 81 c5 bc
       -0.083001 -0.051893022 -0.046621315 -0.024109527
000160 44 08 b4 3c c0 8b 1e bc a4 0f a4 bd 87 0c 81 3d
       0.021976598 -0.009676874 -0.08010796 0.063012175
000170 40 e3 b0 bd cb d5 9b 3d 77 1f a0 3d 06 2d 31 3d
       -0.086370945 0.07609137 0.078185014 0.04325583
000180 98 ed 6c 3c 8f b9 a1 3d c9 8f 46 bd 18 e9 cc bc
       0.014460944 0.078967206 -0.048476968 -0.025013492
000190 75 d2 a9 3d 20 d4 01 3d dd 5e 9f 3d 80 b0 91 3b
       0.082920946 0.03169644 0.077817656 0.0044460893
0001a0 13 37 99 3d da ed 28 3d f8 0b e0 3c 24 3c 67 bd
       0.07481208 0.041242458 0.027349457 -0.05645384
0001b0 4e 9d 2d bd be 74 ef bc b3 bc b4 3d 15 9f 97 3d
       -0.042386346 -0.029230472 0.08825054 0.07403389
0001c0 bc e1 a9 bc 28 64 ff bc 0d 63 83 3d dc 27 d8 3c
       -0.020737521 -0.031175688 0.06415377 0.026386194
0001d0 d5 6f a9 3d 3c 9b cf 3c 09 7e a4 bd f8 90 2c bd
       0.082732834 0.025342576 -0.08031852 -0.04213044
0001e0 f6 d3 47 3d fa 56 15 bd ea 03 b0 bd 7c 47 be 3c
       0.048786126 -0.0364599 -0.085944965 0.023227446
0001f0 70 f3 6b 3c 66 b8 26 3d da 34 78 3d ac 4b 26 bd
       0.014401302 0.0407032 0.06059728 -0.04059951
000200 ff e8 b3 3d 38 0e 54 3c ce ff 5b 3d 0e 17 3c bd
       0.08784675 0.012942843 0.05371075 -0.045920424
000210 53 fe 7d bd dc f0 a0 3c 68 00 65 bc 00 d8 21 38
       -0.06201012 0.0196461 -0.013977148 3.8586557e-05
000220 3c 60 c0 bc f0 13 a4 bc 47 37 93 3d a1 97 9c 3d
       -0.023483388 -0.020029038 0.07188278 0.076461084
000230 bc 98 0d 3d a0 47 ab 3b 3c 8b b2 bd 32 fa 27 3d
       0.034569487 0.005227044 -0.08717963 0.04101009
000240 80 39 17 ba 80 d0 5b 3b 84 0b 98 3c ba 00 56 3d
       -0.0005768761 0.0033541024 0.018560179 0.052246787
000250 1d d3 ae bd c9 a1 ac bd 43 5d 7a bd 50 f9 29 3c
       -0.085363604 -0.084292956 -0.061124098 0.010374382
000260 80 e2 90 3a 95 4c 99 3d 94 a7 27 bd c6 0f 86 bd
       0.001105383 0.0748531 -0.0409313 -0.06545977
000270 8f ae 8e 3d d8 61 49 bc fc e9 9f 3c 56 d7 8f bd
       0.06966888 -0.012291394 0.019520752 -0.07023494
000280 00 78 d0 bb a0 6f 0e 3d 24 26 e6 3c 07 d8 8d bd
       -0.0063619614 0.034774423 0.028094359 -0.069259696
000290 c0 09 78 3c 1b d7 13 bd 3e 89 1f 3d c0 68 17 3b
       0.015139043 -0.036093812 0.038949244 0.0023103207
0002a0 dc 02 81 bd e0 93 50 3b 14 7e d5 3c 7b 2e 96 3d
       -0.062993735 0.0031826422 0.026061095 0.07333084
0002b0 f6 65 3b 3d 40 5b aa bc 94 23 0c 3d 96 9a 24 3d
       0.045751534 -0.020795465 0.034213617 0.040186487
0002c0 27 4b 8c bd 03 6e 98 3d 20 2d e8 bb 1a 54 6e 3d
       -0.06850272 0.07442858 -0.0070854574 0.058185674
0002d0 f2 ed 02 bd 06 b4 30 3d f8 62 14 bc 4b e4 89 3d
       -0.031965204 0.043140434 -0.009056799 0.067329966
0002e0 18 e3 76 3c ac cd 1b bd a0 be 26 3b 80 95 f0 bb
       0.015068792 -0.03803794 0.0025443211 -0.0073420405
0002f0 58 c1 28 3c 26 cf 63 bd d4 57 85 bd f6 28 7a bd
       0.010300003 -0.055617474 -0.065108925 -0.06107422
000300 79 4c 90 3d 79 77 b2 3d 60 92 89 3c 11 14 17 bd
       0.07045836 0.08714194 0.01679343 -0.03688437
000310 20 8c a6 bd 90 3b 85 bc 10 20 56 bc 42 33 5f 3d
       -0.081321955 -0.016263753 -0.013069168 0.054492243
000320 8a 76 44 3d ae 81 af bd e0 3c 1f bc fe ea 31 3d
       0.04796461 -0.08569656 -0.009719104 0.043436997
000330 a8 2f a2 bc a0 f5 a9 3b dc 88 83 3c f0 17 da 3c
       -0.019798115 0.0051867515 0.01605647 0.026622742
000340 80 4c 44 bc d7 53 a7 3d 00 e1 7c 3b 5a 34 2b 3d
       -0.01198113 0.08170288 0.003858626 0.041797973
000350 30 bd 8c bc 6d bc 88 bd ba 2a 0e 3d fe f5 51 bd
       -0.017180055 -0.06676564 0.034708716 -0.051259987
000360 5b d1 68 bd 83 3b a0 3d ca d2 58 bd a0 b7 9a 3b
       -0.056840282 0.07823851 -0.0529354 0.004721597
000370 fd 9a 46 bd 35 9a 82 bd 21 01 80 3d b0 e3 d9 3b
       -0.048487652 -0.06377069 0.06250215 0.006649457
000380 b0 31 dd 3c 40 a9 89 3c 86 c0 69 bd 1d ce a0 3d
       0.027001232 0.016804338 -0.05706837 0.07851813
000390 60 8c 02 3d 42 da 34 bd f3 f2 54 bd 68 31 ad bd
       0.031872153 -0.04415346 -0.051989507 -0.08456689
0003a0 2e 66 2e 3d e0 61 a4 3b 74 e5 b0 bc 70 ca 0f 3c
       0.042577915 0.0050165504 -0.021593787 0.008776292
0003b0 fe d6 34 3d 6a b0 4d 3d 3e 2d 8c bd 98 0b 9e 3c
       0.044150345 0.05021707 -0.06844567 0.019292638
0003c0 f3 3b 9a 3d e8 34 54 bc 48 87 6d bd ae 87 6e 3d
       0.07530966 -0.012952067 -0.057990342 0.058234863
0003d0 ac a3 a0 bd 8e 5f dd bc ab cf 1e bd 6a 82 43 3d
       -0.07843718 -0.027023103 -0.038772266 0.047731794
0003e0 e3 14 86 3d c6 1a 9c bd 79 38 a5 3d 38 eb 19 3c
       0.065469526 -0.07622294 0.08067412 0.009394459
0003f0 14 8d fb bc 81 28 82 3d b5 63 a8 3d 92 35 3c 3d
       -0.03070692 0.06355382 0.082221426 0.045949526

bias f4 [128]
000000 4c e5 d4 3c f2 17 fe bc 5f 28 9b 3d c0 2b 6c bb
       0.025988244 -0.031017277 0.075760596 -0.003603682
000010 50 33 32 bd ad 5a 26 bd 93 86 19 bd 8f 3f 9f 3d
       -0.043505967 -0.04061382 -0.037481856 0.07775795
000020 86 90 a7 bd a8 72 a2 3c d0 e8 18 bc f8 80 4d 3c
       -0.081818625 0.019830063 -0.009332851 0.012542956
000030 92 d8 0a 3d 5d 05 8e 3d d3 74 a7 3d 38 34 95 bd
       0.033897944 0.06934617 0.08176579 -0.072853506
000040 16 08 5c 3d 40 27 d1 3b 40 23 5f 3b 2e 10 40 3d
       0.05371865 0.006382853 0.003404811 0.04689043
000050 a9 42 9e bd 60 d0 e8 3c 3a ae 40 3d 04 dc 05 3d
       -0.07727558 0.028419673 0.047041155 0.032680526
000060 00 1a 9d bb b2 01 50 3d c7 33 ae 3d 04 fa f3 3c
       -0.004794359 0.050782867 0.085059695 0.029782303
000070 5a 60 7c 3d 5c 5b 78 bd d8 38 3d bc 58 8f 8f bd
       0.061615326 -0.060634002 -0.011549197 -0.070097625
000080 38 05 6a bc e8 90 2b bc ef 88 18 bd b8 97 83 3c
       -0.014283471 -0.01047156 -0.037239965 0.016063556
000090 72 83 1e 3d 80 6f f1 3a 29 30 96 3d fa 29 36 3d
       0.038699575 0.001842007 0.073334046 0.044473626
0000a0 66 ea 0a bd 08 20 9a 3c 4b d9 a7 bd 51 55 b0 3d
       -0.033914946 0.018814102 -0.08195742 0.08610023
0000b0 fa b7 5b 3d c0 b4 1e bc 99 85 a4 3d 61 26 16 bd
       0.05364225 -0.009686649 0.08033294 -0.036657695
0000c0 d8 a8 12 3c b7 a7 0d bd 5e 5a 4e 3d 04 7b 90 bc
       0.008951388 -0.034583773 0.05037915 -0.017636783
0000d0 da 39 42 3d b8 d7 25 3c 92 42 76 bd 40 a7 5b bb
       0.047418453 0.010122232 -0.06012208 -0.0033516437
0000e0 20 07 25 bc 4b ab 44 bd dd b7 25 bd 28 56 90 bd
       -0.0100724995 -0.04801492 -0.04045855 -0.07047683
0000f0 66 82 4f 3d c3 04 91 bd 7e dd 5e 3d c6 c4 57 bd
       0.050661467 -0.07080986 0.05441045 -0.052677892
000100 43 b1 8e 3d 5f be a9 3d 2a 42 55 3d bc 25 cb bc
       0.06967404 0.082882635 0.052065052 -0.024798267
000110 93 2d 18 bd 1a 0d 68 bd 0a b8 fa bc 56 0c 78 3d
       -0.037152838 -0.05665312 -0.030605335 0.06055864
000120 4b b5 8f 3d 38 aa 98 3c 5d c5 06 bd cc 1b 70 bd
       0.07017001 0.018635854 -0.032903064 -0.05862026
000130 29 01 8f bd c8 6e 7e bc 4e 3d 7c 3d 80 bd c3 bb
       -0.06982643 -0.015529342 0.061581902 -0.005973518
000140 aa 01 49 3d 0c 0c a8 bc 0e b7 33 3d 1f 0e 4e bd
       0.049073853 -0.020513557 0.043875746 -0.050306436
000150 4e 9c 0f 3d c4 01 ba bc 62 cf a6 bd a5 1b 8b 3d
       0.035061173 -0.02270592 -0.08145024 0.06792382
000160 5d 5c 95 bd ae fd 74 3d d5 9d 81 3d 54 c9 b4 bc
       -0.072930075 0.05981224 0.06328932 -0.022068657
000170 98 ac 3d 3c 50 84 28 3c dc 71 12 3d 24 d9 9d bd
       0.011576794 0.010285452 0.035753116 -0.07707432
000180 00 61 01 3c 5c cc 96 3c e6 45 59 3d 13 9d 2f bd
       0.007896662 0.018407993 0.053045176 -0.042874407
000190 90 07 a0 bd ee 41 76 3d f8 54 8d bd c3 64 42 bd
       -0.078139424 0.06012147 -0.06900972 -0.047459375
0001a0 96 42 5f 3d 08 35 79 3c 63 ea a6 3d 00 aa 9e b9
       0.05450686 0.015210398 0.081501745 -0.00030262768
0001b0 1e 08 90 bd e0 f1 00 3d b8 16 97 bc 02 11 6c 3d
       -0.07032798 0.03148067 -0.01844345 0.057633407
0001c0 40 a0 ac bd ff f4 94 bd 8d 07 93 3d 26 9d 3a 3d
       -0.08429003 -0.07273292 0.071791746 0.045560025
0001d0 7a 0d 42 bd 9a 38 78 bd b0 33 2a bc 95 1e 8b bd
       -0.047376134 -0.060600854 -0.0103883 -0.067929424
0001e0 d1 c3 92 3d ee 3a 3c bd 63 29 b3 bd b7 8d 8b 3d
       0.07166255 -0.045954637 -0.08748128 0.06814139
0001f0 fa 37 a7 bd a8 00 8f bd 23 8b 08 bd 68 51 76 bd
       -0.081649736 -0.06982547 -0.033335816 -0.06013623

weight f4 [32, 128]
000000 e0 1d 72 bc 7f 56 ac 3d 1b 94 44 bd 8e b8 3e 3d
       -0.014777631 0.08414935 -0.047992807 0.046562724
000010 af 81 03 bd 50 fc 92 bb fc 67 ae bc de c0 b0 bd
       -0.032106098 -0.0044856444 -0.021289818 -0.086305365
000020 60 b5 e3 bc c8 03 cf 3c 79 ae 92 3d 02 2f 4e 3d
       -0.027796447 0.025270358 0.07162184 0.0503378
000030 14 3b 97 bd a2 bd 23 3d 41 56 09 bd 5c ba 81 bd
       -0.07384315 0.03997577 -0.033529524 -0.06334373
000040 d8 23 2e 3c c1 aa 88 bd 5e e3 41 3d d0 b8 3d 3c
       0.010628663 -0.06673194 0.047335975 0.011579707
000050 ec 2a ef 3c c0 ad 15 bb 84 b7 6a bd bd 84 91 3d
       0.029195271 -0.0022839159 -0.05730392 0.07105396
000060 60 58 9a 3c 00 68 00 ba 28 19 c9 3c 2e 9a f3 bc
       0.018840969 -0.00048983097 0.024548128 -0.029736605
000070 78 f2 b3 bd 28 6c 07 bc 84 3b ab 3c 9e 2c 8a bd
       -0.087864816 -0.008265533 0.020902403 -0.06746791
000080 4d 1f 20 bd 00 cc ff 3b 0e 68 94 bd 44 be b3 3c
       -0.03909235 0.007806301 -0.07246409 0.021941312
000090 75 77 8b bd d0 27 dd bb c8 cd 0e bc d2 cb 4e 3d
       -0.06809894 -0.006749131 -0.008716054 0.050487347
0000a0 ca 72 0c bd 44 18 ce bc 72 0c 6b 3d e4 69 b5 bc
       -0.03428916 -0.025158055 0.057384916 -0.02214522
0000b0 89 c5 8b 3d b2 a8 65 3d 30 46 c9 bb f1 39 90 3d
       0.06824786 0.056069084 -0.0061424 0.070423014
0000c0 40 bc 59 3c f5 80 9c bd 88 58 c8 3c ce 8b 2b 3d
       0.013289511 -0.07641784 0.024456277 0.041881375
0000d0 96 34 50 3d 47 ca 86 3d be ea 72 3d f0 ec 77 3c
       0.0508314 0.0658155 0.0593059 0.015132174
0000e0 10 4f 61 bd dd 34 ae 3d 48 14 01 3c 18 41 ac bc
       -0.05500704 0.085061766 0.007878371 -0.021027133
0000f0 72 a2 8e bd 1e 1b 3e 3d 30 6d 9b 3b 60 2a d1 bc
       -0.06964578 0.04641258 0.004743241 -0.025532901
000100 8f 16 85 bd 55 ac 8c 3d 4e 60 91 bd 6c 54 a2 bd
       -0.06498443 0.06868807 -0.07098447 -0.079262584
000110 0b 29 b4 3d 78 df 00 bc 00 b2 4d ba 92 eb 5e bd
       0.08796891 -0.007865779 -0.00078466535 -0.054423876
000120 c9 c8 ae 3d 89 60 a8 3d c0 26 54 bd 4b ee 93 3d
       0.085343905 0.082215376 -0.051794767 0.07223185
000130 04 c8 ba bc 20 20 6f 3b 48 49 04 3c ab 7c 85 3d
       -0.022800453 0.0036487654 0.008074112 0.06517919
000140 06 96 62 3d 4b 65 a2 3d 55 89 8e 3d 7c 8c 85 bc
       0.055318855 0.07929476 0.06959788 -0.01630234
000150 60 79 86 3c c7 e7 3f bd a8 fa 46 bd 1b 0e a8 bd
       0.016415298 -0.0468519 -0.04857889 -0.082058154
000160 18 a1 48 3c d9 ea 93 3d 88 7d d2 bc 90 e7 74 3c
       0.012245439 0.07222528 -0.025694624 0.014947787
000170 6a fb 7e bd 7e 09 4d 3d 27 42 1f bd 85 bf 17 bd
       -0.062251486 0.05005788 -0.038881447 -0.03704788
000180 40 a1 a8 bc a0 72 a9 bd d6 76 86 bd 40 41 e9 3c
       -0.020584702 -0.08273816 -0.06565635 0.028473496
000190 f0 5f 98 bd ad bb 1d bd dc 33 84 bc 2e 29 51 3d
       -0.074401736 -0.03850906 -0.01613801 0.051064663
0001a0 f8 8b 4f bc 51 1d 97 3d ba 18 44 3d fa dd 79 3d
       -0.0126676485 0.073786385 0.047875144 0.06100271
0001b0 38 83 d5 bc bd 41 91 3d d6 d2 6c bd df ed 8a 3d
       -0.026063547 0.07092617 -0.057818256 0.067836516
0001c0 de 3a 43 3d 48 ac ba bc aa c7 a4 bd 82 00 19 3d
       0.047663562 -0.022787228 -0.080458954 0.037354
0001d0 64 59 3e bd 44 d7 f5 bc 78 10 5c 3c fa da fa bc
       -0.04647197 -0.030009873 0.013431661 -0.030621994
0001e0 9c a2 e3 3c c4 33 e1 bc bd bc 2f bd 30 25 07 bd
       0.0277875 -0.027490504 -0.042904604 -0.03299445
0001f0 75 a0 b4 bd b0 0b 94 3c 88 37 4a bd a2 c3 3a bd
       -0.08819667 0.01807198 -0.049369365 -0.045596726
000200 7e 1d 4a 3d 94 db b3 bd 46 06 20 3d c0 75 20 bb
       0.049344532 -0.087821156 0.039068483 -0.0024484247
000210 56 21 40 3d 7c c6 80 3c 20 cf 85 3c 58 66 56 bc
       0.04690679 0.015719645 0.016334116 -0.013085924
000220 da ae 3c bd 72 f3 2e 3d 4e 7e 79 3d 89 4c 0f bd
       -0.04606519 0.042712636 0.06091147 -0.0349851
000230 1c c1 c2 3c b7 88 50 bd a6 7c 5d bd df 09 ac 3d
       0.023773722 -0.05091163 -0.054073952 0.0840032
000240 cf d7 84 bd bd 3e 49 bd ce 24 0c 3d 22 fb 38 3d
       -0.06486475 -0.049132098 0.034214787 0.045161374
000250 f5 59 a6 3d 28 b2 18 bd 30 af eb bc 3a fd 42 3d
       0.08122627 -0.037279278 -0.02877006 0.047604777
000260 02 5d 5f 3d 72 cf fd bc 2d f8 82 bd be 82 55 3d
       0.05453206 -0.030982707 -0.06394992 0.05212664
000270 d1 54 8e 3d 3a cb df bc 5c 95 91 bc aa c7 49 bd
       0.06949771 -0.027318586 -0.017771415 -0.04926268
000280 24 d6 7d bd 78 54 63 3c 1f c0 82 3d 76 88 67 3d
       -0.0619718 0.013875119 0.063843004 0.056526624
000290 72 d7 15 3d b0 ef e0 3b d4 54 8c bd 00 07 c7 b9
       0.036582418 0.0068645105 -0.06852117 -0.00037961453
0002a0 88 c7 dd 3c 47 51 a3 3d b9 92 ab bd 23 bd ab 3d
       0.027072683 0.07974487 -0.083775945 0.08385684
0002b0 9a 02 95 bd d8 cd 5b bd 21 9b af 3d 9c 33 9e 3c
       -0.07275887 -0.053663105 0.0857451 0.019311719
0002c0 36 80 06 bd f0 5c f5 3c fc f1 b9 3c 7b 4c 81 bd
       -0.032837115 0.029951543 0.022698395 -0.063134156
0002d0 28 d8 67 3c e4 48 d4 3c b0 bb ad 3b b3 7c a6 3d
       0.014150657 0.025913663 0.005301915 0.08129253
0002e0 28 79 a4 bc d6 90 2a 3d 80 be 92 bc ee f2 9f bd
       -0.020077303 0.041642033 -0.017913103 -0.07810007
0002f0 d8 45 55 bc b3 60 a2 3d 08 95 b0 bd 60 75 af 3b
       -0.01301714 0.079286 -0.086221755 0.0053545684
000300 d9 6c a7 3d a1 cd a2 3d 54 ab 6e bd 0d ee 1c bd
       0.08175058 0.07949377 -0.05826886 -0.03831296
000310 96 0d 57 bd 8b 40 aa 3d 0f 3e 8a 3d 60 fe 98 bc
       -0.05250319 0.08313092 0.06750118 -0.018675983
000320 38 89 30 bc c5 ce 9a bd 9a d4 17 3d f5 18 92 3d
       -0.010774903 -0.075589694 0.037067987 0.071336664
000330 e7 4f ab 3d c8 2d 03 bd 69 f2 80 3d 04 86 cc 3c
       0.083648495 -0.032026082 0.06296236 0.024966247
000340 b0 cc cc bb 3d 2a 39 bd 8a 02 5f bd 78 74 0c 3c
       -0.0062499866 -0.045206297 -0.05444578 0.00857269
000350 7c b7 3d bd f8 92 96 bd 58 0e 9a bd f0 54 01 bd
       -0.046317562 -0.07352251 -0.07522267 -0.031575143
000360 00 45 c0 3b e0 19 f9 3b f8 ae 13 3d 50 96 b4 bb
       0.0058676004 0.0076019615 0.036055535 -0.0055110827
000370 20 d6 b5 bc 28 3a 00 3c ab 43 9d 3d 10 8e c5 bb
       -0.02219683 0.0078263655 0.07678922 -0.006028898
000380 95 e1 ad 3d 8e 7c 23 3d 12 67 60 3d 6c 9d 13 bd
       0.08490292 0.039913706 0.054785796 -0.0360388
000390 fa 52 78 bd 17 6c b4 3d 00 f3 5b bc 00 eb c1 bc
       -0.060626008 0.08809679 -0.013424635 -0.023671627
0003a0 dd d1 8e 3d 38 44 25 bc 16 14 07 3d f8 d1 32 3c
       0.06973622 -0.010087065 0.03297814 0.010914318
0003b0 c3 70 95 3d 5e 99 2d 3d de ae 16 3d a1 d5 80 3d
       0.07296898 0.04238259 0.03678786 0.062907465
0003c0 bc 67 e9 bc 30 98 49 bd 52 dc 2a 3d a0 5a 6f bd
       -0.028491847 -0.049217403 0.04171402 -0.058436036
0003d0 80 b2 97 3c f8 21 41 bc a9 aa 5c bd b6 2c 95 bd
       0.018517733 -0.011787884 -0.05387369 -0.072839186
0003e0 9d cf a3 3d 50 e7 32 3c 60 66 5e bc 60 2d e6 bc
       0.079985835 0.010919407 -0.013574213 -0.028097808
0003f0 a6 ab b2 bd 7a ae 01 3d 80 09 31 bb 5d be 3e bd
       -0.087241456 0.031660534 -0.002701372 -0.046568263

bias f4 [32]
000000 31 cb 51 bd 2c 1a a1 bd 07 39 3a bd 32 12 a1 bd
       -0.05121917 -0.0786632 -0.04546454 -0.078647986
000010 ce a3 f9 bc 3a ad 88 bd ff b1 1f bd ac 75 c2 3c
       -0.030473616 -0.06673665 -0.03898811 0.023737751
000020 00 6b ec 3a fc b1 8c 3c 64 05 b2 3c 50 ad 07 bc
       0.001803726 0.017174713 0.021731086 -0.008281067
000030 92 73 7e 3d 70 20 c1 3c 4a dc 32 3d c0 df fc 3c
       0.062121935 0.023575038 0.043667115 0.030868411
000040 76 29 4b 3d da 65 58 3d 8c 0f ec 3c 0e fd 58 3d
       0.049600087 0.05283151 0.028816007 0.052975707
000050 f2 73 ab bd aa 16 a9 bd 7a a2 a9 bd 2a c8 fb bc
       -0.08371724 -0.08256276 -0.08282943 -0.030735094
000060 49 8a 81 3d ce 1a 65 bd a2 d7 4b 3d a7 09 88 3d
       0.06325204 -0.055933766 0.04976619 0.06642466
000070 7d 13 ad 3d 97 c9 88 bd b8 b6 7a bc 50 5d 6f 3c
       0.08450983 -0.06679075 -0.015302353 0.01460965
